dqn/exercise/models/checkpoint399_-49.463360011578125.pth (torch, 7111 bytes, 3 tensors)

fc1.weight f4 [32, 8]
000000 67 a0 af 3e df c6 fc bb 33 82 3d bf d1 a3 dc 3c
       0.34302065 -0.007714137 -0.74026793 0.026933582
000010 e8 20 15 40 df ef cf be 8c 35 c8 3e 15 04 01 3f
       2.3301334 -0.40612695 0.39103353 0.50396854
000020 1a 7a 5b bd 4a f1 81 3e 78 f7 05 be 69 3b 20 be
       -0.053583242 0.253794 -0.13082683 -0.15647663
000030 1b 8e 4f bf f6 a2 9b bf ef 01 b2 be c6 57 67 be
       -0.8107621 -1.2159107 -0.347671 -0.22592077
000040 5b f4 60 3e a5 3b 5c 3e 08 04 1d be ba 70 fb be
       0.21968214 0.21507128 -0.15333569 -0.4910944
000050 e2 4c 36 3f 67 52 83 3f c7 de c8 bc b2 9a 96 3e
       0.71211064 1.0259522 -0.024520291 0.29414898
000060 ee aa 2f 3f 3d 10 11 bb 5b 0e 96 3f 39 58 25 3e
       0.68620193 -0.0022134923 1.1723131 0.16146936
000070 72 25 7f bf 64 2c 14 bf 01 b5 60 be e2 be 77 3e
       -0.9966651 -0.57880235 -0.21944048 0.2419391
000080 02 f7 cc be 13 71 b7 bf 88 d4 97 be 67 0d 8d bf
       -0.40032202 -1.4331383 -0.29654336 -1.1019715
000090 40 f8 26 be 71 b7 5f 3e 0b 70 8f 3e 76 a4 8d 3e
       -0.16305637 0.21847321 0.2801517 0.27664536
0000a0 5f 24 38 3f 3d b2 8b bf e3 da d3 3e 1b b4 ea be
       0.719305 -1.0913769 0.41377935 -0.45840535
0000b0 93 b1 44 bf 17 e9 2a bf 65 16 8c 3e 36 8a a2 3e
       -0.76833457 -0.66761917 0.27360836 0.31746072
0000c0 f5 36 d8 3c 49 a7 84 bf 73 af 97 bd 98 94 43 bf
       0.026393393 -1.0363551 -0.07406511 -0.7639861
0000d0 48 fa f7 3e 42 4a 99 3e 64 b5 e6 3e 3d 29 9d be
       0.48433137 0.29939467 0.45060265 -0.30695525
0000e0 b4 68 0d 3f b0 1a e4 bf b3 0b d3 bb 0b b9 8f bf
       0.5523789 -1.7820644 -0.0064406036 -1.1228346
0000f0 ee 65 16 3e c9 12 61 3e 87 d0 57 3d e4 8d bf 3d
       0.1468732 0.21979822 0.0526891 0.09353235
000100 2a 62 26 3f a9 57 49 3d bf e9 0e 3e cf d5 5b be
       0.64993536 0.049155865 0.13956355 -0.2146828
000110 58 be 37 3f 31 23 98 3f 4c 93 7c 3d bc ad 58 bd
       0.71774817 1.188574 0.06166391 -0.05290006
000120 b8 0b 9e 3e 26 9d 55 3f 63 2c 58 3e fb 39 a4 3f
       0.30868316 0.83442914 0.21110682 1.2830194
000130 cc 62 a9 bb 13 02 0f bf 2f b6 b8 3d 0b 4a 1f bf
       -0.005169248 -0.5586254 0.09019124 -0.62222356
000140 ef be 16 bd f6 c8 06 3f cd 01 2c 3f be 8d f2 bf
       -0.036803182 0.5265039 0.6719025 -1.8949506
000150 25 96 0f bf fe dc 12 bf 30 7a ea 3e 61 78 2d bc
       -0.5608848 -0.5736846 0.45796347 -0.010587783
000160 be 5d 6e 3f 98 85 4f bf 20 2c 70 3f d8 56 33 be
       0.9311179 -0.8106322 0.9381733 -0.17513597
000170 bd e6 bd 3e 98 ff a9 3e 61 7c a3 bd 2e 21 8b 3d
       0.37090102 0.33202815 -0.07982708 0.06793438
000180 b6 58 70 bb 49 29 8c be e6 e5 bd be fb fb 6b be
       -0.003667397 -0.27375248 -0.3708946 -0.23045342
000190 9b 3c 54 3f 0e f8 7c 3f c9 ce 12 3d fa 88 8e be
       0.82904977 0.98816 0.035841737 -0.2783888
0001a0 4b 49 ff be 3b d5 89 bf 47 b8 87 be 51 53 8d bf
       -0.49860606 -1.0768198 -0.2650778 -1.1041051
0001b0 c9 45 22 3e bc e6 0b 3e c8 1b a7 bc f9 29 8d 3e
       0.15846933 0.13662237 -0.02039899 0.27571085
0001c0 16 ae da bd a0 25 62 3f 83 ae 33 3f 4f 60 9a bf
       -0.106777355 0.8833866 0.7018816 -1.2060641
0001d0 c3 28 84 be 02 ef ef 3e de 71 0d bf de 63 14 3e
       -0.2581235 0.46862036 -0.5525187 0.14491221
0001e0 33 7d 24 be a8 d1 90 be 79 4d 64 be f9 17 40 3e
       -0.16063385 -0.28284955 -0.22295178 0.18759145
0001f0 40 08 34 bf 92 57 91 bf c0 ad 82 be 0b b9 03 be
       -0.7032509 -1.1354849 -0.25523186 -0.12863557
000200 49 35 14 3f 48 7d 41 bf 5c 74 5d 3e 03 d9 9a be
       0.57893807 -0.7558179 0.21626419 -0.30243692
000210 bf b6 1f bf 8f f0 1d bf 41 34 bc 3e 9f c5 70 3e
       -0.62388223 -0.6169519 0.36758617 0.23512886
000220 c8 6d cb be 2d e8 e0 3d 00 37 52 3e 32 25 35 3d
       -0.39732194 0.10981784 0.20528793 0.044224925
000230 58 5b 35 3f d6 73 b1 3f 9f a0 8b 3e 04 1e 05 bf
       0.70842505 1.3863475 0.27270982 -0.51998925
000240 39 91 c4 be e9 d4 77 3d c3 0e cd ba 36 a0 87 bc
       -0.38392046 0.06050578 -0.0015644658 -0.016555887
000250 8c 5f de be 01 d0 9b bf 04 b7 e2 be c5 01 58 3e
       -0.4343227 -1.2172853 -0.44280255 0.21094425
000260 96 cf 12 be 55 cb 5d bf 64 99 43 3d 8f 8a 76 bf
       -0.14337 -0.86638385 0.047753707 -0.96305174
000270 c1 5d 63 be 93 79 17 bf 1e e0 78 3d 12 a2 23 bd
       -0.22203733 -0.5916988 0.06076061 -0.039949484
000280 d5 f4 86 3d 7e fb 94 bf 03 e0 af be 27 bd 8a bf
       0.06589667 -1.1639249 -0.34350595 -1.0838975
000290 2e 3c 85 3e c3 2c 9f 3e 11 55 ca bc 8a 0e 46 3e
       0.26022476 0.31088838 -0.024698766 0.19341484
0002a0 29 fb b4 3e de 61 90 bf 55 0c c8 3e 43 ef 66 bf
       0.3534787 -1.1279867 0.3907191 -0.90208834
0002b0 5f bd 13 3f d4 10 52 3e 02 8b 09 be 08 d7 00 3e
       0.5771083 0.20514232 -0.13431934 0.12582028
0002c0 3d 1a d2 3e 0d 6c 77 bf b3 cf fc 3e ed 00 c2 be
       0.41035643 -0.9664925 0.49377212 -0.3789133
0002d0 62 5e f7 be c0 ab 15 bf 7d 18 84 3e b8 81 ca 3e
       -0.48314196 -0.58465195 0.25799933 0.39552093
0002e0 bd 12 6f 3f 73 fc 48 bf 2a bd 02 3e bb a8 85 be
       0.9338797 -0.78510207 0.12767473 -0.26105294
0002f0 1d 5c 06 bf 67 15 cd bd 35 f3 da 3e 93 cc 81 3e
       -0.52484304 -0.10013848 0.42763677 0.2535139
000300 6c ce be 3e ad 59 ff bd 16 45 52 bf 98 25 cd bf
       0.37266862 -0.12468276 -0.82136667 -1.6027098
000310 47 93 98 3f 74 45 3c bc bd d4 d5 3d 1d 47 5d 3e
       1.1919945 -0.011491168 0.10440967 0.21609159
000320 7c 0e 55 3d ab 0c 8a 3e 8f fb f4 bf 08 b7 82 be
       0.052015767 0.2696279 -1.913927 -0.25530267
000330 35 8c be 3e d5 b5 c4 3e 39 59 14 be 1a 53 87 3e
       0.37216344 0.38419977 -0.1448716 0.2643059
000340 3a 4f 2c 3f 9d 75 87 be 21 74 c0 3e 40 eb 12 3d
       0.6730839 -0.2645692 0.375886 0.035868883
000350 14 eb 0c bf 2a 7a 21 bf 67 70 2d 3d c8 cd 79 3e
       -0.550462 -0.6307703 0.042343523 0.24394906
000360 12 05 b4 3c 24 96 ac bf ed c6 30 3e 07 cd 9a bf
       0.021975074 -1.3483319 0.17263384 -1.2093819
000370 d5 3f 50 3e 30 59 8c 3e 1f 1b 9c 3e 8d d5 83 bc
       0.2033685 0.27411795 0.30489442 -0.01609304
000380 e4 bd 4f bf d1 0b 61 bf 6e 2b e8 be 79 dc 47 bf
       -0.81149125 -0.87908655 -0.45345634 -0.7807079
000390 f5 05 61 3c 99 a1 5b 3d 5c b0 be 3d 60 9f c6 3e
       0.01373433 0.05362091 0.09310982 0.38793468
0003a0 e0 34 33 3f d4 a9 05 3e a8 03 9e 3d c8 7b 3d be
       0.70002556 0.13053066 0.07715541 -0.1850425
0003b0 ac b4 13 bf 15 0d 89 bf 22 f3 7d be b1 8a 00 3d
       -0.5769756 -1.0707117 -0.24799779 0.031382266
0003c0 32 e3 41 3f cc 98 16 3d 4f 40 f5 bd d5 1a 35 be
       0.757373 0.036766812 -0.119751565 -0.17686017
0003d0 22 e7 1b bf c1 48 87 bf 38 29 a7 3d 39 78 11 be
       -0.60899556 -1.0569078 0.08162159 -0.14206018
0003e0 4b ee 97 bf 2d 91 57 bf 25 f9 43 bf f9 6a 32 bc
       -1.1869596 -0.84205896 -0.7655204 -0.010889762
0003f0 42 6c 75 3f fb 4d 2e 3e ea ef 5b be e6 90 89 be
       0.95868313 0.17021935 -0.21478239 -0.2686836

fc2.weight f4 [32, 32]
000000 6b 64 aa be 62 1a 4f 3f 98 e8 e6 3e 48 39 9b 3e
       -0.33279738 0.8089963 0.4509933 0.3031714
000010 9c fd 04 3f 30 2f 2a 3f 72 8e 2a 3f 33 c0 5d 3f
       0.5194948 0.6647825 0.66623604 0.866214
000020 50 56 70 3f d3 c6 9a 3e 22 64 b2 3a 18 64 1e 3f
       0.938817 0.30229816 0.0013610164 0.6187148
000030 ae b1 54 3f 1b 63 2a 3f 6b 9e f2 be 3a a2 23 3f
       0.8308362 0.6655747 -0.47386488 0.63919413
000040 79 39 c8 3e 3e 23 61 3f 32 e8 09 3f f7 e1 93 3e
       0.39106348 0.879444 0.53869927 0.28883335
000050 f7 f0 6d 3f a5 5f ce 3e c2 67 ec 3e 90 5c 21 3f
       0.9294581 0.40307346 0.4617291 0.63031864
000060 0c a1 88 3e c7 38 92 3e 55 03 ed 3e d7 ad 16 3f
       0.2668537 0.28558943 0.46291605 0.5885901
000070 cd d8 10 3f df d9 30 3f dc 92 18 3f e2 d5 a5 3f
       0.5658081 0.69082445 0.5959909 1.2955897
000080 0d 49 12 be 89 ab 49 3f e4 20 65 bd 2b 88 e0 3e
       -0.14285679 0.78777367 -0.05593957 0.43853888
000090 d8 29 ab 3e 7f 4c e8 3e 65 ce a2 3e ce 91 e4 3e
       0.33430362 0.45370862 0.31798092 0.4464249
0000a0 fd 82 d5 3e f4 2f 79 3e e8 5e 81 3e a9 7e 2d 3e
       0.417015 0.24334699 0.2526772 0.16942848
0000b0 c6 fb 17 3e 23 f8 c8 3e fc fe 35 bf af 81 63 3f
       0.14842138 0.39251813 -0.710922 0.88869756
0000c0 39 52 01 3f 7c 1a 88 3e 70 1c 32 3f c3 74 f9 3e
       0.50516087 0.26582706 0.6957464 0.48721895
0000d0 ec 55 1a 3f e6 c0 7f 3e 89 b5 3a 3e a4 75 b1 3e
       0.60287356 0.24975929 0.18233313 0.34660065
0000e0 39 a5 37 3e f2 25 8a 3d 03 3b 1a 3f 8e 8c 7d 3e
       0.17934121 0.06745519 0.60246295 0.24760649
0000f0 72 24 9d 3e 83 b6 03 3f b6 1e 35 3f c9 20 82 3f
       0.30691868 0.51450366 0.70749986 1.0166255
000100 eb c6 7b be f2 ba 49 3f f8 26 52 3d f3 49 a4 3e
       -0.245876 0.7880088 0.051306695 0.3208767
000110 6f 4a 0b 3f e2 ee 10 3f 90 59 f8 3e 9e a1 06 3f
       0.5441045 0.56614506 0.4850583 0.5259036
000120 7b 58 43 3f df 9b cc bd f2 59 f7 3d 32 06 94 3e
       0.76306885 -0.099906676 0.120777026 0.28910977
000130 44 0f 00 3f 73 54 0e 3f 62 ba d8 be 01 1f 3e 3f
       0.50023293 0.5559761 -0.423297 0.7426606
000140 97 55 ef 3e 48 cc 11 3f 30 cc 51 3f 5c aa 19 3f
       0.46744987 0.56952333 0.8195219 0.6002557
000150 0d ba fd 3e fc 38 be 3e ec 15 08 3f 14 70 0c 3f
       0.49556008 0.3715285 0.5315845 0.5485852
000160 28 00 39 3c 86 d7 15 3e cb c1 17 3f ce 71 ad 3e
       0.011291541 0.14632997 0.5928008 0.3387589
000170 1e 41 92 3e d8 d8 19 3f f7 2e e6 3e c3 ea 97 3f
       0.28565305 0.600965 0.44957706 1.1868519
000180 91 ca 50 be 06 8c 0b 3d 56 c8 d8 3e 3a 8a ea 3e
       -0.20389773 0.034069084 0.42340344 0.45808583
000190 d0 8c 8a 3e 8a d0 e3 3e 46 6b 4e 3e b4 fd ce 3e
       0.27060556 0.4449504 0.20158109 0.40427935
0001a0 64 63 e2 3e cb d1 03 bf be 12 02 bf 36 41 be 3e
       0.44216454 -0.51491994 -0.5080985 0.37159127
0001b0 6d 5d 33 3f 7c 9c dd 3e 60 c0 05 be db 64 b2 be
       0.7006443 0.4328345 -0.13061666 -0.34842572
0001c0 c0 f6 37 3e 6a d3 46 3f b0 7b 1b bf 1f c0 90 3e
       0.17965221 0.7766634 -0.6073561 0.28271577
0001d0 a4 cc a5 3e a4 be d7 3d a5 fe 31 3e 20 c5 81 3e
       0.3238269 0.10534409 0.17382295 0.25345707
0001e0 bb 7d 8b 3d 47 29 69 3e 92 ca e7 3e 7c 28 c3 3e
       0.068110906 0.22769652 0.45271736 0.38116825
0001f0 ba 7a 95 3e 5e 1c 41 bd 1e 5e bb 3d 11 bd 6e 3f
       0.29195195 -0.047146194 0.09148811 0.9325724
000200 36 c8 5f be 99 4e 2a 3f 75 47 28 3f 65 89 88 3e
       -0.21853718 0.6652618 0.65734035 0.26667324
000210 aa c0 27 3e d7 6c f8 3e 8c be a6 3e a9 c4 fa 3e
       0.1638209 0.48520538 0.3256725 0.48978165
000220 30 5a 36 3f 3f bb 3a 3e 3f 55 1d be 5b 7d 18 3f
       0.71231365 0.18235491 -0.1536455 0.5956628
000230 29 81 58 3f 94 d8 90 3e ad dc 7d be 61 31 52 3f
       0.8457208 0.28290236 -0.24791212 0.82106596
000240 7d df 0a 3f a4 45 78 3f 35 97 86 3e 9d 3d 01 3f
       0.54247266 0.96981263 0.26287237 0.5048464
000250 15 c2 10 3f cc ce 8f 3e 9d 64 fe 3e 5f 36 de 3e
       0.56546146 0.2808746 0.49686137 0.43400857
000260 67 15 91 3e 7c 8b 16 3f 63 05 95 3e 86 5f 0f 3e
       0.2833664 0.58806586 0.29105672 0.14001283
000270 0a 3d 9a 3e 4c ee b6 3e 34 e8 be 3e e9 31 84 3f
       0.30124694 0.3572868 0.37286532 1.0327731
000280 6e 53 4c be 56 cb 49 3e 93 8f 12 3e 43 06 0e be
       -0.19953701 0.19706473 0.14312582 -0.13869576
000290 8a 3a a5 bd 07 de b5 be e3 8f 84 3e 28 b7 8f 3e
       -0.08067806 -0.35520956 0.25891027 0.28069425
0002a0 7b 85 19 3f 5a 83 84 3d 3a 01 63 3d 09 72 6d 3e
       0.599693 0.06470366 0.05542109 0.23188032
0002b0 b1 d1 0b 3e e0 09 10 3d ad ad 75 3e 93 a4 40 bf
       0.1365421 0.035165668 0.23992033 -0.7525112
0002c0 b3 ad ae be 44 be 6b 3e 29 eb 83 3f 94 39 85 be
       -0.34116897 0.230218 1.030614 -0.2602049
0002d0 09 fa a9 3d 1d 0e ca 3d f8 cc 03 3c 37 c0 b2 3d
       0.082996435 0.09865973 0.008044474 0.08728068
0002e0 84 b8 61 bd fd 3a bd be 0d c6 40 be 8c 82 5c 3e
       -0.05510761 -0.36959067 -0.1882555 0.21534175
0002f0 3d 0a 86 be 94 9c 21 3f ee 49 41 be 02 21 20 3f
       -0.26179686 0.63129544 -0.18875858 0.62550366
000300 74 d7 a5 be d7 77 0c 3f 38 7a bf 3e 45 2f 31 3f
       -0.3239094 0.5487036 0.37397933 0.6921275
000310 ba fe 1c 3f 85 be 02 3f fc bf a2 3e 97 fc 19 3f
       0.6132618 0.5107196 0.31787097 0.60151047
000320 ce d9 06 3f 60 6a 02 3f 1b 7c 73 bd cc 7d 39 3e
       0.52676094 0.50943565 -0.059444528 0.18114394
000330 58 ee 58 3e 09 78 a1 3e 57 48 dc be 5a 0d ed 3e
       0.21184671 0.31536892 -0.4302394 0.4629925
000340 8c db cb 3e 9a ec 1f 3f b1 66 45 3f 4f 2f 2d 3e
       0.39815938 0.624704 0.7710982 0.16912578
000350 9d 84 c4 3e 63 58 23 3e 64 81 d7 3e 1b 49 1f 3f
       0.38382426 0.15951686 0.42090905 0.62220925
000360 c3 6f 87 bc 12 d1 8a 3d d9 ad 25 3f 15 68 7f 3d
       -0.016532784 0.06778158 0.64718395 0.06235512
000370 0b 87 54 3e ef eb 30 3f 32 5e d9 3e 09 84 85 3f
       0.2075464 0.69110006 0.42454678 1.0430919
000380 26 44 e0 3f a7 00 00 be 49 93 ca bf 81 48 8b 3e
       1.7520797 -0.12500249 -1.5826198 0.27203754
000390 3d 71 9b bf af 39 82 bc 07 90 44 bf 0f ae ae bf
       -1.2143933 -0.015896646 -0.7678227 -1.3646868
0003a0 40 46 81 bf 36 71 a3 be 0f dd 4f 3f 16 6d 75 bf
       -1.0099564 -0.3192231 0.81196684 -0.95869577
0003b0 3c c6 d2 3e ec e0 a8 bf b8 39 c3 3f a3 82 ad be
       0.41166866 -1.3193641 1.5251989 -0.3388873
0003c0 cf 2b b9 be 90 2f 29 c0 39 b7 92 3d fc 04 62 3e
       -0.36166236 -2.643528 0.07163853 0.22072214
0003d0 11 07 c1 bf 1c 9e 86 bf 00 17 a3 bc e3 81 69 be
       -1.5080281 -1.0517001 -0.019908428 -0.22803454
0003e0 9c f8 88 3f 56 0a 7d bd cd f5 b6 bd e8 89 8b bf
       1.070087 -0.061777435 -0.089336015 -1.0901461
0003f0 60 98 95 bf 74 b7 dd 3d 29 bf 30 be e1 fd 9d be
       -1.1687126 0.108260065 -0.17260422 -0.30857757

fc3.weight f4 [4, 32]
000000 8a dc 13 bf d3 18 f2 be 1c 19 ef be 34 c2 ac be
       -0.5775839 -0.47284564 -0.46698844 -0.33741915
000010 48 e3 c7 be 75 f1 0e 3e 65 a2 eb be 9b 35 d0 3f
       -0.3904059 0.13959296 -0.46022335 1.6266359
000020 0a 6f 1e 40 b2 18 24 40 ac ae 8d be be 1b bb be
       2.4755273 2.5640073 -0.27672327 -0.36544603
000030 8f cf 02 bf 74 9f 63 3f 51 d8 19 bf 31 96 14 bf
       -0.5109796 0.8891518 -0.600957 -0.58041674
000040 cb e8 3b 40 7f 56 0d bf cc 50 7e be 95 a4 1b bf
       2.9360836 -0.5521011 -0.24835509 -0.6079801
000050 ee ab 06 bf 99 07 bb 3f 86 7c c5 be 9c 64 87 be
       -0.52606094 1.4611694 -0.38571566 -0.26443946
000060 25 9e a0 be 8b fc d8 be bf 3d da 3c 64 05 e2 bd
       -0.31370655 -0.42380175 0.026640771 -0.110361844
000070 76 2c 28 bf 80 c6 a0 be 94 10 fd 3f 2b ae f7 be
       -0.6569284 -0.31401443 1.9770684 -0.48375067
000080 09 15 ef be 8a 79 0e bf ad 96 b1 be dc 0e 3f be
       -0.46695736 -0.55654204 -0.3468527 -0.18658012
000090 41 b1 3a bf 0c 4b be be e2 4d 28 be 1b 48 29 40
       -0.7292672 -0.3716663 -0.1643596 2.645026
0000a0 58 28 03 40 56 98 f7 3f 99 c3 e0 be 91 f2 1d bf
       2.0493374 1.9343364 -0.4389923 -0.6169825
0000b0 28 1c 1d bf 9a c1 b8 3f 1c cd bb be ba 9d 0a bf
       -0.6137109 1.4434083 -0.36679924 -0.5414692
0000c0 41 ff 2d 40 61 a7 2b bf b1 0c ba be 86 43 15 bf
       2.7187045 -0.67052275 -0.36337808 -0.5830616
0000d0 23 87 82 be e5 d6 de 3f 82 87 1d bf 90 59 df be
       -0.25493726 1.7409331 -0.61534894 -0.43623018
0000e0 f1 fd 14 be da b4 02 bf b7 81 e3 3c 3d 59 06 3d
       -0.14549996 -0.5105721 0.027771814 0.032799948
0000f0 db a6 2b bf 73 bb a4 be 93 b3 eb 3f e9 06 a3 bd
       -0.67051476 -0.32174262 1.8414177 -0.079603024
000100 21 3d 19 bf ab bd 01 bf 79 11 ae be 52 e4 33 bf
       -0.598589 -0.50680035 -0.33997706 -0.70270264
000110 4b d7 05 bf 75 7f 40 bc d7 c0 25 bf d1 14 cc 3f
       -0.52281636 -0.011749138 -0.64747375 1.5943853
000120 83 79 1a 40 f7 dd 1b 40 31 58 08 bf ea f2 a4 be
       2.4136665 2.4354227 -0.5325957 -0.3221658
000130 1f 5d 1b bf 40 d5 7f bf 52 23 a3 be 25 60 d6 be
       -0.60688967 -0.9993477 -0.31862885 -0.41870227
000140 ed 41 ed 3f 6d 6c a0 be aa ed 3b bf ef 17 9e be
       1.8535744 -0.31332722 -0.7340952 -0.30877635
000150 1a 7b cb bd 5d 76 e2 3f dd cc ea be 33 e4 01 bf
       -0.09935589 1.7692372 -0.45859423 -0.5073883
000160 a9 dc 38 bf 80 d4 9e be f2 a1 29 40 0d f1 c6 3d
       -0.722117 -0.310215 2.6505094 0.097139455
000170 d1 15 2e bf 87 44 1f bf c6 44 94 3e a8 4c 82 be
       -0.6800204 -0.6221394 0.2895872 -0.2544911
000180 b5 30 e6 be 07 4e 08 bf 9f 4a 0e bf 55 b8 88 be
       -0.44959036 -0.5324406 -0.5558261 -0.26703134
000190 fd 9e 4e be f8 50 44 bf 22 44 0a bf 9b fb 03 3f
       -0.20177837 -0.7668605 -0.5401021 0.51555794
0001a0 06 a7 14 40 bb 49 3b 40 f2 26 ec be 29 97 14 bf
       2.3226943 2.9263752 -0.46123463 -0.5804315
0001b0 37 80 11 bf cb 49 7d 3f 82 36 f7 be 2a 47 47 be
       -0.56836265 0.98940724 -0.48283774 -0.1946074
0001c0 f9 81 37 40 68 4b 6d be 48 5b 18 bf f9 a5 0b bf
       2.867308 -0.23173296 -0.59514284 -0.5455013
0001d0 29 19 02 bf 0f c8 c2 3f af af d2 be a9 be d4 be
       -0.5081964 1.5217303 -0.4114966 -0.41551712
0001e0 2b 91 02 bf 4f 62 1e bf 01 d4 59 3e 80 55 88 3d
       -0.5100276 -0.61868757 0.2127228 0.06656933
0001f0 24 5f d9 be c6 8b 97 be 6e ae 35 40 ad f6 21 bf
       -0.424554 -0.29598826 2.8387713 -0.6326702
