dqn/exercise/models/checkpoint654_164.6185148805032.pth (torch, 7111 bytes, 3 tensors)

fc1.weight f4 [32, 8]
00000000: 877f 303b 57f7 82bb a7f7 8d3d 6143 b43d
00000010: 8d43 5440 89df fbbe 89b0 993e 987e 093f
00000020: 0b82 263c b1b1 023f 4902 2b3e 98f1 6fbf
00000030: 6323 70be f6d8 a2bf 61f9 f6be 70fc 33be
00000040: 02cf 4e3d 4b6f 2b3f 7d17 54be 6c1b e9be
00000050: 8062 a23f 611f 363f 9ce4 a13d 3876 6a3d
00000060: 63bf 703d 15a6 41bc 2450 0e40 c8ab 5e3f
00000070: d38e 28bf 07f7 1bbf 4aa0 7dbf 6d0b 8b3e
00000080: c9cf 11bf 826d 13bf 971e 36be 0761 6fbe
00000090: f8b0 6a3d 68e7 073a bc06 bc3e 1006 6c3e
000000a0: 796d c53e c291 7fbf 6df9 5d3e 00e4 813f
000000b0: e324 e2be 4edf 1ebf 986e 483e 5432 a23e
000000c0: e85e 34be a1da abbe 46d3 003b 9c81 e6bc
000000d0: 2e33 153f a232 1a3e 1f8c f73e 5e1f 8dbe
000000e0: 26b9 3d3f 2e2b afbf c02e fa3d 1e70 a7bf
000000f0: 32bf 0f3e 952d 173f a913 f43d bd3b 4b3c
00000100: 9fe2 6e3e 00c3 ad3e 024d 083f e9e2 053d
00000110: 3858 543f f3ee 7c3f 67bc 61bd 570e 7f3d
00000120: 6a21 ce3e 86c7 623f 8fd4 c83e 9a8c 0840
00000130: 67dc f2be d803 8b3c 968b 2c3e 5d1c 2dbf
00000140: e7e3 823d c73b e53e 9325 263f 5b92 20c0
00000150: 568b 6cbf 4a76 d9be a4cb ff3e 98d7 063d
00000160: e1d3 b93e 7968 3abf 283c d23f 096f 033e
00000170: b6a9 93bc ba9b 023f f4da 77bd 97b8 8c3d
00000180: 1237 a8be b85e cb3d 48d6 b9be 637d 413f
00000190: 8f15 953f f40c 563f e093 94bd 3d81 00bf
000001a0: 98be 24bf 1a74 d4be 17b8 8abe 9635 bebe
000001b0: 17a0 8a3e 5628 2abd 69b4 0d3c 60aa 813e
000001c0: 988c 43be 1b43 4a3f 7ead 9f3e c014 87bf
000001d0: e759 7fbf 41b1 553f 09e0 52bf 1190 b23e
000001e0: 1623 5d3e fa63 a1be bb77 77be 1a22 8cbb
000001f0: cbbb 07bf 1a63 a1bf 9ddc c6be a155 9abd
00000200: 98a3 5f3e 0ac8 24bf 720c 06be da7e 4f3f
00000210: fc0d a43b 701f 1abf 73ca a93e 77ac 193e
00000220: b8d7 0abf 688f 563e 200c f63e 6c95 c03c
00000230: ec9e 893d d259 5d3f fd49 fa3e 7d2c 06bf
00000240: d9f1 f5be 8f46 063d 636f c1bc b58b 463e
00000250: 1c2a d7bd d38c 65bf 2de5 a3be 9b07 9d3e
00000260: 49c7 5cbe 629e a5be 142a b0be ad4c a0bf
00000270: 43f3 f0be 6cf6 3cbf 57d2 193e a07a 23be
00000280: b3da 88be d289 c5be a906 47bf a1cf c4be
00000290: 15bb 483f c7fa 0c3f cc67 69bd 982a 263d
000002a0: 526e e1bd 460c a9bf e645 1f3f 620f 6cbf
000002b0: 4e09 163f ea08 1c3f ea0a 0bbf a4c3 02be
000002c0: 99b7 8f3c 695c d7be ca01 1a3e e63f 243f
000002d0: aaa4 86be 9fb5 0fbf 3239 353e f77f 0c3f
000002e0: ff57 873f 6711 9abe 8e35 153f b940 3b3f
000002f0: a4f7 d1be 65fb 57be bf90 9e3e f3bf 84bc
00000300: d228 c43e f020 ac3c 916b e2be 9767 c8bf
00000310: 46c5 ab3f 2ac7 ec3d 3489 253e 55b8 433e
00000320: 7b78 f4bc b484 153e 2894 3ac0 ab66 b83e
00000330: 110b f0be e768 813e d83e cb3d 6ebe 883e
00000340: e3ee 603f 39e5 a5be 98ce 363f 2539 f63e
00000350: ae8c f5be 5d38 93be a477 d1bc d90b 473d
00000360: 601c 0ebe d51b 06bf 8e33 4f3f ae5f 8cbf
00000370: 7df4 8ebd 9886 fd3e 8e78 273f 8a81 cd3a
00000380: 77f4 87bf 8d40 91be 0c2a 1abf 8f57 89be
00000390: c3d8 c63e 5348 bebd e556 933d d2b2 b53e
000003a0: 4965 343f e78f 263e f2cf ef3d dd1f 43bf
000003b0: a4da 8f3d c5c1 7ebf a788 bdbe 68fd 7ebc
000003c0: a027 763f 2109 e5bc 3a72 d7bc 98f4 e6be
000003d0: f52f 29be f8ae 7ebf e933 513e b19a 15be
000003e0: 13e1 b9bf b777 0cbf be9c 89bf 30d1 833d
000003f0: a3eb b83f 43dc 973d aafc 56bd c9c7 013b
0.002693148 -0.0039967704 0.069320016 0.08801914 3.316623 -0.4919398 0.30017498 0.5370879
0.010162841 0.51052386 0.1670009 -0.9372802 -0.23450999 -1.2722461 -0.48237136 -0.17576766
0.050490387 0.66966695 -0.20712085 -0.45528734 1.268631 0.7114163 0.07904932 0.05724165
0.05877627 -0.011819382 2.2236414 0.8698087 -0.6584293 -0.6092381 -0.99072707 0.27157155
-0.5695768 -0.5758897 -0.17785107 -0.23376857 0.057297677 0.00051843235 0.36723888 0.23049188
0.38560084 -0.99831784 0.2167718 1.0147705 -0.44168767 -0.62059486 0.19573438 0.31679022
-0.17614329 -0.33565238 0.0019657179 -0.028137974 0.5828122 0.15058377 0.4834909 -0.27562994
0.7411064 -1.3685052 0.12215948 -1.308109 0.14037779 0.5905393 0.119178124 0.012404379
0.23328637 0.33937836 0.53242505 0.0326871 0.8294711 0.9880211 -0.055111315 0.062269535
0.40259868 0.885857 0.3922467 2.1335816 -0.4743378 0.016969606 0.16850123 -0.67621404
0.06391125 0.4477217 0.64901084 -2.5089328 -0.9240011 -0.4247306 0.49960053 0.03292045
0.36294463 -0.7281566 1.6424608 0.12835325 -0.01802526 0.5101887 -0.060511544 0.06871145
-0.32854515 0.099301755 -0.36296296 0.7558195 1.1647204 0.83613515 -0.072547674 -0.501972
-0.64353323 -0.41494828 -0.27093574 -0.37150258 0.27075264 -0.041542374 0.00864897 0.25325298
-0.19096601 0.79008645 0.31187052 -1.0553207 -0.99746555 0.83473593 -0.823731 0.3487554
0.21595415 -0.3152159 -0.24166767 -0.004276526 -0.53020924 -1.2608368 -0.3884019 -0.07535864
0.2183975 -0.64367735 -0.13090685 0.81052935 0.00500655 -0.6020422 0.3316227 0.15007196
-0.5423541 0.20953143 0.48056126 0.02350875 0.06719765 0.8646518 0.48884574 -0.52411634
-0.48036078 0.032782134 -0.023612684 0.19389232 -0.105060786 -0.89668006 -0.32010785 0.30669865
-0.21560396 -0.323474 -0.34407103 -1.25234 -0.47060594 -0.7381351 0.15021645 -0.15964746
-0.26729354 -0.3858171 -0.7774454 -0.38439658 0.78410465 0.55070156 -0.056983754 0.040567964
-0.1100737 -1.320687 0.6221603 -0.9221097 0.5860795 0.609511 -0.5431353 -0.12769943
0.0175436 -0.4206269 0.15039745 0.6416 -0.26297504 -0.56136507 0.176976 0.5488276
1.0573729 -0.30091402 0.5828484 0.73145634 -0.41009247 -0.21091993 0.30969808 -0.01620481
0.38312393 0.0210118 -0.44222692 -1.5656613 1.3419578 0.11561425 0.1616562 0.19113286
-0.029842606 0.14601403 -2.9152927 0.3601583 -0.46883443 0.25275347 0.09924096 0.26707786
0.8786451 -0.32401446 0.7140899 0.48090473 -0.47958893 -0.2875394 -0.025569744 0.048595283
-0.13878012 -0.5238622 0.8093804 -1.0966699 -0.06980226 0.4951675 0.65418327 0.0015678864
-1.062148 -0.2836956 -0.6022041 -0.26824614 0.3883725 -0.092911385 0.07194308 0.35487992
0.7046705 0.16265832 0.11709584 -0.76220495 0.07024124 -0.9951442 -0.3701832 -0.015563346
0.9615421 -0.027958455 -0.026299585 -0.45108485 -0.165222 -0.9948573 0.20429958 -0.14609791
-1.4521812 -0.5487017 -1.0750959 0.06436384 1.4446911 0.074150585 -0.052487053 0.001980292

fc2.weight f4 [32, 32]
00000000: 7b3e 31bf f387 5c3f a76b 113f d1f2 c4be
00000010: 29f5 333e 00ff bd3e 971b bc3e e4c0 b9be
00000020: a5ec 3b3f b44c 703d 5f2a 97be 2691 4a3e
00000030: 6e52 113f efb1 5d3e 41ee 11bf 7014 113f
00000040: e586 103e 417c 1a3f 596d 963d 007c c2bc
00000050: 47c8 103f 4069 19bf ee41 433e 4101 ab3e
00000060: 00a0 c73c 1e94 143d d195 803e 9b71 c23d
00000070: 16c3 b73e 54f8 283f 1ba1 113f 0261 d83f
00000080: ce04 92be 9c5d 253f bf64 163e dc04 b03d
00000090: 6521 6d3d 1450 523e d267 2a3e 368c f2be
000000a0: 8a28 c83e dfed 4c3e 0fa9 67be 33aa 2dbe
000000b0: 5fab 4abd 94bc d73c ab5b 9abf e0e7 523f
000000c0: 50fd 9f3e e873 54bd 7bb8 183e 49fa a13e
000000d0: e972 b63e 23a3 14bf 8f2b 20bd 0bf8 ca3d
000000e0: 938f b93d fa92 dd3d 22dd d63e 16b4 07be
000000f0: aaa7 f83d 41a7 d13e a44e 163f e745 a83f
00000100: d31b 14bf 89c5 663f b299 583e 68f1 18be
00000110: cf75 293e a4e0 8d3e 084f 533e 004b e2be
00000120: 240a 163f e730 8bbe ac05 16be d9a8 99bc
00000130: baa0 503e 3244 133e f3c8 ddbe f846 213f
00000140: 886d 5b3e e5af d43e 8f7c b43e 7cb2 fa3e
00000150: 38ad 673e c6e9 e4be fd06 833e 3992 833e
00000160: 3509 48be a266 1a3d 2726 ee3e 1658 ecbd
00000170: 97eb 013d fb38 fd3e 345b b63e af5f b43f
00000180: 7f75 f3bd 5851 07bf 8255 a03e 5a87 6c3e
00000190: b8c2 883e 98c3 0c3f 444f 3f3e a00e 37bf
000001a0: a882 233e 35d6 6b3e 23fd 75bf 5efc 0e3d
000001b0: 91ad 103f 8661 9a3d e733 89bf 6df2 29bf
000001c0: f229 bd3e 105d f43e 5a83 c1bf 56bb 0a3e
000001d0: ec9d 26be 81dd 25bf 1f46 903e 27f6 a43e
000001e0: 4646 ccbe 678a 033e 7a43 103f 7f21 df3d
000001f0: e4de 3f3e d481 39bf ba9d c03d 852e 8b3f
00000200: 04b0 bcbe 1d61 333f 2ccb 453f d551 b6be
00000210: 2d14 b6bd 690e 653e 0633 2c3e da4d 2cbf
00000220: 119e 0e3f a120 3abd 7271 e6be e8fb fc3b
00000230: 1d8c 273f 73a6 70bd 1e6d e4be 8386 533f
00000240: 17eb ae3e b829 1d3f e7ae a5bd 45d1 7b3e
00000250: 404d 533e f7a6 41bf 3316 863e e450 153e
00000260: 27ce e23d 836e 643e 8302 343c 7590 8ebe
00000270: bf13 513e 539e a93e 622b 8a3e 970d c73f
00000280: 96c5 b4be 0ddb 933e 6c3b e23e e9f3 79be
00000290: 076f 8e39 e688 a8be 49e2 d33e 316c 6c3d
000002a0: 4403 183f a4ae 183e baec 873e 8614 34bf
000002b0: 9fbd 7bbd 0dbd 9c3e 5419 db3e 1fd0 b0bf
000002c0: 825f 85be d404 533d 9ae5 6b3f b811 f43d
000002d0: 61c3 b43d ba07 fdbe 245d b93d ccd3 c33d
000002e0: ad24 5bbe 3617 28bf f325 013e 077d 9c3e
000002f0: e940 bbbd d016 5e3e a4e4 50bf 6f78 153f
00000300: 3bfe 29bf 1311 153f f3f8 0d3f 8f4a 883d
00000310: b70f c63e df65 b43e 0d24 bc3d be50 09bf
00000320: ef24 c83e 0420 b33e 68df 5fbe a73b 173e
00000330: fce4 aebd c364 aabd 9c66 bcbe 6a09 9f3e
00000340: d616 8f3e b139 f63e 3f3c 593e 8dc0 75be
00000350: 0a9f 253b ed67 1bbf 4647 a23e d041 fb3e
00000360: eb7f 30be d678 19bd 2ade 113f 7e9d a1be
00000370: 6aad 783d a0d9 253f 8198 e33e 2b89 a13f
00000380: 5b34 2140 ceb3 00be 667b ebbf 17bd 813f
00000390: d3d2 a3bf 718c d03d c673 b4bf 5cd2 c7bf
000003a0: fa26 83bf 17e6 3c3d dbbf 013f b99c 44bf
000003b0: e9b3 0d40 84e3 8ebf bfe3 cf3f fc64 04be
000003c0: a138 babe 43d4 f6bf e887 863e 6d1f ca3e
000003d0: f40e dbbf afea 25bf 3941 923c d3b6 3abf
000003e0: 7971 7d3f fa75 453f 0c55 e73d 4576 f9bf
000003f0: 85e2 99bf 576c 563e 468c 3f3c 634e 29bf
-0.6923596 0.8614494 0.5680489 -0.38466504 0.1757399 0.37108612 0.367398 -0.36279976
0.73407966 0.0586669 -0.29524514 0.19781932 0.567664 0.21649908 -0.5700417 0.5667181
0.14113958 0.60345846 0.07345075 -0.023740768 0.565556 -0.59926224 0.19068119 0.33399394
0.024368286 0.036274068 0.251143 0.09494325 0.35891026 0.6600392 0.5688645 1.6904604
-0.2851929 0.6459596 0.14686869 0.08594677 0.057893176 0.2053836 0.16641167 -0.47372597
0.3909343 0.20012616 -0.22623084 -0.16959457 -0.04947984 0.026335038 -1.2059225 0.82385063
0.3124795 -0.05186835 0.14914124 0.31636265 0.35634544 -0.58061427 -0.03910404 0.09910592
0.09060588 0.10819049 0.41965586 -0.13252291 0.121413544 0.40947917 0.58713746 1.3146333
-0.57854956 0.90145165 0.2115238 -0.14935839 0.16548847 0.2771045 0.20635617 -0.44197845
0.58609223 -0.27185747 -0.14650601 -0.01875727 0.20373812 0.14381483 -0.43317375 0.62998915
0.21428502 0.41540447 0.3525128 0.48964298 0.22624671 -0.44709605 0.2559127 0.25697497
-0.19534762 0.037695535 0.46513483 -0.115402386 0.031718817 0.49457535 0.35616457 1.40917
-0.11887645 -0.52858496 0.31315237 0.23098508 0.2671106 0.5498595 0.18682581 -0.7150669
0.1596781 0.23030932 -0.9608938 0.034908645 0.5651484 0.07538132 -1.0718964 -0.6638554
0.36946064 0.4772725 -1.511821 0.13548025 -0.1627118 -0.64791113 0.28178498 0.3221905
-0.39897364 0.12845765 0.5635296 0.10895061 0.1873737 -0.72463727 0.09405084 1.0873572
-0.3685304 0.7007006 0.7726314 -0.35609308 -0.08890567 0.22368778 0.16816339 -0.6730629
0.5570994 -0.045441274 -0.45008427 0.0077204593 0.6544817 -0.05875249 -0.446145 0.82627124
0.34163734 0.6139178 -0.080900006 0.24591549 0.20634937 -0.75645393 0.26188812 0.14581639
0.11074477 0.22307782 0.010986927 -0.27844587 0.20417689 0.33128604 0.26986223 1.5551022
-0.35306996 0.2887806 0.4418596 -0.2440945 0.00027167072 -0.32916945 0.4138358 0.057720367
0.5937998 0.1491037 0.26547796 -0.70343816 -0.061460134 0.30612984 0.4279276 -1.3813514
-0.2604943 0.051518276 0.9214722 0.11917442 0.08826328 -0.49419957 0.09050968 0.095618814
-0.2140071 -0.6566042 0.12612133 0.30564138 -0.0914324 0.2168839 -0.8159888 0.5838689
-0.6640355 0.5822918 0.5545799 0.06654846 0.38683864 0.3523397 0.09186564 -0.5363883
0.39090678 0.34985363 -0.21862566 0.1476885 -0.08539769 -0.0832 -0.36797035 0.3106187
0.2794711 0.4809089 0.21214388 -0.23999234 0.0025271797 -0.60705453 0.31695002 0.49073648
-0.17236297 -0.037468754 0.5697962 -0.3156547 0.060712256 0.64785194 0.4445229 1.2619985
2.5188205 -0.1256859 -1.8397033 1.0135831 -1.2798713 0.10183037 -1.4097831 -1.5611072
-1.024627 0.04611787 0.50683373 -0.7680164 2.2141058 -1.1163182 1.6241378 -0.12929147
-0.3637133 -1.9283527 0.26275563 0.394771 -1.7113938 -0.64811224 0.017853366 -0.7293522
0.9900127 0.7713314 0.11295518 -1.9489218 -1.2022253 0.20939766 0.011691159 -0.66135234

fc3.weight f4 [4, 32]
00000000: 0950 e6be 8131 e6be 868a b3be 24f4 28be
00000010: a72d c9be ac13 cbbd 324c b4be 7b61 1540
00000020: f636 2840 de47 3f40 af71 6bbd d0d1 5bbe
00000030: e658 b6be 7c26 e93f 9927 e8be 1e29 19bf
00000040: 3996 7040 b134 27bf acbe 7abf 1936 e8be
00000050: 3800 31bf af2b f33f 68a5 aabe 2467 53bd
00000060: f56c 1bbe 3a3c 69be bbe9 543e 6405 e2bd
00000070: 767d 19bf cae8 4fbe d95a 3c40 432b cdbe
00000080: 6251 b6be 8b9c f5be 84d4 bdbe 1dc6 53bd
00000090: 7f3b 1abf 6827 8abf 4e33 35be 4ff9 3240
000000a0: 38d7 0f40 f33c 3540 e073 c2be aba3 29bf
000000b0: 3b1e 0cbf 8512 0040 f257 abbe 07eb abbe
000000c0: b265 6a40 bc6d 12bf ccab 2cbf 1295 14bf
000000d0: e7bb debd 0909 df3f d88a 0ebf 291f e7be
000000e0: fc3c adbd 51d1 10bf f0d4 b03e 3d59 063d
000000f0: df54 0abf 9087 59bd 4b2f 4440 3b37 29bd
00000100: 1291 11bf 3779 f6be 88a5 89be 57f4 a9bf
00000110: d493 fbbe a29e a43d df33 31bf a759 2040
00000120: 0ac9 3f40 032b 2640 22bd f6be 4122 85be
00000130: 0359 0abf 7cb8 b13e 524d 78be fe5c bcbe
00000140: 9420 ed3f c03a 7abe 8b73 8fbf 7133 50be
00000150: a551 503d aebe 0d40 ff6d dcbe 8ac4 35bf
00000160: 75c9 46bf 86dc 75be a547 4340 0df1 c63d
00000170: df13 21bf 12cc 33bf 3eab b53f 2de6 0cbe
00000180: 9203 bcbe 7b0a edbe 6e5b fcbe ee38 9cbe
00000190: 6804 02be 0f1b 61bf 4f87 f0be 9b6c 8b3f
000001a0: 48a8 2040 fe20 7a40 6e93 cfbe 7dac 03bf
000001b0: 4544 00bf 7053 0640 1bba e5be fb85 c4bd
000001c0: 29f4 5f40 c9e6 12be fe7c 7dbf 076b edbe
000001d0: b52e dcbe 4f69 f23f e570 a8be c06d bdbe
000001e0: 154d efbe c5be 09bf a5d1 7c3e 8055 883d
000001f0: 19c1 b5be 17c0 63be 075e 5440 e46c 1bbf
-0.44982937 -0.44959643 -0.35066622 -0.16499382 -0.39292642 -0.099158615 -0.35214382 2.3340747
2.6283545 2.9887614 -0.057481464 -0.21466756 -0.356147 1.821487 -0.4534271 -0.59828365
3.7591689 -0.65314776 -0.9794719 -0.45353773 -0.6914096 1.8997706 -0.3332932 -0.051612034
-0.15178283 -0.22776881 0.20792286 -0.110361844 -0.59957063 -0.20303646 2.943045 -0.4007207
-0.35608965 -0.47970995 -0.370762 -0.051702607 -0.60247034 -1.0793276 -0.17695352 2.7964666
2.247511 2.831845 -0.3797903 -0.6626536 -0.5473363 2.0011303 -0.33465534 -0.3357775
3.662457 -0.5719869 -0.6744964 -0.58039963 -0.10875683 1.7424632 -0.5568061 -0.4514096
-0.084588975 -0.5656939 0.34537458 0.032799948 -0.54035753 -0.053107798 3.0653865 -0.041312438
-0.56861985 -0.48139355 -0.26884103 -1.3277692 -0.4913622 0.08038069 -0.69219774 2.505472
2.9966455 2.5963752 -0.48191172 -0.26002696 -0.5404207 0.34711063 -0.24248245 -0.36789697
1.8525567 -0.24436474 -1.1207136 -0.20332123 0.050859112 2.2147632 -0.4305267 -0.7100302
-0.7765115 -0.24009904 3.0512478 0.097139455 -0.62920946 -0.7023326 1.4192884 -0.1375968
-0.36721474 -0.46297058 -0.49288505 -0.30512184 -0.12696993 -0.87931913 -0.46978232 1.0892519
2.510271 3.9082637 -0.40542167 -0.5143507 -0.5010417 2.0988426 -0.4486855 -0.09595867
3.4992774 -0.1434585 -0.9901885 -0.46370718 -0.43004385 1.8938388 -0.32898632 -0.36997795
-0.46738496 -0.53806716 0.24689348 0.06656933 -0.35498884 -0.22241245 3.318239 -0.6071303
