dqn/exercise/models/checkpoint422_-19.915274432958135.pth (torch, 7111 bytes, 3 tensors)

fc1.weight f4 [32, 8]
00000000: 24d0 893e 40db 343b 88d6 14bf a4ad 8b3d
00000010: 46fc 1f40 6128 efbe 25aa ca3e c9cc ee3e
00000020: 219d 22bd df1b 953e 5cd5 afbd 2750 7fbe
00000030: 1a63 48bf f0f0 a3bf f514 a3be 59ed aebe
00000040: 6a82 7c3e 4041 a33e 808d 38be eccf 02bf
00000050: f023 473f b7e6 7b3f 8011 f3bc c4ac 913e
00000060: 26a9 133f f88f 133c 6f1e a73f a4b1 a63e
00000070: 961f 88bf 5796 17bf e4ee 38be eef9 253e
00000080: a5f3 e4be a605 afbf dee8 6bbe 0be1 88bf
00000090: 8aaa 1abe 32e8 543e 24fa 943e e835 993e
000000a0: 1832 2a3f d9cb 89bf 18b3 dd3e 65b6 d0be
000000b0: 958d 4cbf 3cc4 24bf 750d 863e b576 a63e
000000c0: cf62 dfbc cd49 7dbf 2a43 5dbd dac3 38bf
000000d0: 7669 053f 4412 a03e ac50 ed3e 2323 9bbe
000000e0: 0156 003f 9584 dabf 1c6e a2bb b0fa 89bf
000000f0: 4532 393e 4967 593e 39b7 893d d28b a93d
00000100: 9d3c 2c3f 72ca bb3d fb72 333e 7277 4fbe
00000110: d3c2 343f f88c 953f 2a31 8e3d d895 faba
00000120: dd85 b23e 4f37 5a3f 905e 623e 1804 b53f
00000130: 7323 143d 9e0a 14bf 9b75 f13d f336 2abf
00000140: a46c 96bd ea1c 073f 1496 293f d9e8 f8bf
00000150: 9f0a 13bf c3d3 12bf bf30 d93e f84f b1bd
00000160: 31df 513f 33ac 4fbf 4754 753f dd80 29be
00000170: 23f9 e53e fe6d b93e 6cca c2bd 2605 ba3d
00000180: 34fa a2bd 3142 97be 0e18 a9be e436 35be
00000190: 2c6a 643f 76b8 813f bda6 fe3a dae1 9fbe
000001a0: dbb3 11bf d70c 7cbf a0f2 40be dd79 88bf
000001b0: b3db 2a3e 965b 123e b1e2 6abc e886 923e
000001c0: b427 a3bd 7131 683f c41f 323f aa49 94bf
000001d0: d119 b0be e9cd 0a3f 2194 1abf f197 4e3e
000001e0: 3b2f 59be 8a91 c2be 3d3a 66be c9b3 363e
000001f0: 5355 2ebf d77f 95bf 66d6 62be 1483 85be
00000200: d1b3 0d3f b8dd 44bf 9eb5 703e de98 89be
00000210: 1829 22bf d9b4 18bf d00e b53e a1b1 773e
00000220: 9324 f6be c902 f53d c6f8 953e 9483 8f3c
00000230: ebee 253f 6196 aa3f 843d 923e e5fb 0ebf
00000240: 858f e4be 7734 963d 273f fe3c 0d40 27bd
00000250: cdd1 d0be 844f 95bf 7846 e4be 5861 443e
00000260: 8fbe 48be b510 63bf 0d55 843d ce90 71bf
00000270: 4595 7dbe ab68 1dbf 852f 96ba 04a8 1bbe
00000280: bc1d 923c 0477 84bf a4eb a6be 2a11 86bf
00000290: 77dd a33e 93ac ab3e 6466 88bc 8ac5 423e
000002a0: 8fe7 8e3e 3064 89bf a3c6 d03e 0ef0 5bbf
000002b0: e53a 2f3f 7b3b 363e ce9b 3cbe be90 c23d
000002c0: 63ab 9b3e 2f2a 81bf 1dda 083f b397 acbe
000002d0: 220b 09bf 0cf5 0dbf f431 7a3e 7597 d93e
000002e0: 19d0 613f 3d0c 39bf 7844 2d3e 7b77 75be
000002f0: 1c61 10bf 97c6 02be 9253 dc3e 01f4 573e
00000300: b0a3 a93e 02f1 d8bd 0fb3 45bf ba67 cabf
00000310: 21d4 a63f 23ef 5dbd 7089 c13d c44e d13d
00000320: 025f a93d 981e a43e 0a22 04c0 d233 46be
00000330: da77 b73e 76cc f73e 43e2 51bd 8876 543e
00000340: 8f12 1b3f 4c1f afbe 19bd e03e 4499 4f3d
00000350: bfa7 11bf f4dc 15bf b5b6 e43c 3c54 7e3e
00000360: 7b72 ccbc 1577 9dbf d4b2 673e abd0 99bf
00000370: 8662 633e 124b 873e 4d08 a03e 8373 ebbc
00000380: 3083 63bf f799 45bf ee0c d5be 31fa 3fbf
00000390: 5dbf 2c3d 80a1 e53c 32af a53d edd3 cf3e
000003a0: df77 483f 261f 193e 7306 963d 9532 74be
000003b0: 0679 fcbe f86e 8bbf 816d 87be be00 fe3b
000003c0: 7042 503f 3588 253d dc62 11be c866 8abe
000003d0: 4dce 12bf 318d 8bbf a520 6d3d d522 6dbe
000003e0: 8cee 9ebf 35e5 51bf 606e 41bf fec9 8d3d
000003f0: 5646 873f e5a2 443e 76ec 5ebe 0b6d 47be
0.2691661 0.0027596503 -0.5813985 0.06820229 2.4997725 -0.46710494 0.39582935 0.46640614
-0.03970063 0.29122826 -0.08585617 -0.2493292 -0.78276217 -1.2807903 -0.31851926 -0.34165457
0.24659124 0.3188572 -0.18022728 -0.51098514 0.7778921 0.9839892 -0.02967143 0.28452122
0.57679975 0.009006493 1.3056163 0.32557404 -1.0634639 -0.59213775 -0.1805988 0.16208622
-0.44717136 -1.3673599 -0.2303805 -1.0693678 -0.15104118 0.207917 0.29097092 0.2992394
0.66482687 -1.0765334 0.433007 -0.40764156 -0.7990354 -0.6436193 0.26182142 0.3251244
-0.027268795 -0.98940736 -0.05401913 -0.72173846 0.52114046 0.31263936 0.4635061 -0.30300245
0.5013123 -1.7071711 -0.0049569737 -1.0779629 0.18085583 0.21230806 0.067244 0.08278622
0.6727999 0.09169473 0.1752433 -0.20260409 0.7060978 1.1683645 0.06942971 -0.0019118143
0.34867755 0.85240644 0.22106385 1.4141874 0.03616662 -0.578287 0.117900096 -0.66490096
-0.0734494 0.52778494 0.66244626 -1.944606 -0.5743808 -0.5735437 0.42420003 -0.08657831
0.8198119 -0.8112213 0.9583172 -0.16553064 0.4491664 0.3621673 -0.09511265 0.09083013
-0.07957879 -0.29542688 -0.33026165 -0.1769672 0.89224505 1.0134418 0.0019428354 -0.31227
-0.5691506 -0.9845709 -0.18842554 -1.066219 0.16685371 0.1429275 -0.014336274 0.2861855
-0.07966557 0.9070044 0.6957972 -1.158498 -0.34394696 0.54220444 -0.60382277 0.20175149
-0.21209423 -0.38001662 -0.22483154 0.1784202 -0.68098944 -1.1679639 -0.22152099 -0.26076567
0.55352503 -0.76900816 0.23506781 -0.2687444 -0.63343954 -0.5965095 0.35362864 0.24188854
-0.4807478 0.11963422 0.29291362 0.017518796 0.64817685 1.3327142 0.28562558 -0.5585311
-0.44640747 0.073342256 0.031035973 -0.040832568 -0.40785065 -1.1664891 -0.44585013 0.19177759
-0.19603942 -0.8869737 0.06461535 -0.9436158 -0.24763973 -0.61487836 -0.0011458254 -0.15200812
0.017836444 -1.0348821 -0.32601655 -1.0473988 0.32004902 0.335301 -0.016650386 0.19020668
0.2791104 -1.07337 0.40776548 -0.8591317 0.6844924 0.17796127 -0.1841881 0.09500264
0.30404195 -1.0090998 0.53457814 -0.33709487 -0.5353261 -0.55452037 0.24433118 0.42498365
0.88208157 -0.722843 0.1692065 -0.2397136 -0.5639818 -0.12771069 0.4303251 0.21089174
0.33132696 -0.105928436 -0.77226347 -1.5812905 1.3033487 -0.054183137 0.09450042 0.102201015
0.082700744 0.3205459 -2.0645776 -0.19355705 0.35833627 0.4839818 -0.05124117 0.20748341
0.60575193 -0.34203565 0.4389427 0.050683275 -0.56896585 -0.5854027 0.027919153 0.2483682
-0.024956932 -1.2301966 0.22626811 -1.2016805 0.22205552 0.26424462 0.31256333 -0.028741604
-0.8887205 -0.77188057 -0.41611427 -0.74991137 0.042174686 0.02803111 0.080900565 0.40591374
0.7830791 0.14953288 0.07325449 -0.2384742 -0.49311084 -1.089324 -0.26450732 0.0077515533
0.81351376 0.0404131 -0.14197868 -0.2703154 -0.5734604 -1.0902463 0.05789246 -0.23157819
-1.2416549 -0.8199037 -0.75559044 0.069232926 1.056834 0.19202764 -0.2176989 -0.1947519

fc2.weight f4 [32, 32]
00000000: 305e d4be 5ba8 583f 7ec8 f93e 9c27 8a3e
00000010: 80c4 eb3e e566 253f eec4 1c3f f455 3c3f
00000020: acd0 723f 7e7c 7e3e 36d8 edba 70d2 123f
00000030: d1a8 5e3f 755c 183f 30b2 07bf fb8b 2c3f
00000040: f46c bd3e 490c 5d3f f61e 033f 47db 953e
00000050: d568 5e3f f78d bf3e 991c e43e 0e0b 193f
00000060: fb2a 733e e6cb 9b3e 02c3 de3e c119 063f
00000070: 6e21 0b3f 3bd3 333f 0e21 1d3f 94bc b13f
00000080: 2457 3fbe 617a 4f3f bbf2 56bc 5246 dc3e
00000090: 1dc3 883e 6ddf df3e 007d 873e d39a a83e
000000a0: f3ad e43e f5d4 0f3e c58f 813e 3e8f 053e
000000b0: 99b6 3f3e a07b a43e dea5 46bf c94c 6e3f
000000c0: 8706 f83e 20b9 8b3e 105c 2e3f 35f1 013f
000000d0: c01a 0b3f 6c23 693e af96 2b3e 19ae 9f3e
000000e0: 9adf 2a3e 4227 993d 6378 163f 0583 363e
000000f0: b1b5 8b3e 87f0 063f daa0 3a3f b51a 8d3f
00000100: 75c0 a1be 6c04 573f bf7a 903d 2626 a83e
00000110: 5163 f13e 3917 0f3f a18e db3e 1a2f d53e
00000120: 6525 443f 4ad1 4ebe cf54 e93d bd21 853e
00000130: 9a94 083f 4fe0 f63e 2304 01bf e436 4a3f
00000140: 3897 e83e 33f7 0d3f bd05 513f 44f9 1a3f
00000150: d1ad df3e 6034 b33e 81ab 063f 4f36 073f
00000160: 663a c6bc d03e 123e e6d6 1a3f 8854 863e
00000170: 7b1b 7b3e 11cb 203f 614f f23e 1b08 9f3f
00000180: 79f7 58be f848 ba3d 0082 de3e 862f ed3e
00000190: 3b04 773e 7ed9 e43e d897 193e b9cd 7d3e
000001a0: f0e0 dc3e 1b77 13bf 9659 08bf 464c aa3e
000001b0: 2a89 393f c612 c43e 93ea 60be c7a8 96be
000001c0: 878f 3c3e 3a62 493f f22c 1dbf f306 8e3e
000001d0: 9c77 853e a792 9b3d 679f 3f3e 7ecb 823e
000001e0: e992 0c3c 3e6e 5f3e 51f6 dc3e 452b ac3e
000001f0: 7472 963e 5ce4 0bbe bc1a c13c 5b28 823f
00000200: c43d 8dbe 3ab2 2f3f 2a6c 343f 6407 583e
00000210: a964 d63d ae27 e83e 3953 933e 8e41 c23e
00000220: 3188 3b3f 40dc 0c3e 7865 25be ef2d 0a3f
00000230: c567 673f 3606 643e 191b 9fbe 0e13 5c3f
00000240: 1452 023f 7271 7b3f ca67 7b3e bce0 0b3f
00000250: 26eb 033f c65f 863e e2ac ed3e 3d90 c03e
00000260: 6c6f 8e3e bcc7 1e3f 5c6d 773e deba b63d
00000270: 3ac4 8d3e 7b22 b93e 6f7f c83e e8f5 963f
00000280: 1b49 6ebe 14d4 823e 6ddf 233e 38d7 26be
00000290: 9d84 e2bd f09e c6be f298 903e 86e2 7e3e
000002a0: 8f90 183f 5d66 d53c 5da1 b83d 8107 5b3e
000002b0: 57c5 2f3e 0ccc 143d 5b89 873e e938 49bf
000002c0: cc3a c6be fc97 813e ad51 833f 1049 84be
000002d0: cd6e ae3d 60a4 d83d 6281 f9bc 5c1a 743d
000002e0: de24 9abd fb3c b9be 85e7 32be 6cb3 4d3e
000002f0: 4d70 8dbe 67a8 223f 54ae 53be 47c4 273f
00000300: 3ebb cbbe 4275 173f fe3c d43e b4f3 2f3f
00000310: 39e0 103f d92d 043f 4adf 833e 2a1e ef3e
00000320: 9cf6 093f 6c8d f13e fc14 4bbd 45ee 1a3e
00000330: f866 713e 753b 793e dc70 ecbe 785e f53e
00000340: 7d2a cd3e 6390 183f 59ec 393f c069 023e
00000350: 6109 a33e fc87 013e 7773 df3e 93f7 213f
00000360: 7c20 2cbd 57d2 b43d 3050 253f ee36 8eba
00000370: 15d5 423e 7813 343f 3fe7 dd3e b576 8c3f
00000380: 9804 f63f a9a7 96bd 3f01 cbbf 1d7f b73e
00000390: 5d13 9bbf 712c 20bc 4af2 54bf 9175 b9bf
000003a0: 1d0d 73bf 5524 9abe 242e 563f 4a60 6abf
000003b0: ce1f 1f3f 9192 acbf fd28 cb3f 1303 98be
000003c0: 17c3 b4be edec 12c0 69b8 f23d 0038 5d3e
000003d0: d722 d8bf 9c9a 97bf 38f6 acbc 5483 5dbe
000003e0: ee61 8e3f 829a a3bc 1ab0 7ebd 3d75 8dbf
000003f0: 6d78 97bf f837 cb3d d406 29be 7017 a1be
-0.4147811 0.8463189 0.48785776 0.26983345 0.46048355 0.6461013 0.6123799 0.73568654
0.9484966 0.24852178 -0.0018146101 0.5735235 0.86976343 0.5951608 -0.5300627 0.67401093
0.36997187 0.8634687 0.5121912 0.29268858 0.8687871 0.37412998 0.44553068 0.59782493
0.23746864 0.30429 0.43508154 0.5238305 0.54347885 0.7024419 0.6137856 1.3885674
-0.18685585 0.8104611 -0.013119395 0.430224 0.2671136 0.43725148 0.26462555 0.32930622
0.44663963 0.1404608 0.25305 0.13042924 0.18721999 0.32125568 -0.77596843 0.93085915
0.4844248 0.27289677 0.68109226 0.5075868 0.5433769 0.22767419 0.167567 0.31187513
0.1668686 0.07478191 0.58777446 0.17823417 0.27287057 0.52710766 0.7290169 1.1023775
-0.31592146 0.8399112 0.07054662 0.32841605 0.47146085 0.5589481 0.42882255 0.41637498
0.7661956 -0.20197025 0.11393129 0.26002303 0.5335175 0.4821801 -0.5039694 0.78990006
0.4542787 0.5545532 0.8164938 0.605366 0.436873 0.35000896 0.52605444 0.52817243
-0.024197768 0.14281774 0.6048416 0.26236367 0.24522202 0.62809855 0.47326186 1.2424349
-0.21188153 0.09095949 0.43458557 0.4632532 0.24122708 0.44697183 0.1499933 0.24785508
0.43140364 -0.57603616 -0.532617 0.33261317 0.7247492 0.38295573 -0.21964483 -0.29425642
0.18414126 0.78665507 -0.61396706 0.27739677 0.26067817 0.07596331 0.18713151 0.25545877
0.008579948 0.21819398 0.43156675 0.33626762 0.29384196 -0.13661331 0.023572318 1.0168566
-0.27586186 0.6863133 0.70477545 0.2109657 0.10468418 0.45342773 0.2877443 0.3794064
0.73254687 0.13755894 -0.16151989 0.5397634 0.90392715 0.22267994 -0.3107536 0.85966575
0.5090649 0.9821998 0.24551311 0.5463979 0.51530683 0.26244944 0.46420962 0.37610045
0.27819383 0.6202352 0.24162811 0.08922361 0.2768877 0.3615912 0.39159724 1.1793795
-0.23270075 0.25552428 0.16003199 -0.16293037 -0.1106045 -0.38793135 0.28241688 0.248911
0.5959558 0.026049787 0.090151526 0.21389581 0.17165123 0.036327407 0.2647198 -0.78602463
-0.38716733 0.25311267 1.02593 -0.25836992 0.08517227 0.10578227 -0.030457202 0.05959545
-0.07526563 -0.36179337 -0.1747113 0.20087975 -0.2762474 0.6353821 -0.2067197 0.6553387
-0.39791292 0.59163296 0.41452783 0.68731236 0.56592137 0.5163246 0.25756294 0.467027
0.5389192 0.4717821 -0.04958056 0.15129955 0.23574436 0.24339087 -0.46179855 0.47923636
0.40071478 0.59595317 0.7262626 0.12735653 0.31843093 0.1264953 0.4364278 0.63268393
-0.042023167 0.08829182 0.6457548 -0.001085011 0.19026597 0.70342207 0.4334049 1.0973727
1.9220152 -0.073561974 -1.5859755 0.35839167 -1.2115284 -0.009776221 -0.83182204 -1.4489003
-0.94941884 -0.30105844 0.83664155 -0.91553175 0.62157905 -1.3482229 1.5871884 -0.29689845
-0.35305092 -2.2957108 0.1185158 0.21603394 -1.6885632 -1.1844058 -0.0211135 -0.21632129
1.1123636 -0.019971136 -0.062179662 -1.1051403 -1.1833626 0.099227846 -0.16506511 -0.31463194

fc3.weight f4 [4, 32]
00000000: 41e8 13bf 76c7 f3be e762 efbe 3990 aabe
00000010: 0c08 c9be 0bf8 f93d 9184 eabe ed31 de3f
00000020: d99b 1e40 588f 2c40 fc7e 8abe f0c1 babe
00000030: 5146 02bf 4884 7f3f 79bb 19bf dc8a 15bf
00000040: 4017 4940 c3a1 0ebf 0fac b6be f946 1bbf
00000050: 91c3 08bf bf84 c83f 6bfc c6be 1053 84be
00000060: c32b a1be 6d5c d7be ad53 503c 6405 e2bd
00000070: 1e54 28bf 58c4 9fbe 1841 0940 9e31 f8be
00000080: 11be edbe 6700 0fbf 46d4 b0be e3a1 31be
00000090: 5ab2 3cbf 72f3 d8be b9f2 1abe 5bed 2c40
000000a0: 943c 0340 366b 0440 5cb3 debe aae0 1dbf
000000b0: 890d 1dbf 2348 c23f ab1c babe 3586 0dbf
000000c0: 80b0 4040 d8bc 2fbf effc ccbe 330e 16bf
000000d0: cf35 85be a732 e13f a1fe 1fbf 4be6 d9be
000000e0: b738 0cbe cbe3 01bf bbae a33c 3d59 063d
000000f0: da1b 2cbf 93d5 9ebe f39f 0340 33b6 96bd
00000100: 2855 19bf 7a96 fbbe dedf a8be 4777 38bf
00000110: 5401 08bf 5fb8 fdbc 1e2c 24bf 236d de3f
00000120: 4164 2340 171e 2640 aa53 07bf d64f a3be
00000130: 5614 1bbf a83d 70bf 10bb a0be fda9 dbbe
00000140: 46a4 e83f f70e a2be 517d 4dbf c950 9bbe
00000150: 99c3 b7bd 3073 f33f fca8 edbe 6e16 03bf
00000160: dcc5 36bf fcbb 99be 9ea5 2b40 0df1 c63d
00000170: 6679 2ebf 923a 21bf 031b ea3e a249 70be
00000180: cd6a e2be 6d75 0cbf bfe5 11bf 46ce 88be
00000190: 1199 48be 51d9 4dbf ffb6 0fbf 2547 1b3f
000001a0: 6b59 1840 dc1c 4640 97b9 edbe 92a7 14bf
000001b0: a586 11bf 7898 923f 0cd3 f9be c949 34be
000001c0: c5a5 4440 fa15 62be 69b8 3bbf 111b 09bf
000001d0: 299d ffbe c945 cb3f 294f cfbe f6a2 cfbe
000001e0: b5f8 07bf 59d5 1fbf 870f 8f3e 8055 883d
000001f0: d2fb d6be 6be2 91be b5dd 3b40 01c3 25bf
-0.57776266 -0.47613114 -0.46755144 -0.33313158 -0.39263952 0.122055136 -0.45804265 1.7358986
2.4782622 2.696249 -0.27050006 -0.36476088 -0.50888544 0.9981122 -0.60051686 -0.5841501
3.142044 -0.5571558 -0.35678145 -0.6065517 -0.5342341 1.5665511 -0.38864455 -0.25844622
-0.314787 -0.42062703 0.012715262 -0.110361844 -0.6575335 -0.31204486 2.144598 -0.48475355
-0.46434072 -0.5585999 -0.34536952 -0.17346911 -0.7370964 -0.42373234 -0.15131654 2.701987
2.0505724 2.0690436 -0.43496215 -0.61670935 -0.6134878 1.5178264 -0.36349997 -0.5528291
3.0107727 -0.6864753 -0.40036723 -0.58615416 -0.26017615 1.7593583 -0.6249791 -0.42558512
-0.1369351 -0.5073821 0.019980779 0.032799948 -0.6723 -0.3102232 2.0566375 -0.073589705
-0.59895563 -0.49138242 -0.32983297 -0.72057 -0.53127027 -0.030971704 -0.6412982 1.7377056
2.552994 2.5955865 -0.52862036 -0.31896847 -0.60577905 -0.9384408 -0.31392717 -0.42903128
1.8175132 -0.31652042 -0.8026934 -0.30335072 -0.08972854 1.9019527 -0.46417987 -0.512061
-0.7139566 -0.30026233 2.6819835 0.097139455 -0.6815399 -0.62979996 0.45723733 -0.23465589
-0.44222108 -0.5486668 -0.5699119 -0.26719874 -0.1958964 -0.80409724 -0.56138605 0.6065543
2.3804576 3.0955114 -0.46430656 -0.5806819 -0.56846076 1.145278 -0.48793828 -0.17606272
3.0726178 -0.22078696 -0.7332826 -0.53556925 -0.4992459 1.5880672 -0.40490082 -0.40554017
-0.5311387 -0.6243492 0.27941534 0.06656933 -0.41989 -0.28493056 2.935407 -0.6475068
