dqn/exercise/models/checkpoint734_190.93465375482577.pth (torch, 7111 bytes, 3 tensors)

fc1.weight f4 [32, 8]
0	0xbdba6e59	-0.091030784
1	0xbc0ec132	-0.008713054
2	0x3d642331	0.055697624
3	0x3d5a2dea	0.053266443
4	0x40539b53	3.3063552
5	0xbf178a5e	-0.59195507
6	0x3e8be740	0.27324867
7	0x3f11f2e9	0.57011276
8	0xbc76d093	-0.015064376
9	0x3f2eb0c4	0.6823847
10	0x3f0a4042	0.540043
11	0xbf786e0c	-0.9704292
12	0xbeac0990	-0.33601046
13	0xbf8d6673	-1.104689
14	0xbedeeaf0	-0.43538618
15	0xbe420dd4	-0.18950588
16	0x3c97b43c	0.01851856
17	0x3f359c8b	0.7094199
18	0xbeace67e	-0.33769602
19	0xbee37a4f	-0.44429252
20	0x3fa41558	1.2819014
21	0x3f505869	0.81384903
22	0x3db2e71f	0.08735489
23	0x3d5b431f	0.05353081
24	0x3e147f71	0.1450174
25	0xbb104e2c	-0.002201925
26	0x401e8981	2.4771426
27	0x3f7b4494	0.98151517
28	0xbef29c2b	-0.47384772
29	0xbebf982b	-0.37420782
30	0xbf95ab30	-1.1692867
31	0x3e9e4cb9	0.3091791
32	0xbec8364f	-0.39103934
33	0xbec2c18e	-0.38038296
34	0xbe7ddfa8	-0.2479235
35	0xbea2ad9b	-0.31773075
36	0x3e05f45d	0.13081498
37	0x3db0f9d7	0.08641403
38	0x3eb5fa0d	0.35542336
39	0x3e707632	0.23482588
40	0x3e88f71a	0.26751024
41	0xbf5d6227	-0.86477894
42	0x3eb05aff	0.34444425
43	0x3fae8a16	1.363589
44	0xbec5f11e	-0.3866052
45	0xbf14a466	-0.5806335
46	0x3e98c3c6	0.29836863
47	0x3f02779e	0.5096377
48	0xbdd51016	-0.10403459
49	0xbef021a6	-0.46900672
50	0xbdfa4802	-0.12220766
51	0xba0e0418	-0.000541748
52	0x3f1fb5d3	0.62386817
53	0x3e3f477a	0.1867961
54	0x3ef9ce5f	0.4879026
55	0xbe83fe64	-0.25780022
56	0x3f460cfc	0.7736356
57	0xbfc4271c	-1.5324435
58	0x3ea2db58	0.3180797
59	0xbfa28e92	-1.2699759
60	0xbc4578a4	-0.012052689
61	0x3f1a13b2	0.601863
62	0x3e3ecf69	0.18633808
63	0x3cd6a557	0.026201887
64	0x3df4c100	0.11950874
65	0x3e9f002f	0.31054828
66	0x3f055c19	0.52093655
67	0x3d5f04ac	0.054447815
68	0x3f71b2f8	0.9441371
69	0x3f87e50f	1.0616778
70	0xbdee2e8a	-0.1162997
71	0x3def3960	0.11680865
72	0x3e9f3a58	0.310992
73	0x3f5bcc77	0.85858864
74	0x3e807955	0.2509257
75	0x401ab5a7	2.4173372
76	0xbedec55a	-0.43509942
77	0xbe1a7223	-0.15082602
78	0x3e5a713b	0.21332256
79	0xbf2d1c5d	-0.67621404
80	0x3d910607	0.07081228
81	0x3edcebf0	0.43148756
82	0x3f2a31d9	0.6648231
83	0xc02b880d	-2.6801789
84	0xbf62a321	-0.88530165
85	0xbeab3d65	-0.33445278
86	0x3f1212a4	0.57059693
87	0x3e298e97	0.165583
88	0x3e13ef55	0.14446767
89	0xbf2eed83	-0.68331164
90	0x3ffeed36	1.9916141
91	0xbbfc9102	-0.007707716
92	0xbefd0a32	-0.4942184
93	0x3f08630d	0.5327614
94	0xbd0b9fa0	-0.034087777
95	0x3ced0723	0.028934067
96	0xbea75df0	-0.32688856
97	0x3e08c260	0.13355398
98	0xbef49e3d	-0.47776976
99	0x3f5ff47f	0.87482446
100	0x3f91b3e3	1.1383022
101	0x3f4324de	0.7622813
102	0xbdb0528d	-0.08609495
103	0xbf47b700	-0.7801361
104	0xbf0765c0	-0.52889633
105	0xbe9fcf88	-0.3121302
106	0xbe9c6434	-0.305452
107	0xbebec6cc	-0.37261045
108	0x3ea70df1	0.32627824
109	0x3cadd84e	0.021221306
110	0xbd1241b3	-0.035707187
111	0x3e823402	0.25430304
112	0xbe4a2f38	-0.19744575
113	0x3f388ae8	0.72086954
114	0x3e5bd925	0.21469553
115	0xbf8bb48c	-1.0914474
116	0xbf85c9b4	-1.045218
117	0x3f78ad2f	0.9713926
118	0xbf456392	-0.7710506
119	0x3ec0fc22	0.37692362
120	0x3ea593f0	0.3233943
121	0xbe30857e	-0.17238423
122	0xbde545e3	-0.111949705
123	0xbd00b14e	-0.03141909
124	0xbf128bd2	-0.572446
125	0xbfa0d2a3	-1.2564281
126	0xbe43c551	-0.19118239
127	0x3e269fac	0.16271847
128	0x3e05bd06	0.13060388
129	0xbee893c3	-0.45425233
130	0xbcdf73c3	-0.02727688
131	0x3f7e5662	0.9935056
132	0xbdc66ec7	-0.09689098
133	0xbf225436	-0.63409746
134	0x3ec51545	0.3849279
135	0x3e335b84	0.17515379
136	0xbefb1b9a	-0.49044496
137	0x3e4cbe03	0.19994359
138	0x3ed8787b	0.4227942
139	0x3d10d0ad	0.03535526
140	0x3e2e518f	0.170233
141	0x3f70649b	0.9390351
142	0x3ef1fdd7	0.47263977
143	0xbf0128e1	-0.50453
144	0xbed91041	-0.42395213
145	0x3c7191db	0.014744247
146	0x3d75ebd2	0.06003935
147	0x3e07c6d1	0.13259436
148	0xbe92050b	-0.28519472
149	0xbf5e4951	-0.8683062
150	0xbeab0df0	-0.3340907
151	0x3e9b2246	0.30299586
152	0xbe47985d	-0.19491716
153	0xbe9335b8	-0.28751922
154	0xbeb311c3	-0.3497449
155	0xbf8eb6cf	-1.1149539
156	0xbf0f7bfd	-0.56048566
157	0xbf6a24f6	-0.9146265
158	0x3e39ea05	0.18155678
159	0xbe4cb765	-0.19991834
160	0xbe3795a5	-0.17928179
161	0xbeb353bf	-0.3502483
162	0xbf768aeb	-0.9630572
163	0xbea57ed8	-0.32323337
164	0x3f72f0f7	0.94898933
165	0x3f34af21	0.70579726
166	0xbda99395	-0.08280102
167	0x3d8126bd	0.06306217
168	0xbef3349d	-0.47501078
169	0xbfd6752e	-1.675451
170	0x3f555c17	0.8334364
171	0xbf6c3a93	-0.9227688
172	0x3f093dc5	0.5360988
173	0x3f0413ad	0.5159252
174	0xbf02bfe4	-0.5107405
175	0xbebfe633	-0.37480316
176	0x3d0a7f86	0.033813022
177	0xbe532daf	-0.20622896
178	0x3e52beb2	0.20580557
179	0x3f7c8b96	0.9865049
180	0xbe9a9eb5	-0.3019921
181	0xbf016128	-0.50538874
182	0x3e67a370	0.2262094
183	0x3f0e48c1	0.55579764
184	0x3f71e8b6	0.94495714
185	0xbe5999cd	-0.21250077
186	0x3f1843ea	0.5947863
187	0x3f68390a	0.90712035
188	0xbeeaf420	-0.45889378
189	0xbf003bce	-0.50091255
190	0x3e940523	0.2891017
191	0xbd380c72	-0.044933744
192	0x3eb6800c	0.35644567
193	0x3dc87372	0.097876444
194	0xbeaef805	-0.341736
195	0xbfc6841c	-1.5509067
196	0x3fa85374	1.3150468
197	0x3dc17812	0.0944673
198	0x3e4954aa	0.19661203
199	0x3e707590	0.23482347
200	0x3cf51df7	0.029921515
201	0x3dcb8acc	0.09938583
202	0xc03e223e	-2.97084
203	0x3eb9cd7f	0.36289594
204	0xbf300197	-0.68752426
205	0x3e715137	0.23566137
206	0x3e3219cb	0.17392652
207	0x3ebee92f	0.3728728
208	0x3f623ab1	0.88370806
209	0xbe8f8372	-0.28029972
210	0x3f312d7a	0.69210017
211	0x3f029451	0.5100756
212	0xbf0fa213	-0.5610668
213	0xbf0c7312	-0.54863083
214	0xbd8e18c0	-0.069383144
215	0x3dba283d	0.09089706
216	0xbd865416	-0.06559007
217	0xbee22311	-0.4416738
218	0x3f5db90a	0.8661047
219	0xbf8d50dd	-1.1040303
220	0xbddff0fd	-0.10934637
221	0x3efcc455	0.4936854
222	0x3f44859f	0.7676639
223	0xbc77fac9	-0.015135475
224	0xbf6ff2a3	-0.9372961
225	0xbe74ed09	-0.23918547
226	0xbf17673e	-0.5914191
227	0xbea2f76e	-0.318294
228	0x3ee9f085	0.45691314
229	0xbc235bfc	-0.009970661
230	0x3d959c12	0.07305159
231	0x3eafe221	0.3435221
232	0x3f0e1995	0.55507785
233	0x3e03c713	0.1286891
234	0x3e6985f4	0.22805005
235	0xbf3f222b	-0.7466151
236	0xbe7b087e	-0.24514958
237	0xbf8131a3	-1.0093273
238	0xbe43ef70	-0.19134307
239	0x3e219a06	0.15781412
240	0x3f436524	0.76326203
241	0xbcf1cce2	-0.029516641
242	0x3d221929	0.039574776
243	0xbececbd0	-0.40389872
244	0xbe8953ef	-0.2682185
245	0xbf8e9e8e	-1.1142137
246	0x3e72b3cc	0.237014
247	0xbe32f45d	-0.1747603
248	0xbfab6c2e	-1.3392389
249	0xbee91140	-0.45520973
250	0xbf941427	-1.156865
251	0x3ddcf123	0.10788181
252	0x3fc8783c	1.5661693
253	0x3e495369	0.19660725
254	0xbd8346d5	-0.064099945
255	0x3c277807	0.010221488

fc2.weight f4 [32, 32]
0	0xbf31eee5	-0.6950515
1	0x3f4d3d67	0.8017182
2	0x3f2455c6	0.6419338
3	0xbee901ff	-0.45509335
4	0x3dce0f4d	0.10061512
5	0x3ea01928	0.31269193
6	0x3eba6ad6	0.36409634
7	0xbee77d60	-0.4521284
8	0x3f57490e	0.8409585
9	0x3c8841a6	0.016632866
10	0xbec498d6	-0.38397855
11	0x3e65547d	0.22395511
12	0x3f0a60a6	0.54053724
13	0x3e005da9	0.12535729
14	0xbf200ba3	-0.62517756
15	0x3ef568e6	0.47931594
16	0x3dd75fd5	0.105163254
17	0x3f184590	0.59481144
18	0xbda10dd4	-0.07863966
19	0xbe1469f4	-0.14493543
20	0x3f30c733	0.69053954
21	0xbf40108e	-0.7502526
22	0x3e0dec5f	0.138597
23	0x3e8acf1a	0.2711113
24	0x3d8f659e	0.07001804
25	0xbd086c24	-0.033306256
26	0x3ec88d67	0.3917038
27	0x3c84ad4f	0.016195921
28	0x3e8c15be	0.27360338
29	0x3f22c872	0.63587105
30	0x3f160f6a	0.5861727
31	0x3fdade0b	1.7099012
32	0xbe84070c	-0.25786626
33	0x3f014886	0.50501287
34	0x3e558247	0.20850478
35	0x3d9142fc	0.070928544
36	0x3d303179	0.04301593
37	0x3e418040	0.1889658
38	0x3e5b4465	0.21412809
39	0xbf0a16ec	-0.53941226
40	0x3eefad79	0.46812037
41	0x3e8929a6	0.26789588
42	0xbe9d8081	-0.30762103
43	0x3c29a244	0.010353629
44	0xbe02182b	-0.12704532
45	0xbd16fdb5	-0.036863048
46	0xbfbba275	-1.4658953
47	0x3f3ee9ec	0.74575686
48	0x3eaa0e52	0.3321405
49	0xbd960e85	-0.07326988
50	0xbd21fdc3	-0.039548647
51	0x3e5c1af9	0.21494664
52	0x3ef0e87a	0.47052366
53	0xbf3d7c0c	-0.74017406
54	0xbd2f21c3	-0.042756807
55	0x3d9f2003	0.077697776
56	0x3e154be7	0.14579736
57	0x3e171b40	0.14756489
58	0x3f02a70e	0.51036155
59	0xbe1c2420	-0.15248156
60	0x3d858751	0.0651995
61	0x3ec604ab	0.38675436
62	0x3f1f8d1a	0.6232468
63	0x3fa9667d	1.3234402
64	0xbf127f7e	-0.5722579
65	0x3f619610	0.881196
66	0x3e9ede31	0.31028894
67	0xbe3cb56c	-0.18428582
68	0x3e19afa6	0.15008411
69	0x3e892794	0.26788008
70	0x3e5c2df1	0.215019
71	0xbf0ee576	-0.5581888
72	0x3f316737	0.6929812
73	0xbeaba74b	-0.33526072
74	0xbe2452af	-0.16047166
75	0x3dcf6a27	0.10127669
76	0x3dd3bb2f	0.10338437
77	0x3da313ce	0.07962762
78	0xbedcb4a9	-0.43106583
79	0x3f0f2f09	0.55931145
80	0x3e7395f8	0.23787677
81	0x3ed49fd2	0.41528183
82	0x3e22c177	0.15894113
83	0x3ecb1dc2	0.3967114
84	0x3ea5cb02	0.32381445
85	0xbf247289	-0.64237267
86	0x3e82a741	0.2551823
87	0x3e761101	0.24029924
88	0xbe196a95	-0.14982064
89	0x3cd4b890	0.025966913
90	0x3f11e2e8	0.56986856
91	0xbdf09796	-0.11747663
92	0xbc1d0f2b	-0.009586136
93	0x3ee8b193	0.45447978
94	0x3ed360e9	0.41284874
95	0x3fb4f9f2	1.4138777
96	0xbdc47a97	-0.09593695
97	0xbf879b1d	-1.0594212
98	0x3ebee3f3	0.37283286
99	0x3c82e10c	0.015976451
100	0x3e6e3c27	0.23265134
101	0x3f0294c6	0.5100826
102	0x3e88eb1e	0.2674188
103	0xbf2ed689	-0.68296105
104	0x3e7cf3ac	0.24702328
105	0x3f026f19	0.5095077
106	0xbf8b443a	-1.0880196
107	0x3e72c501	0.23707964
108	0x3f18acbf	0.5963859
109	0x3cd58317	0.026063485
110	0xbfad09fe	-1.3518674
111	0xbf516b77	-0.81804603
112	0x3ecfccd3	0.40585956
113	0x3f005f9f	0.50145906
114	0xbfe8d504	-1.8190007
115	0x3dfc205a	0.12310858
116	0xbdb67cda	-0.08910532
117	0xbf32af21	-0.69798476
118	0x3e5073c0	0.20356655
119	0x3ed77bc7	0.42086622
120	0xbeb56166	-0.35425872
121	0x3df4f2b1	0.11960352
122	0x3f59472d	0.8487423
123	0x3dbee192	0.09320368
124	0x3e0a2cc3	0.13493638
125	0xbf2e6ccd	-0.68134767
126	0x3e8bdfab	0.27319083
127	0x3f8e0d06	1.1097724
128	0xbe9cdd1c	-0.30637443
129	0x3f2b60e3	0.6694471
130	0x3f61a5f0	0.88143826
131	0xbea4e5a5	-0.32206455
132	0xbde9f85d	-0.11424325
133	0x3e42e1c1	0.19031431
134	0x3e8995ac	0.26872003
135	0xbf3deea3	-0.74192256
136	0x3f37417b	0.7158429
137	0xbdc35279	-0.09537215
138	0xbf05e064	-0.5229552
139	0xbdc3cbfb	-0.095603906
140	0x3f27dbb6	0.6556963
141	0xbdea8520	-0.11451173
142	0xbf009b42	-0.50236905
143	0x3f3a4f87	0.727776
144	0x3ebc2ac8	0.3675139
145	0x3f3aae5b	0.72922295
146	0xbe6772a7	-0.2260233
147	0x3dd50ee2	0.10403229
148	0x3eb0dd80	0.3454399
149	0xbf55741e	-0.83380306
150	0x3e77af95	0.24188073
151	0x3dd064f8	0.10175508
152	0x3e481550	0.1953938
153	0x3e711e1f	0.23546647
154	0xbcc3cf61	-0.023902597
155	0xbe91e561	-0.28495315
156	0x3e229adf	0.15879391
157	0x3e85f87a	0.26166135
158	0x3e902052	0.28149658
159	0x3fc99533	1.5748657
160	0xbeb1beb0	-0.34715796
161	0x3ebe3a0b	0.37153658
162	0x3efa215d	0.4885358
163	0xbdcc7312	-0.099828854
164	0x3d292fcb	0.041305345
165	0xbeca5171	-0.3951526
166	0x3ec1ac76	0.3782689
167	0xbd48449e	-0.048893563
168	0x3f176dc1	0.59151846
169	0x3c213048	0.009838171
170	0x3ec53d85	0.38523498
171	0xbf3aa475	-0.7290719
172	0xbe88cfd6	-0.26721066
173	0x3eb5636c	0.35427415
174	0x3f08f406	0.5349735
175	0xbfaecce5	-1.3656279
176	0xbe84b3e1	-0.25918487
177	0x3d446bb3	0.047954272
178	0x3f6b17dc	0.9183328
179	0x3df99cac	0.12188086
180	0x3d5951a2	0.053056367
181	0xbf2d695d	-0.67738897
182	0x3debbded	0.11510835
183	0x3d5a93ea	0.053363718
184	0xbe1b1b1e	-0.15147063
185	0xbf20eda8	-0.62862635
186	0x3cc86f69	0.024467187
187	0x3ea9dd1d	0.3317651
188	0x3b19fabf	0.0023495404
189	0x3e8fe901	0.28107455
190	0xbef8426b	-0.48488173
191	0x3f143d4c	0.5790603
192	0xbf2578e2	-0.6463758
193	0x3f06dfd0	0.5268526
194	0x3f231c5d	0.63715154
195	0xbde5ee0f	-0.11227047
196	0x3eb830ad	0.35974637
197	0x3ea39e38	0.3195665
198	0x3e0d93ae	0.13825867
199	0xbf0df11a	-0.55446017
200	0x3efa7fd8	0.48925662
201	0x3ebf7130	0.37391043
202	0xbe7b9e15	-0.24572022
203	0x3e80f840	0.251894
204	0xbdcda61c	-0.100414485
205	0xbe0f4965	-0.13992842
206	0xbed82bd1	-0.4222093
207	0x3e4ce397	0.20008694
208	0x3e933fbd	0.28759566
209	0x3f018fe3	0.5061018
210	0xbc11af84	-0.008891944
211	0xbea459df	-0.32099816
212	0x3dfb54e9	0.12272055
213	0xbf346ffc	-0.70483375
214	0x3e92823f	0.28614995
215	0x3ef78364	0.4834243
216	0xbdb906c1	-0.09034491
217	0xbd43948c	-0.047749087
218	0x3f3205da	0.6954018
219	0xbea15112	-0.31507164
220	0x3c45f80e	0.012083067
221	0x3f147cf1	0.58003145
222	0x3ee987b9	0.4561136
223	0x3fa51143	1.2895893
224	0x402b067b	2.6722705
225	0xbe8088e3	-0.25104436
226	0xbfd9e730	-1.7023678
227	0x3f70bb76	0.9403604
228	0xbfa61d68	-1.2977724
229	0x3d16c409	0.036808047
230	0xbf9def6d	-1.2338692
231	0xbfc62674	-1.5480485
232	0xbf805705	-1.0026556
233	0x3e181216	0.14850649
234	0x3ec290fb	0.38001236
235	0xbf5395d7	-0.8265051
236	0x4023d9ed	2.5601761
237	0xbf88fd56	-1.0702312
238	0x3fcb3aed	1.5877358
239	0xbdbbdf2a	-0.091734245
240	0xbef15bcf	-0.47140357
241	0xc000c31a	-2.011908
242	0x3e75a761	0.23989631
243	0x3eb2ed07	0.34946463
244	0xbfd5e9ce	-1.6711977
245	0xbe98e032	-0.29858547
246	0xbd1860e1	-0.037201766
247	0xbf7d991c	-0.9906175
248	0x3f97a9d7	1.1848706
249	0x3f67204a	0.90283644
250	0x3d810ff3	0.0630187
251	0xc00d8de0	-2.2117844
252	0xbf9917e6	-1.1960418
253	0x3e815d71	0.25266603
254	0xbd38481d	-0.044990648
255	0xbf1d0e00	-0.6134949

fc3.weight f4 [4, 32]
0	0xbefc4855	-0.49273935
1	0xbf14cf95	-0.58129245
2	0xbecfdad5	-0.40596643
3	0xbe8546fe	-0.26030725
4	0xbef2ffa7	-0.47460672
5	0xbb2dbd06	-0.0026510372
6	0xbeec012f	-0.46094653
7	0x40227f67	2.539026
8	0x4020a4c4	2.5100565
9	0x40323be9	2.7849066
10	0xbcf8c25a	-0.030366112
11	0xbe78762d	-0.2426383
12	0xbebcd2e4	-0.36879647
13	0x4008e215	2.138799
14	0xbefba69c	-0.4915055
15	0xbf264c94	-0.649606
16	0x40797f0d	3.8983796
17	0xbf36afee	-0.713622
18	0xbf9c0d19	-1.2191497
19	0xbeef571d	-0.4674615
20	0xbf362706	-0.71153295
21	0x4005f01e	2.0927806
22	0xbed01c81	-0.40646747
23	0xbd353e56	-0.0442489
24	0xbe76d7e5	-0.24105795
25	0xbe6daa6f	-0.23209547
26	0x3eb3c204	0.3510896
27	0xbde20564	-0.110361844
28	0xbf2b682a	-0.66955817
29	0xbe8a8763	-0.27056417
30	0x404d4f20	3.2079544
31	0xbee62c4e	-0.44955677
32	0xbeb491f1	-0.35267594
33	0xbedba5cf	-0.4289994
34	0xbee151a0	-0.44007587
35	0x3e0e8192	0.13916615
36	0xbf2db7a4	-0.6785834
37	0xbfa145f5	-1.2599474
38	0xbe77bd8a	-0.24193397
39	0x40389514	2.884099
40	0x401b3600	2.425171
41	0x40402784	3.0024118
42	0xbec91484	-0.39273465
43	0xbf46c5ec	-0.77645755
44	0xbf11d002	-0.5695802
45	0x4014561a	2.3177552
46	0xbebe7e29	-0.37205628
47	0xbea96843	-0.33087358
48	0x4065c523	3.5901573
49	0xbf26f74c	-0.65221095
50	0xbf417728	-0.75572443
51	0xbf206222	-0.6264974
52	0xbe09a6fe	-0.13442609
53	0x3fe294ae	1.7701623
54	0xbf156327	-0.5835442
55	0xbef73218	-0.48280406
56	0xbe126ba5	-0.14298876
57	0xbf235419	-0.638002
58	0x3f23c130	0.63966656
59	0x3d06593d	0.032799948
60	0xbf0c7090	-0.54859257
61	0x3cba7087	0.022758735
62	0x404a1142	3.1573033
63	0xbca15c18	-0.019697234
64	0xbf1e66f6	-0.61875856
65	0xbf06fe46	-0.5273174
66	0xbe916329	-0.28395966
67	0xbfbcd057	-1.475108
68	0xbf07e07e	-0.5307692
69	0xbd79941a	-0.060932256
70	0xbf33e339	-0.7026859
71	0x402ac788	2.6684284
72	0x403fcc34	2.9968386
73	0x4021cba2	2.5280538
74	0xbf026256	-0.509313
75	0xbe96c03a	-0.29443532
76	0xbf135579	-0.57552296
77	0x3f1cf83b	0.6131627
78	0xbe8a593c	-0.27021205
79	0xbed3a6c8	-0.41338181
80	0x3ff0768f	1.8786181
81	0xbe93d832	-0.2887588
82	0xbf91dcf0	-1.139555
83	0xbe6cb5ea	-0.2311627
84	0x3c951a4d	0.018201018
85	0x400f8c74	2.2429476
86	0xbef317be	-0.4747905
87	0xbf494639	-0.78622776
88	0xbf4dcd56	-0.8039144
89	0xbe8bf227	-0.27333185
90	0x40452779	3.0805342
91	0x3dc6f10d	0.097139455
92	0xbf293cd2	-0.6610843
93	0xbf4098da	-0.7523323
94	0x3fcd8328	1.6055651
95	0xbe0bb6b7	-0.13643919
96	0xbeb7e385	-0.3591577
97	0xbeee1c0a	-0.46505767
98	0xbef5636c	-0.47927415
99	0xbe9265b9	-0.28593233
100	0xbe00ca7a	-0.12577239
101	0xbf5f8c78	-0.87323713
102	0xbeffa038	-0.49926925
103	0x3fa0a614	1.2550683
104	0x40231e52	2.5487256
105	0x407d2db2	3.955914
106	0xbec9d263	-0.39418325
107	0xbf0376bd	-0.51353055
108	0xbefb0bd1	-0.49032453
109	0x400f96bc	2.243575
110	0xbee0f6aa	-0.4393819
111	0xbdc8736d	-0.09787641
112	0x4062655d	3.5374367
113	0xbe086592	-0.13319996
114	0xbf971930	-1.1804562
115	0xbee6eec9	-0.45104054
116	0xbee51ced	-0.4474863
117	0x40034948	2.0513477
118	0xbea61a84	-0.32442105
119	0xbeb10f30	-0.345819
120	0xbf0f9355	-0.56084186
121	0xbf016e0f	-0.5055856
122	0x3ea4a3dd	0.32156268
123	0x3d885580	0.06656933
124	0xbeb63fe3	-0.35595617
125	0xbe873278	-0.26405692
126	0x405fa32f	3.494335
127	0xbf2321da	-0.6372353
