dqn/exercise/models/checkpoint694_180.1113281277893.pth (torch, 7111 bytes, 3 tensors)

fc1.weight f4 [32, 8]
0	0xbd2ebbec	-0.042659685
1	0xbc04b70f	-0.008100285
2	0x3da08a53	0.07838883
3	0x3d91400b	0.07092293
4	0x4053904d	3.3056824
5	0xbf0f946e	-0.5608586
6	0x3e986403	0.29763803
7	0x3f0cd638	0.5501437
8	0xbace2ff0	-0.0015730839
9	0x3f17a4e0	0.59235954
10	0x3ebd24e3	0.36942205
11	0xbf6fd6c7	-0.936871
12	0xbe8b9f6e	-0.27270073
13	0xbf99669f	-1.1984442
14	0xbee01acc	-0.43770444
15	0xbe494763	-0.19656138
16	0x3d083204	0.033250824
17	0x3f2fff51	0.68748957
18	0xbe8f6dae	-0.28013366
19	0xbee878a5	-0.45404544
20	0x3fa32a01	1.2747194
21	0x3f4532f6	0.77030885
22	0x3d9b5422	0.075844064
23	0x3d8b22d9	0.06793756
24	0x3db96d2b	0.09054025
25	0xbc7820cc	-0.015144538
26	0x4015523d	2.3331444
27	0x3f708aa3	0.9396154
28	0xbf0ab5c2	-0.5418359
29	0xbef737d2	-0.48284775
30	0xbf94cd38	-1.1625128
31	0x3e975221	0.29554847
32	0xbef7e793	-0.48418865
33	0xbef16574	-0.47147715
34	0xbe6a13b4	-0.22859079
35	0xbe8b61a5	-0.27222934
36	0x3dcfde5d	0.10149834
37	0x3d6691fe	0.056291573
38	0x3eb68a69	0.35652474
39	0x3e71c484	0.23610121
40	0x3ebcbf99	0.36864927
41	0xbf6cdedd	-0.9252756
42	0x3eaefd41	0.34177592
43	0x3f9ed70f	1.2409381
44	0xbee5baae	-0.44868988
45	0xbf108e34	-0.56466985
46	0x3e6de036	0.23230061
47	0x3ebfc8ac	0.37457788
48	0xbe2fad3d	-0.17155929
49	0xbea5a7f8	-0.32354712
50	0xbdb351b4	-0.08755818
51	0xbd40845b	-0.047001224
52	0x3f1c1ea0	0.6098423
53	0x3e3ae37f	0.18250845
54	0x3ef92ee9	0.48668602
55	0xbe8154b1	-0.25259927
56	0x3f3bac5c	0.73309875
57	0xbfb3beee	-1.4042642
58	0x3e66c789	0.22537054
59	0xbfa7cfd5	-1.31103
60	0x3d8223af	0.06354462
61	0x3f1561ba	0.58352244
62	0x3e236741	0.15957357
63	0x3c20b2ad	0.009808225
64	0x3e2ef666	0.17086181
65	0x3eaae244	0.33375752
66	0x3f07c814	0.5303967
67	0x3d0c61ce	0.03427296
68	0x3f618e4a	0.8810774
69	0x3f84727b	1.0347437
70	0xbdc9878e	-0.09840308
71	0x3dc4dc0d	0.09612284
72	0x3eb5261c	0.35380638
73	0x3f5fc099	0.87403256
74	0x3eb18856	0.3467433
75	0x40114add	2.2701943
76	0xbef88e27	-0.48545954
77	0xbd709d52	-0.058743782
78	0x3e5f71f5	0.21820815
79	0xbf2d1c5d	-0.67621404
80	0x3d747c3b	0.059688788
81	0x3ee38bc8	0.44442582
82	0x3f25976e	0.6468419
83	0xc026285a	-2.5962129
84	0xbf65f019	-0.89819485
85	0xbebdc89f	-0.37067124
86	0x3f091f60	0.535635
87	0x3dde6b65	0.10860328
88	0x3ea50dd8	0.32237124
89	0xbf338355	-0.7012227
90	0x3fe42ae8	1.7825594
91	0x3dacdb0e	0.08440219
92	0xbeaacbe7	-0.3335869
93	0x3ef627f6	0.48077363
94	0xbd45f70c	-0.048331305
95	0x3d5c099b	0.053720098
96	0xbeae91e7	-0.3409569
97	0x3dfb6e91	0.12276948
98	0xbed5dc4c	-0.41769636
99	0x3f579841	0.84216696
100	0x3f91210c	1.133821
101	0x3f4a212e	0.7895688
102	0xbd978aff	-0.07399558
103	0xbf272f31	-0.65306383
104	0xbf164da5	-0.58712226
105	0xbebc634a	-0.36794502
106	0xbe998e68	-0.2999146
107	0xbeb43abb	-0.35201058
108	0x3e9c1121	0.30481818
109	0x3c19f9ea	0.009397963
110	0xbbea7b14	-0.0071557853
111	0x3e831d8a	0.25608474
112	0xbe3e1ac0	-0.18564892
113	0x3f431d28	0.76216364
114	0x3e8b54fc	0.27213275
115	0xbf8a300d	-1.0795914
116	0xbf81567d	-1.0104519
117	0x3f687d28	0.90815973
118	0xbf4d5e04	-0.8022158
119	0x3eaf1a98	0.34199977
120	0x3e9a1eb5	0.30101553
121	0xbe4102d0	-0.18848729
122	0xbe1eb1f3	-0.1549757
123	0xbcd09328	-0.025460795
124	0xbf111507	-0.5667271
125	0xbf9e330f	-1.2359332
126	0xbe92ac1f	-0.28646943
127	0x3d06a2ce	0.032870106
128	0x3e3cf916	0.18454394
129	0xbf051293	-0.51981467
130	0xbcdf788a	-0.027279157
131	0x3f752efe	0.9577483
132	0xbd92aa12	-0.071613446
133	0xbf17fd55	-0.5937093
134	0x3eb51791	0.35369542
135	0x3e13ae4f	0.14421962
136	0xbf053cc7	-0.52045864
137	0x3e559f57	0.20861565
138	0x3ee5021b	0.4472817
139	0x3c98617a	0.018601168
140	0x3dfec30a	0.124395445
141	0x3f6996bf	0.91245645
142	0x3ef733ee	0.48281807
143	0xbf006941	-0.50160605
144	0xbee831e5	-0.45350567
145	0x3caf312d	0.021385754
146	0x3be9ee94	0.0071390364
147	0x3e1cd7e1	0.15316726
148	0xbe317177	-0.1732844
149	0xbf5eac16	-0.8698133
150	0xbea5c6cf	-0.3237824
151	0x3e9acddd	0.30235186
152	0xbe597f49	-0.21239962
153	0xbe954ab1	-0.29158548
154	0xbea61aa2	-0.32442194
155	0xbf97256c	-1.1808295
156	0xbefddcb9	-0.4958246
157	0xbf56c338	-0.8389163
158	0x3e33fdb3	0.17577247
159	0xbe3d3f53	-0.18481188
160	0xbe757603	-0.23970799
161	0xbeaf23c7	-0.34206983
162	0xbf600839	-0.87512547
163	0xbeb2a0ea	-0.34888393
164	0x3f5bd925	0.8587821
165	0x3f250948	0.6446729
166	0xbd9a86c1	-0.075452335
167	0x3d70565c	0.05867611
168	0xbe866c94	-0.26254714
169	0xbfbe13bf	-1.4849776
170	0x3f3d80c8	0.7402463
171	0xbf6b5a82	-0.9193498
172	0x3f0ac658	0.542089
173	0x3f0d36ff	0.5516204
174	0xbf0e2196	-0.5552
175	0xbe95062c	-0.2910627
176	0x3d04ad14	0.032391623
177	0xbe9c08e3	-0.3047553
178	0x3e326ce7	0.17424355
179	0x3f52a813	0.8228771
180	0xbe98dbe9	-0.29855278
181	0xbf00183c	-0.5003698
182	0x3e5a245f	0.21302937
183	0x3f099e21	0.5375691
184	0x3f826146	1.0185935
185	0xbe85c8cb	-0.26129755
186	0x3f143766	0.5789703
187	0x3f559a2f	0.8343839
188	0xbee154ad	-0.44009915
189	0xbec3ced3	-0.38243732
190	0x3e94b3d8	0.2904346
191	0xbcc9716b	-0.024590215
192	0x3ec1262e	0.3772444
193	0x3d7785af	0.060430225
194	0xbec10377	-0.37697956
195	0xbfc7f7a8	-1.5622454
196	0x3fa906f6	1.3205249
197	0x3db5d33b	0.0887818
198	0x3e3b4780	0.18288994
199	0x3e557aed	0.20847674
200	0xbc754844	-0.014970843
201	0x3ddd1f43	0.10796978
202	0xc03cbe9c	-2.9491339
203	0x3ebe703f	0.37195012
204	0xbf106d8b	-0.5641715
205	0x3e55c284	0.20874983
206	0x3e0210e7	0.1270176
207	0x3e9e4c94	0.309178
208	0x3f6bc255	0.920934
209	0xbe9f8abd	-0.31160536
210	0x3f351ca0	0.70746803
211	0x3ef31c9e	0.4748277
212	0xbf16bb6e	-0.58879745
213	0xbed933e0	-0.4242239
214	0xbd0a27da	-0.03372941
215	0x3d89787b	0.06712433
216	0xbde7f429	-0.11325867
217	0xbef633b9	-0.48086336
218	0x3f4f1e44	0.80905557
219	0xbf8fcac9	-1.123376
220	0xbd3df18a	-0.046372928
221	0x3f046f16	0.51732004
222	0x3f378f16	0.71702707
223	0xbb434341	-0.0029794725
224	0xbf8137c0	-1.0095139
225	0xbe8b54c4	-0.2721311
226	0xbf1a8955	-0.603658
227	0xbe8c26ea	-0.2737344
228	0x3edc6f21	0.43053535
229	0xbd1ca1a0	-0.038240075
230	0x3d88f9a5	0.06688241
231	0x3eb3f219	0.35145643
232	0x3f28f098	0.65992117
233	0x3e12eefe	0.14348981
234	0x3e475be5	0.19468649
235	0xbf46498d	-0.7745598
236	0xbde2fa05	-0.11082844
237	0xbf7a5660	-0.9778805
238	0xbe663cdc	-0.22484154
239	0x3dccb3ed	0.099952556
240	0x3f59bd37	0.85054344
241	0xbd01f2e3	-0.031725775
242	0x3ca93cc3	0.020658856
243	0xbee5ef8c	-0.44909322
244	0xbe84a588	-0.2590754
245	0xbf851ee3	-1.0400051
246	0x3e641120	0.22272158
247	0xbe33b1bc	-0.17548269
248	0xbfb3b242	-1.4038775
249	0xbf013102	-0.50465405
250	0xbf90412f	-1.1269892
251	0x3daa1295	0.083043255
252	0x3fc2b9a9	1.5212909
253	0x3e17c904	0.14822775
254	0xbd687257	-0.056749668
255	0x3c445b7c	0.011984702

fc2.weight f4 [32, 32]
0	0xbf32f344	-0.69902444
1	0x3f4f304d	0.80933076
2	0x3f1beed2	0.60911286
3	0xbecc6ab9	-0.39925173
4	0x3e01e5be	0.12685296
5	0x3ea89646	0.3292715
6	0x3eb76a41	0.35823253
7	0xbec92647	-0.39287016
8	0x3f4cbfe8	0.79980326
9	0x3d54725d	0.051866878
10	0xbeb517e8	-0.35369802
11	0x3e831116	0.25598973
12	0x3f12f599	0.57406
13	0x3e2bad58	0.16765344
14	0xbf15df6d	-0.58544046
15	0x3ef4f09f	0.4783983
16	0x3dd93277	0.106053285
17	0x3f1bc9ae	0.60854614
18	0xbc6ca321	-0.01444319
19	0xbdba89fd	-0.091083504
20	0x3f232ec5	0.6374324
21	0xbf26177d	-0.6487959
22	0x3e17c149	0.14819826
23	0x3e9a8234	0.30177462
24	0x3d2ef012	0.042709418
25	0x3c575ac7	0.013144202
26	0x3eba1f52	0.3635202
27	0x3d3721a8	0.04470983
28	0x3ea04579	0.31303003
29	0x3f1e4b93	0.6183407
30	0x3f164578	0.5869975
31	0x3fdb8289	1.7149211
32	0xbe8915e9	-0.2677453
33	0x3f0ef014	0.5583508
34	0x3e43e83a	0.19131556
35	0x3dc8de6b	0.09808048
36	0x3d547bc7	0.051875856
37	0x3e4a4d7b	0.19756119
38	0x3e4a6669	0.19765629
39	0xbef9adba	-0.48765355
40	0x3ee55212	0.44789177
41	0x3e6e6719	0.23281516
42	0xbe847535	-0.25870672
43	0xbd084049	-0.033264432
44	0xbd7903f0	-0.06079477
45	0xbb23aa75	-0.0024973426
46	0xbfa691f5	-1.3013293
47	0x3f3e554d	0.7434891
48	0x3ea5052e	0.32230514
49	0xbd06aaf5	-0.03287788
50	0x3d314778	0.04328105
51	0x3e861354	0.2618662
52	0x3eda46ad	0.42632046
53	0xbf1f3806	-0.6219486
54	0xbd3a447e	-0.045475475
55	0x3dcc6b1e	0.099813685
56	0x3e02447f	0.12721442
57	0x3e10cd36	0.14140782
58	0x3efe8ef4	0.4971844
59	0xbe06a02a	-0.13147035
60	0x3dc7a4cf	0.097482316
61	0x3eb7252d	0.3577055
62	0x3f1c1eec	0.60984683
63	0x3faaaf10	1.3334675
64	0xbf132b3c	-0.57487845
65	0x3f62d439	0.88605076
66	0x3e870612	0.2637182
67	0xbe149150	-0.14508557
68	0x3e221bf7	0.1583098
69	0x3e8b3749	0.27190617
70	0x3e59e20e	0.2127764
71	0xbef9ba1e	-0.4877481
72	0x3f23bf49	0.63963753
73	0xbe98b4cd	-0.2982544
74	0xbe180612	-0.14846066
75	0x3d778401	0.060428623
76	0x3e2b61a2	0.16736463
77	0x3dea798f	0.11448967
78	0xbedba7ab	-0.42901358
79	0x3f0edad4	0.55802655
80	0x3e643c80	0.22288704
81	0x3ed96376	0.42458695
82	0x3e813580	0.2523613
83	0x3ee41352	0.4454599
84	0x3e9017b1	0.28143075
85	0xbf06cb4d	-0.5265396
86	0x3e80feab	0.25194296
87	0x3e81fdca	0.25388938
88	0xbe31f8bf	-0.17380045
89	0x3d35e897	0.044411268
90	0x3f0c5a17	0.54824966
91	0xbde870f3	-0.11349668
92	0x3c6825d5	0.014169176
93	0x3ee33e3a	0.44383413
94	0x3ec92e90	0.39293337
95	0x3fb62744	1.4230733
96	0xbdc92b3f	-0.09822702
97	0xbf45cf18	-0.77269125
98	0x3ebbb2f7	0.36659977
99	0x3e0d8204	0.13819128
100	0x3e87cc44	0.2652303
101	0x3f0cab16	0.54948556
102	0x3e6f285c	0.2335524
103	0xbf2e4dc9	-0.6808744
104	0x3e6b2b91	0.22965838
105	0x3ec810fd	0.3907546
106	0xbf7e0168	-0.99220896
107	0x3e499411	0.19685389
108	0x3f199bee	0.60003555
109	0x3d949ed2	0.07256855
110	0xbf9355cb	-1.1510557
111	0xbf470a58	-0.7775016
112	0x3eca112f	0.39466235
113	0x3f01b423	0.5066549
114	0xbfd3136b	-1.6490301
115	0x3e14270b	0.14468019
116	0xbde36f58	-0.111052215
117	0xbf27336a	-0.65312827
118	0x3e812644	0.25224507
119	0x3ec95366	0.3932144
120	0xbeb7e85d	-0.35919467
121	0x3e2326e8	0.1593281
122	0x3f43e515	0.76521426
123	0x3df74bdc	0.12075016
124	0x3e3c9c3d	0.18418975
125	0xbf2cbfe5	-0.6748031
126	0x3e5024a5	0.20326479
127	0x3f8e982a	1.1140187
128	0xbea8cb97	-0.32967827
129	0x3f2a9206	0.66629064
130	0x3f54c3dd	0.83111364
131	0xbea7a5a4	-0.3274356
132	0xbdbfff73	-0.09374895
133	0x3e5b372b	0.21407764
134	0x3e60cca4	0.21953064
135	0xbf33ea37	-0.7027926
136	0x3f22c896	0.6358732
137	0xbd75a5c6	-0.059972547
138	0xbefb5e78	-0.4909551
139	0xbd9b691f	-0.0758841
140	0x3f2c84e8	0.673903
141	0xbd938e2d	-0.07204852
142	0xbef01cb2	-0.46896893
143	0x3f3e9816	0.74450815
144	0x3eb63a51	0.35591367
145	0x3f28debd	0.6596487
146	0xbe18d84f	-0.14926265
147	0x3e2cc7d8	0.1687311
148	0x3e91e15d	0.2849225
149	0xbf48441e	-0.7822894
150	0x3e84af56	0.2591502
151	0x3dfcc5aa	0.12342389
152	0x3e2265af	0.15859102
153	0x3e81ec2a	0.2537549
154	0xbaa03e6e	-0.0012225637
155	0xbe92f7a4	-0.2870456
156	0x3e4a8717	0.19778095
157	0x3e8b1337	0.27163097
158	0x3e859d96	0.2609679
159	0x3fca7a06	1.5818489
160	0xbeb12ff5	-0.346069
161	0x3ebef9b6	0.3729989
162	0x3eeda0cd	0.46411744
163	0xbe1d1d0c	-0.15343112
164	0x3d0749f2	0.033029504
165	0xbeb90153	-0.36133823
166	0x3ed13f9f	0.40868852
167	0x3c34ab15	0.011027117
168	0x3f1584eb	0.5840594
169	0x3dce4bc8	0.10073048
170	0x3eab8546	0.33500117
171	0xbf3f7535	-0.7478822
172	0xbe3220a4	-0.17395264
173	0x3ea9871d	0.33110896
174	0x3eef3d03	0.46726236
175	0xbfad46ac	-1.3537192
176	0xbe76c005	-0.24096687
177	0x3d76d518	0.060261816
178	0x3f6ef491	0.9334193
179	0x3e1a35f6	0.15059647
180	0x3d91c708	0.0711804
181	0xbf1e5f3a	-0.61864054
182	0x3deb584b	0.1149145
183	0x3de30df8	0.11086649
184	0xbe4435a8	-0.19161093
185	0xbf206cf1	-0.6266623
186	0x3cc7534e	0.024331715
187	0x3eaff50b	0.3436664
188	0xbd156630	-0.036474407
189	0x3e694f3f	0.22784136
190	0xbf1f314f	-0.62184614
191	0x3f1480e9	0.580092
192	0xbf267410	-0.6502085
193	0x3f080a21	0.53140455
194	0x3f19db24	0.6010001
195	0xbcfa3f6c	-0.03054782
196	0x3ec0bb9d	0.37643138
197	0x3ead0ef8	0.33800483
198	0x3df3e61b	0.119091235
199	0xbf072f8e	-0.5280694
200	0x3ee460a2	0.44604975
201	0x3ec183a8	0.37795758
202	0xbe6c9525	-0.23103769
203	0x3e6a9424	0.22908074
204	0xbd9a605b	-0.075379096
205	0xbdd5555b	-0.10416671
206	0xbec7b2b8	-0.3900354
207	0x3e5afea2	0.21386197
208	0x3e905ed2	0.28197342
209	0x3eff65b3	0.49882278
210	0x3da48cd8	0.08034676
211	0xbe941645	-0.2892324
212	0x3d928513	0.07154288
213	0xbf248aa6	-0.6427406
214	0x3e987f0a	0.29784423
215	0x3f016485	0.50544006
216	0xbe007319	-0.12543906
217	0xbcaf64c1	-0.021410348
218	0x3f2e93cb	0.68194264
219	0xbe9e6669	-0.30937508
220	0x3d3234f1	0.04350752
221	0x3f160674	0.58603597
222	0x3ee97478	0.4559667
223	0x3fa50a3f	1.2893752
224	0x40257227	2.5850923
225	0xbe3085fc	-0.17238611
226	0xbfe3cf6b	-1.7797674
227	0x3f758ed6	0.95921075
228	0xbfa679ef	-1.3005961
229	0x3d8b9454	0.06815401
230	0xbfad1eec	-1.3525062
231	0xbfc887a4	-1.5666394
232	0xbf84e3f4	-1.0382066
233	0x3dddd476	0.10831539
234	0x3ee17b42	0.4403935
235	0xbf46f5c7	-0.77718776
236	0x4018e167	2.3887575
237	0xbf8cf504	-1.1012273
238	0x3fce3b87	1.6111916
239	0xbdb86a1b	-0.09004613
240	0xbed36849	-0.412905
241	0xbff9abbc	-1.9505534
242	0x3e86488d	0.26227227
243	0x3ec70d99	0.38877562
244	0xbfd95477	-1.6978902
245	0xbf03eff3	-0.5153801
246	0xbc63e2a2	-0.013909014
247	0xbf5c69c3	-0.8609888
248	0x3f886085	1.0654455
249	0x3f5aa1b8	0.85403013
250	0x3dcf137b	0.101111375
251	0xc007069e	-2.109779
252	0xbf9a2fc2	-1.2045825
253	0x3e7d9a16	0.2476581
254	0xbc275da4	-0.010215197
255	0xbf226db0	-0.6344862

fc3.weight f4 [4, 32]
0	0xbeef94df	-0.46793267
1	0xbeff07aa	-0.49810535
2	0xbec1139b	-0.3771027
3	0xbe480304	-0.195324
4	0xbedd93ef	-0.43276927
5	0xbd1490fe	-0.036271088
6	0xbed2eb5c	-0.4119519
7	0x401ca0d7	2.447317
8	0x402654ee	2.5989337
9	0x40382ef8	2.8778667
10	0xbd27c0ab	-0.040955227
11	0xbe644224	-0.22290856
12	0xbeb779ed	-0.3583521
13	0x3ffb0a63	1.9612545
14	0xbeeb2bc5	-0.4593183
15	0xbf2097f9	-0.6273189
16	0x40752088	3.8301105
17	0xbf2f1cbc	-0.6840322
18	0xbf8ea20e	-1.1143205
19	0xbee68931	-0.45026544
20	0xbf32d12c	-0.6985042
21	0x40007318	2.0070248
22	0xbebba9ea	-0.36653072
23	0xbd0a5bd4	-0.03377898
24	0xbe482338	-0.19544685
25	0xbe5fee1f	-0.2186818
26	0x3e8f7785	0.28020874
27	0xbde20564	-0.110361844
28	0xbf237c1d	-0.63861257
29	0xbe75411a	-0.23950616
30	0x4044e05e	3.0761943
31	0xbed9ce71	-0.42540315
32	0xbeaeb02d	-0.34118786
33	0xbee7168d	-0.45134392
34	0xbed4c89b	-0.415593
35	0x3d60a198	0.054841608
36	0xbf21c450	-0.63190174
37	0xbf91c553	-1.1388344
38	0xbe53919e	-0.20661017
39	0x4035247a	2.8303514
40	0x4014365b	2.3158176
41	0x403b0bed	2.922603
42	0xbec4ec23	-0.38461408
43	0xbf38592a	-0.72011054
44	0xbf0ecee6	-0.5578445
45	0x400a0f6b	2.157191
46	0xbebb17ac	-0.36541498
47	0xbea1ca93	-0.31599864
48	0x406844c6	3.6291976
49	0xbf19160d	-0.5979927
50	0xbf34e7f2	-0.7066642
51	0xbf1b132b	-0.60576123
52	0xbe024250	-0.12720609
53	0x3fdfc9c9	1.7483455
54	0xbf0ec1db	-0.5576455
55	0xbef4fc37	-0.47848675
56	0xbdebd6eb	-0.11515602
57	0xbf1aed0e	-0.60517967
58	0x3f02a15b	0.5102746
59	0x3d06593d	0.032799948
60	0xbf08111f	-0.53151125
61	0x3b2e6f0d	0.0026616484
62	0x40464b48	3.0983448
63	0xbd3b2241	-0.045686964
64	0xbf18e473	-0.59723586
65	0xbf014d74	-0.5050881
66	0xbe8b7c99	-0.27243498
67	0xbfb43f9e	-1.4081914
68	0xbf032fff	-0.5124511
69	0x3c7f79eb	0.015593032
70	0xbf302d23	-0.68818873
71	0x402651d4	2.5987444
72	0x403ed275	2.9815953
73	0x402354f9	2.5520613
74	0xbefdec87	-0.4959452
75	0xbe8c8d66	-0.27451628
76	0xbf0f0b09	-0.55876213
77	0x3ef936a9	0.48674515
78	0xbe83bc64	-0.25729668
79	0xbec9304a	-0.39294654
80	0x3fedc127	1.857457
81	0xbe88dfb4	-0.26733172
82	0xbf8f5a8a	-1.1199505
83	0xbe5f1742	-0.21786216
84	0x3d1a25c4	0.037633672
85	0x400c658c	2.193698
86	0xbee80467	-0.4531586
87	0xbf419fe3	-0.7563459
88	0xbf4589de	-0.77163494
89	0xbe83181c	-0.25604331
90	0x40432960	3.0494003
91	0x3dc6f10d	0.097139455
92	0xbf25cd52	-0.6476642
93	0xbf3c213e	-0.73488224
94	0x3fbc8f08	1.473115
95	0xbe0d90c2	-0.13824752
96	0xbeb98632	-0.36235195
97	0xbeed09c0	-0.462965
98	0xbef7fc15	-0.4843451
99	0xbe9bf81e	-0.30462736
100	0xbe001bbb	-0.12510578
101	0xbf63169c	-0.88706374
102	0xbef86e84	-0.48521817
103	0x3f962a52	1.1731665
104	0x40215b08	2.521181
105	0x407b3197	3.9249017
106	0xbecc79c0	-0.39936638
107	0xbf02f38f	-0.5115289
108	0xbefd38db	-0.4945744
109	0x400c9e23	2.197152
110	0xbee23c0e	-0.44186443
111	0xbdc51d2b	-0.09624704
112	0x4060a617	3.5101373
113	0xbe0b95f0	-0.13631415
114	0xbf8c4285	-1.09578
115	0xbee7f39c	-0.45303047
116	0xbedf0457	-0.43558
117	0x3ffddf0f	1.9833697
118	0xbea6b7d3	-0.32562122
119	0xbeb9e3be	-0.36306566
120	0xbf00e5ac	-0.5035045
121	0xbf048e8d	-0.51780015
122	0x3e8ec6e4	0.27886117
123	0x3d885580	0.06656933
124	0xbeb4d5e9	-0.3531945
125	0xbe7bbd76	-0.24583992
126	0x405c309a	3.4404664
127	0xbf1e75f9	-0.6189876
