dqn/exercise/models/checkpoint609_161.13510846791837.pth (torch, 7111 bytes, 3 tensors)

fc1.weight f4 [32, 8]
0	0x3d031e56	0.032011352
1	0xba4b0fb2	-0.0007746174
2	0x3c91a1c8	0.017777339
3	0x3dfac19d	0.1224396
4	0x4050190f	3.2515295
5	0xbee4a5a0	-0.44657612
6	0x3e9defd2	0.3084703
7	0x3f0310b6	0.51197374
8	0x3c10b64e	0.008832527
9	0x3edf0ff8	0.4356687
10	0x3d9e1a5f	0.07719874
11	0xbf6a05d3	-0.9141514
12	0xbe7f0c83	-0.24907117
13	0xbfabcefa	-1.3422539
14	0xbed6a9f3	-0.41926536
15	0xbe279a28	-0.163674
16	0x3e06ebb0	0.13175845
17	0x3f203ca5	0.62592536
18	0xbe147ac3	-0.14499955
19	0xbed55178	-0.41663718
20	0x3fa6b81b	1.3024935
21	0x3f2a4b20	0.6652088
22	0x3d9a73db	0.07541629
23	0x3daee7bb	0.08540293
24	0x3d599080	0.05311632
25	0xbbcad859	-0.0061903414
26	0x40091fa7	2.142557
27	0x3f3d815d	0.7402552
28	0xbf3f56d4	-0.74741864
29	0xbf28c4c9	-0.6592527
30	0xbf38f7ec	-0.722533
31	0x3e7f14a0	0.24910212
32	0xbf1d8f42	-0.6154672
33	0xbf3cb461	-0.73712736
34	0xbe0be4db	-0.1366152
35	0xbe8777d8	-0.2645862
36	0x3d8468f0	0.06465328
37	0x3d6ee561	0.05832422
38	0x3eb6e08f	0.357182
39	0x3e7529e6	0.23941764
40	0x3ec83081	0.39099506
41	0xbf844f4d	-1.0336701
42	0x3e98f0df	0.2987127
43	0x3f5c9091	0.8615809
44	0xbf0d788f	-0.5526208
45	0xbf22d7e3	-0.63610667
46	0x3e59c6d9	0.2126726
47	0x3e8a7f4a	0.2705024
48	0xbe580b58	-0.21098077
49	0xbec728bf	-0.38898274
50	0x3d988a95	0.074483074
51	0xbd8de5b3	-0.06928577
52	0x3f1e063c	0.6172826
53	0x3e635933	0.22201996
54	0x3ef5a07f	0.4797401
55	0xbe88e5ea	-0.2673791
56	0x3f24baa4	0.6434729
57	0xbfa20bf0	-1.2659893
58	0xbbd1bc92	-0.006400653
59	0xbf9fc4a1	-1.2481881
60	0x3e682882	0.22671703
61	0x3edc29f6	0.43000764
62	0x3de5e14f	0.11224615
63	0xbcc32287	-0.023820175
64	0x3ebbd3f3	0.36685142
65	0x3ea91f50	0.33031702
66	0x3efd9373	0.49526557
67	0x3cf35b69	0.029706674
68	0x3f3c116b	0.7346408
69	0x3f7e78f1	0.9940329
70	0xbca6ca6b	-0.020360192
71	0x3d225eb2	0.03964109
72	0x3ee93ffe	0.45556635
73	0x3f644594	0.8916867
74	0x3ed9ef2b	0.42565283
75	0x3ff96b3c	1.948585
76	0xbe769543	-0.24080376
77	0x3ccdb49f	0.02511054
78	0x3e13d7c6	0.1443778
79	0xbf2d1c5d	-0.67621404
80	0x3d5a2c56	0.05326494
81	0x3eef6f19	0.46764448
82	0x3f1ab6e0	0.60435295
83	0xc01d5b6f	-2.4587057
84	0xbf57ff16	-0.84373605
85	0xbed1c18d	-0.4096798
86	0x3eeda818	0.46417308
87	0xbd05e0e1	-0.032685164
88	0x3ec9dcc2	0.39426237
89	0xbf41b90e	-0.75672996
90	0x3fbe07ed	1.4846169
91	0x3dd5ff6e	0.1044911
92	0x3e900f8d	0.28136864
93	0x3f042e70	0.5163336
94	0xbda366d0	-0.07978594
95	0x3d99abe5	0.075034894
96	0xbe5198bb	-0.20468418
97	0x3da4568f	0.08024322
98	0xbe98c18e	-0.2983517
99	0x3f172222	0.5903646
100	0x3f8e513f	1.1118544
101	0x3f4d7908	0.80262804
102	0xbdaa29b1	-0.08308733
103	0xbec9d070	-0.39416838
104	0xbf29e48d	-0.66364366
105	0xbefc625a	-0.49293786
106	0xbe61d338	-0.2205323
107	0xbed822dc	-0.42214096
108	0x3e8f8153	0.28028354
109	0xbba7bec2	-0.0051191757
110	0x3adbfe9c	0.0016784254
111	0x3e8be06d	0.2731966
112	0xbe130c80	-0.14360237
113	0x3f551d14	0.83247495
114	0x3ec10fc4	0.3770734
115	0xbf83db2a	-1.0301259
116	0xbf6a48a9	-0.9151712
117	0x3f3ed36c	0.74541354
118	0xbf4b3ac1	-0.79386526
119	0x3eb9ea1e	0.3631143
120	0x3df2fe89	0.11864955
121	0xbef1ce22	-0.4722758
122	0xbe924789	-0.28570202
123	0xbca6af87	-0.02034737
124	0xbf04c032	-0.51855767
125	0xbfa1b490	-1.2633228
126	0xbeb0080c	-0.3438114
127	0xbde82725	-0.11335591
128	0x3e859971	0.2609363
129	0xbf374929	-0.7159601
130	0xbd89786d	-0.067124225
131	0x3f2e75d0	0.6814852
132	0xbddfb4a5	-0.10923127
133	0xbf2e0e7e	-0.67990863
134	0x3ea129e0	0.3147726
135	0x3e1c9407	0.15290843
136	0xbf15e559	-0.5855308
137	0x3e4cf958	0.20016992
138	0x3ee6f08d	0.451054
139	0x3cd5e43d	0.026109809
140	0x3de67f65	0.11254767
141	0x3f6ae419	0.917543
142	0x3ecc6bc1	0.3992596
143	0xbf179fcf	-0.59228224
144	0xbf04113e	-0.5158881
145	0x3d37ce10	0.04487425
146	0xbc288189	-0.01028479
147	0x3e45bc11	0.19310023
148	0xbdb04d4a	-0.08608492
149	0xbf7478f6	-0.9549707
150	0xbe999271	-0.29994538
151	0x3e9517bb	0.29119667
152	0xbe856791	-0.26055577
153	0xbec2cf4d	-0.38048783
154	0xbea4a1a2	-0.32154566
155	0xbfa71251	-1.3052465
156	0xbec2300b	-0.3792728
157	0xbf30ff6a	-0.6913973
158	0x3de7136a	0.11283
159	0xbe055f8c	-0.1302473
160	0xbe9b4918	-0.30329204
161	0xbefcd210	-0.49379015
162	0xbf2685d0	-0.6504793
163	0xbee09125	-0.43860736
164	0x3f2ec44c	0.68268275
165	0x3efc166b	0.49235854
166	0xbd04a408	-0.032382995
167	0x3cd8991e	0.0264402
168	0x3b5759ed	0.0032859996
169	0xbf872e53	-1.0561012
170	0x3f242b8e	0.6412896
171	0xbf566950	-0.83754444
172	0x3f071c8f	0.5277795
173	0x3eff54cf	0.4986939
174	0xbec4c27e	-0.38429636
175	0xbcbe5d60	-0.023237884
176	0x3b331644	0.0027326504
177	0xbef577ac	-0.47942865
178	0x3eb85a21	0.36006263
179	0x3f054cbf	0.5207023
180	0xbec9ba60	-0.39400005
181	0xbf226d45	-0.6344798
182	0x3e3d3e9c	0.18480915
183	0x3eef67d0	0.4675889
184	0x3f8614e7	1.0475129
185	0xbeacdbb2	-0.33761364
186	0x3f120b1a	0.5704819
187	0x3f3170d2	0.69312775
188	0xbed31980	-0.41230392
189	0xbdf58692	-0.11988558
190	0x3eb2ad4d	0.34897843
191	0x3d101ff6	0.03518673
192	0x3eadfe2f	0.3398299
193	0x3a95806d	0.0011406072
194	0xbefe59b6	-0.4967782
195	0xbfc421e1	-1.5322839
196	0x3faedead	1.3661705
197	0x3d863d11	0.06554616
198	0x3e104ceb	0.14091842
199	0x3e1724cd	0.14760132
200	0x3ae85d0a	0.0017727923
201	0x3e511a16	0.20420107
202	0xc03688cd	-2.8520997
203	0x3ec94fc8	0.3931868
204	0xbe9cd4fb	-0.3063124
205	0x3e91f827	0.28509638
206	0x3daef18c	0.08542165
207	0x3e5d7e2a	0.21630159
208	0x3f48fbea	0.7850939
209	0xbea7c29a	-0.32765657
210	0x3f36b214	0.71365476
211	0x3f1e112e	0.61744964
212	0xbed085ab	-0.4072698
213	0xbe778dec	-0.24175233
214	0xbb02ec6f	-0.0019977351
215	0x3da7deb4	0.08196774
216	0xbe4ac8d3	-0.19803171
217	0xbf1ee871	-0.6207343
218	0x3f48b939	0.7840763
219	0xbf8aa3d3	-1.0831245
220	0x3d18d755	0.03731473
221	0x3f03f1c0	0.51540756
222	0x3f0dc59f	0.5537967
223	0x3c5e4682	0.013566615
224	0xbf888fa3	-1.0668834
225	0xbea3a804	-0.31964123
226	0xbf18ef86	-0.59740484
227	0xbea7633c	-0.32692897
228	0x3eb66a29	0.3562787
229	0xbd93d27b	-0.0721788
230	0x3d72d16a	0.059281744
231	0x3ebc086d	0.36725178
232	0x3f3f8a26	0.7482017
233	0x3e2f5cc1	0.17125227
234	0x3dfef870	0.124497294
235	0xbf320d9c	-0.69552016
236	0x3d8f2141	0.069887646
237	0xbf7e0b23	-0.99235743
238	0xbec33ef7	-0.38133976
239	0xbd816c57	-0.06319492
240	0x3f75df08	0.96043444
241	0x3b1d0aa1	0.0023962634
242	0xbd121361	-0.035663012
243	0xbedd9048	-0.4327414
244	0xbe5b21d0	-0.21399617
245	0xbf798752	-0.9747211
246	0x3e1bb4b6	0.15205655
247	0xbe3dedbc	-0.1854772
248	0xbfbdc7e9	-1.4826633
249	0xbf1e7c23	-0.6190817
250	0xbf7c9307	-0.98661846
251	0x3d03520a	0.03206066
252	0x3fa8f2c6	1.3199089
253	0x3d45d195	0.048295576
254	0xbd522d94	-0.051312998
255	0x3b4df01b	0.0031423632

fc2.weight f4 [32, 32]
0	0xbf23846b	-0.6387393
1	0x3f642fab	0.89135236
2	0x3f0ec932	0.5577575
3	0xbe9586b0	-0.2920432
4	0x3e64b0f4	0.22333127
5	0x3edd159d	0.43180552
6	0x3ec3daa7	0.38252756
7	0xbe3bf964	-0.18356854
8	0x3f3f63c3	0.747616
9	0x3dbad0b1	0.09121836
10	0xbe67e550	-0.2264607
11	0x3e5e23bb	0.21693318
12	0x3f1ba4a7	0.60798115
13	0x3e8bfbac	0.27340448
14	0xbf08ef0a	-0.53489745
15	0x3f1fe27b	0.62454957
16	0x3e3f757f	0.18697165
17	0x3f15dfc9	0.58544594
18	0x3e400bd1	0.18754508
19	0x3d28d5c3	0.041219484
20	0x3f04e7c5	0.5191615
21	0xbead89c2	-0.33894163
22	0x3e7f318c	0.24921244
23	0x3eca164e	0.39470142
24	0x3d7b9ea9	0.061430607
25	0x3d79f8ee	0.061028413
26	0x3e6272e5	0.22114141
27	0x3e158b59	0.14603938
28	0x3ecd6dfc	0.40122974
29	0x3f29dd28	0.6635308
30	0x3f0cc599	0.5498901
31	0x3fd5d06a	1.6704228
32	0xbe8ee744	-0.27910817
33	0x3f356e95	0.7087186
34	0x3dd73c26	0.10509519
35	0x3df19ebf	0.117978565
36	0x3d63c2c6	0.055605672
37	0x3e6d9336	0.23200688
38	0x3dde87a0	0.10865712
39	0xbecdf30c	-0.40224493
40	0x3ebe329e	0.37147993
41	0x3e487fbe	0.1957998
42	0xbe298284	-0.16553694
43	0xbe49e0c3	-0.19714646
44	0xbd0cecbb	-0.03440545
45	0x3d4a27d8	0.049354404
46	0xbf87222f	-1.0557307
47	0x3f607874	0.87683797
48	0x3e9f3f3b	0.3110293
49	0xbde18c6e	-0.11013113
50	0x3e86a617	0.26298591
51	0x3eb72c0f	0.35775802
52	0x3e9015fd	0.28141776
53	0xbed46cc3	-0.4148923
54	0xbc9e977c	-0.019359343
55	0x3deb668e	0.1149417
56	0x3d936244	0.07196477
57	0x3d574714	0.05255802
58	0x3ed30853	0.41217288
59	0xbe1493f9	-0.14509572
60	0x3e083351	0.13300826
61	0x3ee826dc	0.45342147
62	0x3f154e24	0.5832236
63	0x3fa5a45f	1.2940787
64	0xbf0af7e6	-0.54284513
65	0x3f6e92a9	0.93192536
66	0x3e36e444	0.17860514
67	0xbdd48d48	-0.1037851
68	0x3e44dcac	0.19224805
69	0x3ea64a19	0.32478407
70	0x3e53f300	0.20698166
71	0xbea3cac3	-0.31990632
72	0x3f151110	0.5822916
73	0xbe7ae301	-0.24500658
74	0xbdcaf82d	-0.09910617
75	0xbd812946	-0.063067004
76	0x3e7da7cf	0.24771045
77	0x3e38c86f	0.1804521
78	0xbed2a978	-0.4114492
79	0x3f2d3a63	0.67667216
80	0x3e77857a	0.24172011
81	0x3ecc2231	0.39869836
82	0x3ef4194d	0.47675553
83	0x3f06c2f8	0.5264125
84	0x3e41b01a	0.18914834
85	0xbe7ec35a	-0.24879208
86	0x3e9946f8	0.29936957
87	0x3e98f987	0.29877874
88	0xbe2d7d68	-0.1694237
89	0x3d2cc727	0.042182114
90	0x3edcedc8	0.43150163
91	0xbdbb496e	-0.09144865
92	0x3d5a12bb	0.05324052
93	0x3f0d78ff	0.5526275
94	0x3eb1623d	0.34645262
95	0x3fb19cd1	1.3875982
96	0xbdd5d6d9	-0.104413696
97	0xbe9b76aa	-0.3036397
98	0x3ea37676	0.31926316
99	0x3e8f7da3	0.2802554
100	0x3e59e2d6	0.21277937
101	0x3f097c95	0.5370572
102	0x3dd1f80b	0.102523886
103	0xbf0a0dec	-0.53927493
104	0x3e748cd7	0.23881851
105	0x3dfa80b6	0.12231581
106	0xbf73a089	-0.9516683
107	0x3d92a601	0.07160569
108	0x3f140973	0.5782692
109	0x3d9a518f	0.07535087
110	0xbf7bfc62	-0.9843198
111	0xbec36ddb	-0.3816975
112	0x3ea2487d	0.3169593
113	0x3ed41535	0.4142243
114	0xbfa3cc71	-1.2796766
115	0x3e165500	0.14680862
116	0xbe38c27f	-0.18042944
117	0xbef31196	-0.47474355
118	0x3e8b0a19	0.2715614
119	0x3eb80412	0.35940605
120	0xbec85558	-0.39127612
121	0x3da02a64	0.07820585
122	0x3f00c704	0.50303674
123	0x3d74491d	0.05964004
124	0x3e2cf42a	0.16890016
125	0xbf05f3c2	-0.5232507
126	0x3ced2bf1	0.028951617
127	0x3f89a9ca	1.075494
128	0xbea517e8	-0.32244802
129	0x3f35dc34	0.7103913
130	0x3f445fb6	0.76708543
131	0xbea02ae2	-0.31282717
132	0xbd213bdf	-0.03936374
133	0x3e909e4d	0.28245774
134	0x3e2e7532	0.17036894
135	0xbefbd7f8	-0.4918821
136	0x3f0d6aeb	0.5524127
137	0xbbcc5818	-0.0062360875
138	0xbec2c84b	-0.38043436
139	0x3d9b79a5	0.07591561
140	0x3f2fd8c7	0.6869015
141	0x3af07c64	0.0018347618
142	0xbecbd11e	-0.3980798
143	0x3f6099b3	0.87734526
144	0x3ec2d80d	0.3805546
145	0x3f14ab06	0.5807346
146	0x3b33d4a1	0.002743997
147	0x3e9c1dfd	0.3049163
148	0x3e204028	0.15649474
149	0xbf01de8c	-0.50730205
150	0x3ea23165	0.3167831
151	0x3e4fa2db	0.20276968
152	0x3e18ad1d	0.14909787
153	0x3e807de0	0.25096035
154	0x3d23a5e5	0.03995313
155	0xbe69ec80	-0.22844124
156	0x3e7a8d98	0.24468076
157	0x3eafddf0	0.34349012
158	0x3e887292	0.2664991
159	0x3fc50451	1.5391942
160	0xbebf928d	-0.37416497
161	0x3e5065b3	0.20351295
162	0x3ed0189e	0.4064378
163	0xbed0e4d7	-0.4079959
164	0xbb71215f	-0.0036793572
165	0xbea5f9db	-0.32417187
166	0x3edc0c4c	0.42978132
167	0x3de4bf76	0.11169331
168	0x3f1e2597	0.6177611
169	0x3e104945	0.1409045
170	0x3e6aa2b7	0.22913633
171	0xbf09a6f8	-0.537704
172	0xba23082e	-0.00062191754
173	0x3e926c7e	0.28598398
174	0x3edc878c	0.43072164
175	0xbfbe65f0	-1.4874859
176	0xbe9151bb	-0.28382668
177	0x3db63bdf	0.08898138
178	0x3f5f4bcf	0.8722505
179	0x3d9bc1aa	0.07605298
180	0x3dd4839d	0.10376666
181	0xbeb6b841	-0.3568745
182	0x3d2696b6	0.040671073
183	0x3d59da8d	0.053186942
184	0xbe60fa31	-0.2197044
185	0xbf273aea	-0.6532427
186	0x3de8cc39	0.113670774
187	0x3ea6bc98	0.3256576
188	0xbe088851	-0.1333325
189	0x3e8b587c	0.27215946
190	0xbf6743f3	-0.9033806
191	0x3f176882	0.5914384
192	0xbf2be184	-0.67140985
193	0x3f1eb904	0.6200106
194	0x3f072d2b	0.52803296
195	0x3e487b2c	0.19578236
196	0x3eb93d25	0.36179462
197	0x3eb8758f	0.3602719
198	0x3d43598c	0.04769282
199	0xbed189cb	-0.4092544
200	0x3ed41bb3	0.41427383
201	0x3eb63f3f	0.35595128
202	0xbe58cb15	-0.2117122
203	0x3dddbbe8	0.10826856
204	0xbd511cbe	-0.0510528
205	0xbdb318d5	-0.08744971
206	0xbebc52a5	-0.36781803
207	0x3ec25d2e	0.37961715
208	0x3e86824e	0.2627129
209	0x3ee05ad9	0.4381931
210	0x3eaecce7	0.34140703
211	0xbe39da98	-0.18149793
212	0xbd3a8bbc	-0.045543417
213	0xbed8699a	-0.42268068
214	0x3ea1f096	0.31628865
215	0x3f01dd8c	0.5072868
216	0xbe54a2f9	-0.20765294
217	0xbd8782c6	-0.0661674
218	0x3f08dbac	0.5346019
219	0xbeb356db	-0.35027203
220	0x3d388394	0.045047358
221	0x3f23fa84	0.6405413
222	0x3eddd0a8	0.43323255
223	0x3f9e18ff	1.2351378
224	0x401da862	2.4634023
225	0xbdf8de2b	-0.1215175
226	0xbfeb3aa1	-1.8377267
227	0x3f7faca0	0.9987278
228	0xbfa3300d	-1.2749039
229	0x3d32a5c7	0.04361513
230	0xbfb50866	-1.4143188
231	0xbfbabe78	-1.4589376
232	0xbf78b372	-0.9714881
233	0xbd68a00f	-0.05679327
234	0x3f150d31	0.58223253
235	0xbf3d3524	-0.7390921
236	0x3ff70fab	1.9301656
237	0xbf90da08	-1.1316538
238	0x3fcef3f2	1.6168196
239	0xbe5fea93	-0.21866827
240	0xbecc7293	-0.39931163
241	0xbff7ccbd	-1.9359356
242	0x3e6f5f57	0.23376213
243	0x3ebf1c16	0.37326115
244	0xbfd56243	-1.6670612
245	0xbf3d00b3	-0.7382919
246	0x3aae9418	0.0013319282
247	0xbf1d7a6f	-0.61514944
248	0x3f77139e	0.9651431
249	0x3f2493f1	0.6428824
250	0x3d32d473	0.04365964
251	0xbfdec7ab	-1.7404684
252	0xbf97926c	-1.184156
253	0x3e2a73f2	0.16645792
254	0x3cb7f4f3	0.022455668
255	0xbf1e8f42	-0.61937344

fc3.weight f4 [4, 32]
0	0xbee5b32b	-0.44863257
1	0xbece4072	-0.40283543
2	0xbea7c953	-0.32770786
3	0xbe23acad	-0.1598384
4	0xbeb6746f	-0.35635707
5	0xbe473758	-0.19454706
6	0xbe9b0c11	-0.30282643
7	0x400e4e2c	2.2235212
8	0x402764d7	2.6155298
9	0x4044d0ea	3.075251
10	0xbdb0779e	-0.08616565
11	0xbe682553	-0.22670488
12	0xbebbec84	-0.36703885
13	0x3fde7009	1.737794
14	0xbeecba82	-0.46236044
15	0xbf110899	-0.56653744
16	0x406b278a	3.6742883
17	0xbf1a959e	-0.6038455
18	0xbf573fc1	-0.84081656
19	0xbef156ac	-0.47136438
20	0xbf2acc61	-0.6671811
21	0x3fe50c09	1.7894298
22	0xbea12a6d	-0.3147768
23	0xbda9b128	-0.08285743
24	0xbe1644ea	-0.14674726
25	0xbe81405e	-0.2524442
26	0x3de103c0	0.109870434
27	0xbde20564	-0.110361844
28	0xbf12850f	-0.5723428
29	0xbe390652	-0.18068817
30	0x40324a0c	2.7857695
31	0xbec30bd6	-0.38094968
32	0xbeb70433	-0.3574539
33	0xbf00f997	-0.50380844
34	0xbea402d6	-0.32033414
35	0xbdd871b3	-0.105685614
36	0xbf17c576	-0.59285676
37	0xbf863933	-1.0486206
38	0xbdf37019	-0.11886615
39	0x402b83dc	2.679923
40	0x400f8833	2.242688
41	0x4030786b	2.7573497
42	0xbec45dce	-0.38352817
43	0xbf1bcc19	-0.60858303
44	0xbf0a13f7	-0.53936714
45	0x3ff2a552	1.8956702
46	0xbea33c79	-0.31882074
47	0xbeb68b3c	-0.35653102
48	0x406b2a00	3.6744385
49	0xbf0c9777	-0.54918617
50	0xbf0fee4c	-0.5622299
51	0xbf103b96	-0.5634092
52	0xbd9524d9	-0.07282419
53	0x3fd8163a	1.6881783
54	0xbf0bc9e8	-0.5460496
55	0xbee7d632	-0.45280606
56	0xbd866074	-0.06561366
57	0xbf079bed	-0.529723
58	0x3e58386c	0.21115273
59	0x3d06593d	0.032799948
60	0xbf0a2144	-0.5395701
61	0xbdd1585c	-0.10221931
62	0x403d5ad6	2.9586692
63	0xbbb32aa3	-0.005467729
64	0xbf1012ee	-0.56278884
65	0xbef3f272	-0.4764591
66	0xbe913fe9	-0.28369072
67	0xbf98868b	-1.1916059
68	0xbefb2ac8	-0.49056077
69	0x3dfa437f	0.12219905
70	0xbf311a42	-0.6918069
71	0x401a5fb1	2.4120905
72	0x403bb643	2.9329994
73	0x40273eb0	2.6132011
74	0xbef8e0bb	-0.48608956
75	0xbe8d6b64	-0.27620995
76	0xbf0b7f41	-0.5449105
77	0x3e5836e9	0.21114697
78	0xbe811226	-0.2520916
79	0xbebb7a8f	-0.36616942
80	0x3fead7c1	1.8347093
81	0xbe7f65e8	-0.24941218
82	0xbf934842	-1.1506426
83	0xbe5dc7df	-0.21658276
84	0x3cd0eac9	0.02550258
85	0x4010293c	2.2525167
86	0xbedbe0e4	-0.42945015
87	0xbf2198ef	-0.63123983
88	0xbf41d7ce	-0.75719917
89	0xbe819046	-0.25305384
90	0x403f372f	2.9877431
91	0x3dc6f10d	0.097139455
92	0xbf233fc9	-0.63769203
93	0xbf2d5cf3	-0.67719954
94	0x3f9c2e81	1.2201692
95	0xbe25537f	-0.16145132
96	0xbeb6f5b9	-0.35734347
97	0xbee30a0c	-0.44343603
98	0xbeff67d9	-0.49883917
99	0xbe8ac566	-0.27103728
100	0xbde39f1a	-0.111143306
101	0xbf6246c4	-0.8838923
102	0xbef1c914	-0.47223723
103	0x3f884c70	1.0648327
104	0x4021b28e	2.526523
105	0x40753e38	3.8319225
106	0xbecbc0c0	-0.39795494
107	0xbf013209	-0.5046697
108	0xbefe3b1e	-0.49654478
109	0x40029f6a	2.0409799
110	0xbedeb874	-0.43500102
111	0xbd9ea2fb	-0.0774593
112	0x405deb55	3.4674885
113	0xbe058454	-0.1303876
114	0xbf6c4cf4	-0.9230492
115	0xbee822ea	-0.45339137
116	0xbed68349	-0.41897038
117	0x3fe85cb8	1.8153296
118	0xbea2616e	-0.31714958
119	0xbeaeeff2	-0.3416744
120	0xbeeaeac6	-0.45882243
121	0xbf09b4f5	-0.53791744
122	0x3e5cfe84	0.21581465
123	0x3d885580	0.06656933
124	0xbeb02d7b	-0.344097
125	0xbe46a210	-0.1939776
126	0x40529bc5	3.2907574
127	0xbf1a07ab	-0.6016795
