dqn/exercise/models/checkpoint432_-14.998674252407438.pth (torch, 7111 bytes, 3 tensors)

fc1.weight f4 [32, 8]
0	0x3e761f15	0.24035294
1	0x3aa0bd3f	0.0012263431
2	0xbf047c31	-0.51752
3	0x3d7a0de6	0.06104841
4	0x40241571	2.5638087
5	0xbefa40f3	-0.48877677
6	0x3ec4e4e4	0.3845588
7	0x3eeed03e	0.4664325
8	0xbd42eea3	-0.047590863
9	0x3e9f517f	0.31116864
10	0xbd8e1f5c	-0.06939575
11	0xbe9b6007	-0.303467
12	0xbf482ff8	-0.78198195
13	0xbfa486a9	-1.2853595
14	0xbe8b0e1c	-0.27159202
15	0xbec104fc	-0.37699115
16	0x3e9a7c51	0.3017297
17	0x3eb144c7	0.34622785
18	0xbe28c19b	-0.16480105
19	0xbf028a0a	-0.5099188
20	0x3f524d8c	0.8214958
21	0x3f76e082	0.9643632
22	0xbd10f079	-0.035385583
23	0x3e8f9edc	0.28050888
24	0x3ef891c0	0.48548698
25	0xbc4634f6	-0.012097588
26	0x3fb1f670	1.3903332
27	0x3eb60075	0.35547224
28	0xbf8dc310	-1.1075153
29	0xbf0e70ca	-0.5564085
30	0xbe285507	-0.16438685
31	0x3de87bd4	0.11351743
32	0xbeeb8488	-0.4599955
33	0xbfaef9a1	-1.3669931
34	0xbe68849c	-0.22706836
35	0xbf85fe98	-1.0468321
36	0xbe06bf08	-0.1315881
37	0x3e73c5be	0.23805901
38	0x3e9f8045	0.3115255
39	0x3e9438f0	0.2894969
40	0x3f1f8881	0.62317663
41	0xbf8a5aa2	-1.0808909
42	0x3ee3f838	0.44525313
43	0xbed053a1	-0.40688804
44	0xbf503294	-0.81327176
45	0xbf1ee870	-0.6207342
46	0x3e872b9a	0.26400453
47	0x3e96a868	0.2942536
48	0xbd32cc02	-0.04365159
49	0xbf82b67c	-1.021194
50	0xbd29446d	-0.04132502
51	0xbf3810b9	-0.71900517
52	0x3f058c20	0.5216694
53	0x3ea792ef	0.3272929
54	0x3ef5033d	0.47854033
55	0xbe941992	-0.2892576
56	0x3ef4fb08	0.47847772
57	0xbfd52a09	-1.6653453
58	0xbc16d0d3	-0.009205061
59	0xbf8a751c	-1.0816989
60	0x3e427235	0.18988879
61	0x3e759e5b	0.23986189
62	0x3da4cfe9	0.08047468
63	0x3d967c6f	0.073479526
64	0x3f2f27ce	0.6842011
65	0x3dbc2607	0.09186941
66	0x3e39cdc5	0.18144901
67	0xbe2f99dc	-0.17148536
68	0x3f33ab0a	0.7018286
69	0x3f955b9f	1.1668586
70	0x3d820fa1	0.06350637
71	0x3d2a53a9	0.04158369
72	0x3eb6dbad	0.35714474
73	0x3f5ba51e	0.85798824
74	0x3e717f03	0.23583607
75	0x3fbb17b4	1.4616609
76	0x3d8a2738	0.06745762
77	0xbf148925	-0.58021766
78	0x3debd285	0.11514763
79	0xbf2d1c5d	-0.67621404
80	0xbdb2ae0a	-0.087246016
81	0x3f07799c	0.52919936
82	0x3f2934be	0.66096103
83	0xbffab8eb	-1.9587682
84	0xbf139220	-0.57644844
85	0xbf0c4c6a	-0.548041
86	0x3eca13b9	0.39468172
87	0xbdba4338	-0.09094852
88	0x3f47af05	0.78001434
89	0xbf522055	-0.82080585
90	0x3f7348c7	0.95032924
91	0xbe1a0ae9	-0.15043224
92	0x3efe2ad7	0.4964206
93	0x3ecd789b	0.40131077
94	0xbddd2ecd	-0.10799942
95	0x3dba8509	0.09107406
96	0xbde8051d	-0.113291
97	0xbea6c2e9	-0.3257058
98	0xbea796e3	-0.32732305
99	0xbe078f65	-0.13238294
100	0x3f6ca100	0.92433167
101	0x3f8550c6	1.0415275
102	0xbd7e86de	-0.062140338
103	0xbea05aee	-0.31319374
104	0xbf17e83f	-0.59338754
105	0xbf7905c0	-0.972744
106	0xbe2f9fea	-0.17150846
107	0xbf85af36	-1.0444095
108	0x3e320174	0.17383367
109	0x3e39cc5e	0.18144366
110	0xbb1ff341	-0.0024406465
111	0x3e8aa212	0.27076775
112	0xbd9997ba	-0.07499643
113	0x3f6a47e7	0.91515964
114	0x3f31f712	0.69517624
115	0xbf938334	-1.1524415
116	0xbebdd23a	-0.37074453
117	0x3f0ccb87	0.5499806
118	0xbf2320ee	-0.6372212
119	0x3e6f4c07	0.23368846
120	0xbe7be274	-0.24598104
121	0xbedba604	-0.42900097
122	0xbe73dda1	-0.23815013
123	0x3e1ce247	0.15320693
124	0xbf2f4990	-0.6847162
125	0xbf94d40c	-1.1627212
126	0xbe270458	-0.16310251
127	0xbe89c3a4	-0.26907074
128	0x3f089037	0.53345054
129	0xbf46b634	-0.7762177
130	0x3e6ee4b8	0.23329437
131	0xbe8a9743	-0.2706853
132	0xbf226983	-0.6344225
133	0xbf14c424	-0.58111787
134	0x3eb601f0	0.35548353
135	0x3e5ed911	0.21762492
136	0xbf01702c	-0.50561786
137	0x3e03088e	0.12796232
138	0x3ea58eb6	0.32335442
139	0x3c0e4a7c	0.008684751
140	0x3f1ebed4	0.6200993
141	0x3fa976c0	1.3239365
142	0x3e9910be	0.29895586
143	0xbf0cc2af	-0.54984564
144	0xbeea7348	-0.45791078
145	0x3da99f8c	0.08282384
146	0x3d3b414a	0.04571656
147	0xbd8399f6	-0.0642585
148	0xbed1274d	-0.40850297
149	0xbf933e80	-1.1503448
150	0xbecf067f	-0.40434644
151	0x3e38eb00	0.18058395
152	0xbe5d864c	-0.21633261
153	0xbf665aeb	-0.8998248
154	0x3d83bf3d	0.0643296
155	0xbf73ddd0	-0.95260334
156	0xbe8c759c	-0.2743348
157	0xbf1fe278	-0.6245494
158	0x3d229cf0	0.03970045
159	0xbe2bc1b7	-0.16773115
160	0xbc00c013	-0.007858294
161	0xbf81e378	-1.0147543
162	0xbe9e13dd	-0.3087453
163	0xbf846a67	-1.0344971
164	0x3ea7b7bc	0.32757366
165	0x3ec6a68c	0.3879894
166	0xbc800afd	-0.01563024
167	0x3e3636ba	0.17794314
168	0x3e8a1b3e	0.2697391
169	0xbf8a970e	-1.0827348
170	0x3edd57a0	0.43230915
171	0xbf556c9d	-0.83368856
172	0x3f36f04b	0.7146041
173	0x3e55f721	0.20895053
174	0xbe381ee0	-0.17980528
175	0x3db0d3e8	0.08634168
176	0x3e85e855	0.26153818
177	0xbf824393	-1.0176872
178	0x3f0d519a	0.5520264
179	0xbeabb4ba	-0.3353632
180	0xbf0e56b4	-0.5560105
181	0xbf09d10f	-0.53834623
182	0x3e798638	0.24367607
183	0x3ec9f7a4	0.39446747
184	0x3f59fa95	0.8514798
185	0xbf31ab12	-0.6940166
186	0x3e4a199e	0.19736335
187	0xbe7a58ac	-0.24447888
188	0xbf140734	-0.5782349
189	0xbdf7f3a0	-0.12107015
190	0x3edc7c5e	0.43063635
191	0x3e2af672	0.16695574
192	0x3ea7833c	0.3271731
193	0xbdc5ee34	-0.09664574
194	0xbf4009ab	-0.7501475
195	0xbfc8bc1a	-1.5682404
196	0x3fad0f36	1.3520267
197	0xbd248117	-0.040162172
198	0x3d96914e	0.073519334
199	0x3d930699	0.07178993
200	0x3d9aafb1	0.07553042
201	0x3ea6f02c	0.32605112
202	0xc00870b6	-2.1318793
203	0xbe4e5e46	-0.2015315
204	0x3eb76bd7	0.35824463
205	0x3f06e459	0.5269218
206	0xbd715808	-0.058921844
207	0x3e41918f	0.18903182
208	0x3f12add7	0.5729651
209	0xbeb926f4	-0.3616253
210	0x3eedd17e	0.46448892
211	0x3d109dc5	0.03530671
212	0xbf13c14d	-0.5771683
213	0xbf0c0d98	-0.5470824
214	0x3d152aa0	0.036417603
215	0x3e64fe2e	0.22362587
216	0xbcfab29a	-0.030602742
217	0xbf9b1386	-1.2115333
218	0x3e5c311f	0.21503113
219	0xbf9897f6	-1.1921375
220	0x3e777856	0.24166998
221	0x3e9285dc	0.28617752
222	0x3ea98c43	0.33114824
223	0xbcde68c4	-0.027149566
224	0xbf693937	-0.9110293
225	0xbf404989	-0.75112206
226	0xbed39f26	-0.41332358
227	0xbf3d193f	-0.7386665
228	0x3d5dddcd	0.054166604
229	0x3d32599a	0.043542482
230	0x3db9b091	0.090668805
231	0x3ec8b86d	0.39203206
232	0x3f4a7891	0.7909022
233	0x3e223bc5	0.15843113
234	0x3d982414	0.07428756
235	0xbe836cfc	-0.25669086
236	0xbedf24be	-0.4358272
237	0xbf8af1e8	-1.0855074
238	0xbe8b23e5	-0.27175823
239	0xbcef1c69	-0.029188352
240	0x3f5420f6	0.82862794
241	0x3d24ae65	0.040205378
242	0xbe1b2bfe	-0.151535
243	0xbe953dc7	-0.29148695
244	0xbf0815f8	-0.5315852
245	0xbf8c34c6	-1.0953605
246	0x3d86d1ad	0.06582961
247	0xbe8c31f3	-0.27381858
248	0xbf9f652d	-1.2452751
249	0xbf51d0a6	-0.81959
250	0xbf3f135f	-0.7463893
251	0x3dbf71f4	0.09347907
252	0x3f8d34e6	1.1031768
253	0x3e7a455e	0.24440524
254	0xbe6ff72c	-0.23434132
255	0xbe226c8b	-0.15861718

fc2.weight f4 [32, 32]
0	0xbee1062f	-0.4395003
1	0x3f5ab754	0.85435987
2	0x3f038aae	0.51383483
3	0x3e7a82e1	0.24463989
4	0x3ee91130	0.45520926
5	0x3f21332c	0.6296871
6	0x3f19787f	0.5994949
7	0x3f2f63e3	0.6851179
8	0x3f7779ed	0.9667042
9	0x3e70c598	0.23512876
10	0x3c35e790	0.011102572
11	0x3f1268c9	0.5719114
12	0x3f664dea	0.8996264
13	0x3f169f97	0.58837265
14	0xbf08fcc7	-0.5351071
15	0x3f2dd217	0.67898697
16	0x3eb4e49a	0.3533066
17	0x3f5cbdff	0.8622741
18	0x3ef6a49f	0.4817247
19	0x3e9ea112	0.30982262
20	0x3f5a2b69	0.8522249
21	0x3ecae89e	0.39630598
22	0x3edc4cd0	0.43027353
23	0x3f13f8a7	0.5780129
24	0x3e69736c	0.22797936
25	0x3e9c449e	0.305211
26	0x3ecf8156	0.40528363
27	0x3f0681d7	0.5254187
28	0x3f0bcefa	0.54612696
29	0x3f2d5283	0.6770403
30	0x3f1a8457	0.60358185
31	0x3fb6a9f0	1.4270611
32	0xbe48ef86	-0.19622621
33	0x3f4f1736	0.8089479
34	0x3c65fc1d	0.014037159
35	0x3ed1233f	0.40847203
36	0x3e841069	0.2579377
37	0x3ed7218d	0.42017785
38	0x3e84b8d7	0.25922272
39	0x3e948a54	0.29011786
40	0x3ef45196	0.47718495
41	0x3db7eaf0	0.08980358
42	0x3e8425b3	0.25810012
43	0x3e06893f	0.13138293
44	0x3e63b1f3	0.22235851
45	0x3ea0d92d	0.31415692
46	0xbf4c0bf1	-0.7970572
47	0x3f705567	0.93880314
48	0x3eef5ad1	0.46748975
49	0x3e91460c	0.28373754
50	0x3f273a27	0.6532311
51	0x3f06fba0	0.527277
52	0x3f08e615	0.5347608
53	0x3e82b2e6	0.25527114
54	0x3e19c60c	0.15016955
55	0x3e956d84	0.29185116
56	0x3e2a102b	0.1660773
57	0x3d9cc056	0.07653873
58	0x3f101e73	0.5629646
59	0x3e37a985	0.1793576
60	0x3e8ad418	0.2711494
61	0x3eff1cb1	0.49826577
62	0x3f384e55	0.71994525
63	0x3f91b2a1	1.1382638
64	0xbeacc10f	-0.33741042
65	0x3f5a8710	0.8536234
66	0x3dbbd938	0.091722906
67	0x3e9f8e0c	0.3116306
68	0x3ee71192	0.45130593
69	0x3f0a35b8	0.5398822
70	0x3ed9d300	0.42543793
71	0x3ec2c44b	0.38040385
72	0x3f48b9cd	0.7840851
73	0xbe62f166	-0.22162399
74	0x3df978de	0.12181257
75	0x3e8983be	0.26858324
76	0x3f10f33b	0.5662114
77	0x3ef00398	0.46877742
78	0xbf03ac83	-0.51435107
79	0x3f4c83e6	0.7988876
80	0x3ede25d1	0.43388227
81	0x3f0f5915	0.55995303
82	0x3f4a2e4c	0.78976893
83	0x3f2024f3	0.6255638
84	0x3edc5df6	0.43040437
85	0x3ec30e9e	0.3809709
86	0x3f0104e0	0.50398064
87	0x3f017d66	0.5058197
88	0xbcf6a0cc	-0.03010597
89	0x3e19fefa	0.15038672
90	0x3f159199	0.5842529
91	0x3e84431d	0.25832453
92	0x3e6a7565	0.22896345
93	0x3f1b7e8f	0.6073999
94	0x3eef10da	0.46692544
95	0x3fa22c40	1.2669754
96	0xbe5506b5	-0.2080334
97	0x3dcffddf	0.10155844
98	0x3ee2e31c	0.44313896
99	0x3eebb56f	0.4603686
100	0x3e7b9410	0.245682
101	0x3edfa7fc	0.4368285
102	0x3e02059d	0.12697454
103	0x3e24c50f	0.16090797
104	0x3ee00b18	0.43758464
105	0xbf24918e	-0.642846
106	0xbf075d89	-0.528771
107	0x3ea6f27c	0.32606876
108	0x3f3ef1b8	0.74587584
109	0x3ec4edb4	0.38462603
110	0xbe6d119a	-0.23151246
111	0xbe90c1bb	-0.28272805
112	0x3e2fd411	0.1717074
113	0x3f4b00ed	0.7929829
114	0xbf236e1a	-0.63839877
115	0x3e978503	0.29593667
116	0x3e6ba304	0.23011404
117	0x3db4d8d6	0.08830421
118	0x3e3bc2eb	0.18336074
119	0x3e728a04	0.23685461
120	0xbccc902b	-0.024971088
121	0x3e563e35	0.20922168
122	0x3ec92b43	0.3929082
123	0x3eadfdea	0.33982784
124	0x3e9c8092	0.3056684
125	0xbe8853ef	-0.26626536
126	0xbda55cff	-0.08074378
127	0x3f879ae7	1.0594147
128	0xbe90f618	-0.28312755
129	0x3f30a621	0.6900349
130	0x3f3bcdd2	0.7336093
131	0x3e399973	0.18124942
132	0x3ddf4b6f	0.1090306
133	0x3ee0c4da	0.43900186
134	0x3e8dd81b	0.27703938
135	0x3eaec26e	0.34132713
136	0x3f401523	0.7503225
137	0x3e129457	0.143144
138	0xbe18d877	-0.14926325
139	0x3f06457e	0.52449787
140	0x3f6f9ac6	0.9359554
141	0x3e66ae7b	0.22527497
142	0xbea19007	-0.31555197
143	0x3f5df167	0.86696476
144	0x3efe418a	0.49659377
145	0x3f7bead5	0.984052
146	0x3e669621	0.22518207
147	0x3f112294	0.5669339
148	0x3f00c30b	0.5029761
149	0x3e8e57d7	0.2780139
150	0x3ee7723d	0.45204344
151	0x3eb82b3f	0.35970494
152	0x3e8bba34	0.272905
153	0x3f2045ae	0.6260632
154	0x3e5b1e62	0.21398309
155	0x3dc685cb	0.09693488
156	0x3e9751f7	0.29554722
157	0x3eabea97	0.33577415
158	0x3ec323d0	0.3811326
159	0x3f9df7bf	1.2341231
160	0xbe805d1f	-0.25071046
161	0x3e95e308	0.29274774
162	0x3e3894fb	0.18025582
163	0xbe35bcd1	-0.17747809
164	0xbde71729	-0.11283714
165	0xbed2a677	-0.41142628
166	0x3ea4c3c5	0.3218061
167	0x3e8980a5	0.2685596
168	0x3f1bf5d6	0.6092199
169	0xbb875282	-0.0041297087
170	0x3e01e05d	0.12683244
171	0x3e6973fa	0.22798148
172	0x3e5ba7e4	0.21450764
173	0x3d66b96f	0.056329187
174	0x3e9d2e7d	0.3069953
175	0xbf4c3d00	-0.7978058
176	0xbed64a73	-0.41853675
177	0x3e919944	0.28437245
178	0x3f824ed8	1.0180311
179	0xbe886be1	-0.26644805
180	0x3dedb3a6	0.11606531
181	0x3e0cdd78	0.13756359
182	0xbd9c1b0a	-0.07622345
183	0x3d1f50b2	0.038895316
184	0xbda71f3f	-0.081602566
185	0xbeb43c7d	-0.352024
186	0xbe2cf043	-0.16888528
187	0x3e63d446	0.22248945
188	0xbe8db17c	-0.27674472
189	0x3f1c1b1a	0.60978854
190	0xbe70f5d5	-0.23531277
191	0x3f3092e6	0.6897415
192	0xbed9ad77	-0.42515156
193	0x3f1aab26	0.604174
194	0x3ee2d16c	0.443004
195	0x3f2b956e	0.67024887
196	0x3f0e7b27	0.55656666
197	0x3f004801	0.5010987
198	0x3e79dbf5	0.24400313
199	0x3ecede64	0.40404046
200	0x3f0f4b38	0.5597415
201	0x3ee7dffc	0.45288074
202	0xbd189963	-0.037255656
203	0x3e2122df	0.15735959
204	0x3e862c65	0.26205745
205	0x3e6d3640	0.23165226
206	0xbeedb410	-0.4642644
207	0x3ef590eb	0.47962126
208	0x3ec352b8	0.38149047
209	0x3f18707e	0.5954665
210	0x3f2f9504	0.68586755
211	0x3e0c6598	0.1371063
212	0x3e98c79b	0.29839787
213	0x3e183279	0.14863004
214	0x3ed87b48	0.42281556
215	0x3f1c6098	0.6108489
216	0xbd470836	-0.048591815
217	0x3db9039a	0.0903389
218	0x3f1cdf51	0.61278254
219	0xbb2b6f71	-0.0026158954
220	0x3e3babf9	0.18327321
221	0x3f2e3e17	0.6806349
222	0x3ed8859b	0.42289433
223	0x3f90302b	1.12647
224	0x40008528	2.0081272
225	0xbd26a199	-0.040681455
226	0xbfcb1208	-1.5864878
227	0x3ed1f670	0.4100833
228	0xbf9764e1	-1.1827661
229	0x3c873f68	0.016509727
230	0xbf498f47	-0.7873425
231	0xbfb6ca0c	-1.428041
232	0xbf6e9514	-0.93196225
233	0xbea213b6	-0.31655663
234	0x3f5c0745	0.8594859
235	0xbf686fa2	-0.9079534
236	0x3f3cf4db	0.7381112
237	0xbfa6c16c	-1.3027778
238	0x3fcf2e3a	1.6185982
239	0xbe85cdb1	-0.26133493
240	0xbea82eba	-0.3284815
241	0xc00b9c0e	-2.1813998
242	0x3e1ee222	0.1551595
243	0x3e7bc813	0.24588041
244	0xbfd995c3	-1.6998829
245	0xbf96a05c	-1.1767688
246	0x3b99b926	0.004691261
247	0xbe51161b	-0.20418589
248	0x3f9391c6	1.1528862
249	0x3c923b25	0.017850468
250	0xbd0ca1e7	-0.03433409
251	0xbf878aa4	-1.0589185
252	0xbf9489bd	-1.1604534
253	0x3ddb1179	0.10696692
254	0xbe1b6cd9	-0.15178241
255	0xbea087ce	-0.3135361

fc3.weight f4 [4, 32]
0	0xbf127562	-0.5721036
1	0xbef43307	-0.4769518
2	0xbeeed0ea	-0.46643764
3	0xbea542e7	-0.32277605
4	0xbec4f030	-0.384645
5	0x3df7723f	0.120823376
6	0xbee8d7ee	-0.4547724
7	0x3fe63c61	1.7987176
8	0x401f09de	2.4849772
9	0x402ee2dd	2.7325966
10	0xbe880bb5	-0.26571432
11	0xbeb98902	-0.3623734
12	0xbf0123c7	-0.50445217
13	0x3f842113	1.0322593
14	0xbf1941c0	-0.5986595
15	0xbf138a8b	-0.57633275
16	0x404ad11c	3.169013
17	0xbf0cdce9	-0.5502458
18	0xbeca57f0	-0.39520216
19	0xbf1a2c9b	-0.6022431
20	0xbf084c36	-0.5324129
21	0x3fcd540c	1.6041274
22	0xbec4818a	-0.3838008
23	0xbe7fc75d	-0.24978395
24	0xbe9fdac2	-0.31221586
25	0xbed536e4	-0.4164344
26	0xbcb40be1	-0.02197832
27	0xbde20564	-0.110361844
28	0xbf26ee9b	-0.65207833
29	0xbe99ef06	-0.30065173
30	0x400d9fd5	2.2128804
31	0xbef94b13	-0.4869009
32	0xbeed3485	-0.46329132
33	0xbf0e9f3f	-0.5571174
34	0xbeafb357	-0.34316513
35	0xbe2f76d2	-0.1713517
36	0xbf3cd3c8	-0.7376065
37	0xbefb2788	-0.49053597
38	0xbe146613	-0.14492063
39	0x402dbcd1	2.7146494
40	0x400294ea	2.040339
41	0x40072cba	2.112105
42	0xbedd38c1	-0.43207362
43	0xbf1ddb2f	-0.6166257
44	0xbf1ca369	-0.61186844
45	0x3fc7e7f0	1.5617657
46	0xbeb92b62	-0.3616591
47	0xbf0ec942	-0.55775845
48	0x4045fdda	3.0936189
49	0xbf30dab4	-0.69083714
50	0xbed10682	-0.40825278
51	0xbf1677cd	-0.5877655
52	0xbe86be4e	-0.26317066
53	0x3fe27184	1.7690892
54	0xbf206f5b	-0.62669915
55	0xbedb4a6f	-0.42830226
56	0xbe0707a4	-0.13186508
57	0xbf0141f3	-0.50491256
58	0xba3548b8	-0.0006915438
59	0x3d06593d	0.032799948
60	0xbf2beaf8	-0.6715541
61	0xbe9d6346	-0.30739802
62	0x4007761f	2.1165845
63	0xbd92d626	-0.07169752
64	0xbf19a90b	-0.60023564
65	0xbef8cc28	-0.4859326
66	0xbea7267d	-0.32646552
67	0xbf3c4301	-0.7353974
68	0xbf09629e	-0.536661
69	0xbd0cdd9a	-0.034391023
70	0xbf234de3	-0.6379072
71	0x3fe679a3	1.800587
72	0x40280003	2.6250007
73	0x402c3e05	2.6912854
74	0xbf075d6f	-0.52876943
75	0xbea39c02	-0.31954962
76	0xbf1b4503	-0.6065218
77	0xbf6f4d5d	-0.9347742
78	0xbea0ec2e	-0.3143019
79	0xbedfe47e	-0.43729013
80	0x3fe6c110	1.8027668
81	0xbea43192	-0.3206907
82	0xbf51d1df	-0.8196086
83	0xbe9bd6f0	-0.30437422
84	0xbdb5cfbb	-0.08877512
85	0x3ff985e9	1.9493991
86	0xbef0390e	-0.4691853
87	0xbf04e409	-0.51910454
88	0xbf35b637	-0.7098116
89	0xbe983103	-0.29724893
90	0x402bb4a8	2.6829014
91	0x3dc6f10d	0.097139455
92	0xbf2ef1ab	-0.68337506
93	0xbf22738a	-0.6345755
94	0x3f03f823	0.515505
95	0xbe6afb80	-0.22947502
96	0xbee2e61e	-0.4431619
97	0xbf0c7681	-0.5486832
98	0xbf12b44a	-0.5730635
99	0xbe8ea56c	-0.27860582
100	0xbe4d2b40	-0.2003603
101	0xbf58c0e7	-0.84669346
102	0xbf0f04e3	-0.5586683
103	0x3f26d0b3	0.651622
104	0x401a70cd	2.4131348
105	0x404a1669	3.1576178
106	0xbeef3ca1	-0.46725944
107	0xbf156be7	-0.5836777
108	0xbf11eac1	-0.5699883
109	0x3f9e1cef	1.235258
110	0xbefa32cf	-0.4886689
111	0xbe3615b4	-0.17781717
112	0x4048d992	3.1382794
113	0xbe67ac61	-0.22624351
114	0xbf482fe3	-0.7819807
115	0xbf08c709	-0.53428704
116	0xbf00748b	-0.5017783
117	0x3fcfa5fc	1.622253
118	0xbed17881	-0.4091225
119	0xbed331f4	-0.4124905
120	0xbf07e168	-0.5307832
121	0xbf1feaa6	-0.6246742
122	0x3e8775fd	0.26457205
123	0x3d885580	0.06656933
124	0xbed7ff00	-0.42186737
125	0xbe914e64	-0.2838012
126	0x40407ace	3.0074954
127	0xbf260a94	-0.6485989
