dqn/exercise/models/checkpoint678_171.0811920193579.pth (torch, 7111 bytes, 3 tensors)

fc1.weight f4 [32, 8]
000000 ce d3 12 bd 8b ae ee bb 78 d2 a6 3d 9a c0 98 3d
       -0.035846524 -0.0072839907 0.081456125 0.07458611
000010 00 1c 54 40 3b 4e 0a bf 7a a3 9b 3e 06 c1 0c 3f
       3.314209 -0.5402562 0.3039816 0.5498203
000020 ee 7d fd b9 af 60 0f 3f b9 7f 97 3e b5 dc 71 bf
       -0.00048349745 0.560069 0.29589632 -0.944774
000030 f8 83 84 be 12 24 9c bf d9 50 dd be a5 a2 48 be
       -0.25881934 -1.2198508 -0.43225744 -0.19593294
000040 5c 27 15 3d 87 aa 2f 3f 6e 09 85 be 75 0a ec be
       0.03641449 0.6861958 -0.25983757 -0.46101728
000050 72 c0 a1 3f 6d ed 3c 3f 94 81 8c 3d 59 fe 81 3d
       1.2636855 0.73799783 0.068606526 0.06347341
000060 c0 be 82 3d e9 21 8a bc 09 7e 13 40 af 4b 6b 3f
       0.06384039 -0.016861873 2.3045676 0.9191236
000070 34 ac 12 bf 01 a3 03 bf 8e 40 8f bf e7 de 96 3e
       -0.5729401 -0.514206 -1.1191576 0.29466936
000080 49 8f 04 bf 44 80 f9 be 8e fd 60 be ae 9c 86 be
       -0.51781136 -0.4873067 -0.21971723 -0.26291412
000090 dc da a7 3d f7 4a 20 3d 8b 79 b8 3e 22 f8 6e 3e
       0.08196041 0.039133992 0.3603023 0.23336843
0000a0 d1 5c c6 3e 5a e9 77 bf aa 77 9e 3e 24 9b 96 3f
       0.38742688 -0.9684044 0.3095067 1.1766095
0000b0 d1 90 db be a4 9b 0d bf 7e a2 70 3e dd db b4 3e
       -0.42883924 -0.55315614 0.23499486 0.35323992
0000c0 32 f4 3c be be 51 96 be f5 3d 76 bd cc 1b 48 bd
       -0.18452528 -0.2935924 -0.06011768 -0.048854634
0000d0 09 d7 1a 3f 87 fb 27 3e 41 8b f4 3e cc 15 84 be
       0.6048437 0.16404544 0.47762492 -0.2579788
0000e0 e8 e9 37 3f 15 eb b1 bf fc f1 39 3e f4 69 a9 bf
       0.7184129 -1.3899866 0.18158716 -1.3235459
0000f0 be ab cb 3d a7 0b 1a 3f 1e 36 1e 3e fd d0 8a 3c
       0.099448666 0.6017403 0.15450332 0.016945357
000100 80 9b 41 3e 64 9b ae 3e b6 98 0b 3f db 27 13 3d
       0.18906975 0.3410293 0.54529893 0.03592668
000110 02 a2 5b 3f b5 6f 81 3f 96 da a6 bd ab 1a b9 3d
       0.8579408 1.0112215 -0.08147161 0.0903829
000120 c6 03 c0 3e e7 72 60 3f 56 ee bb 3e 7e 5b 0f 40
       0.3750288 0.8767533 0.36705273 2.2399592
000130 75 23 f6 be 26 1d 33 bd 02 2a 46 3e 5d 1c 2d bf
       -0.48073927 -0.04372897 0.19351962 -0.67621404
000140 90 9b 53 3d 85 26 e0 3e 84 7f 24 3f 5e 99 23 c0
       0.051662028 0.43779388 0.64257073 -2.5562358
000150 74 9e 66 bf 82 55 c3 be ec e5 06 3f 4a 75 b5 3d
       -0.9008553 -0.38151175 0.5269458 0.08860262
000160 42 7a b6 3e 57 a1 34 bf 17 85 de 3f 2d f2 e7 3d
       0.3564015 -0.70558685 1.7384366 0.11325488
000170 ad 4f 68 be c3 3d fa 3e 20 7a 5f bd e9 85 78 3d
       -0.22686644 0.48875245 -0.054559827 0.06067458
000180 a0 56 af be e1 47 fa 3d 61 95 c8 be 79 25 51 3f
       -0.34245777 0.12220741 -0.39176467 0.81697804
000190 3a 04 92 3f b4 4d 4c 3f ae af b0 bd d7 d6 1a bf
       1.140754 0.79806066 -0.08627258 -0.6048407
0001a0 5f fa 1a bf 9f 33 c7 be 25 b6 98 be 78 4a b8 be
       -0.60538286 -0.3890657 -0.29826465 -0.35994315
0001b0 f0 5a 93 3e 41 9c e7 bb 16 4e f1 b7 72 db 81 3e
       0.28780317 -0.0070681875 -2.87658e-05 0.25362736
0001c0 1b 9f 3c be 08 3d 45 3f ee bc 98 3e 02 39 88 bf
       -0.18420069 0.7704625 0.29831642 -1.0642397
0001d0 52 17 83 bf b4 f2 60 3f d2 40 4c bf d1 36 b1 3e
       -1.0241492 0.87870336 -0.7978641 0.34612134
0001e0 ae f5 92 3e e9 b9 7c be 54 f9 53 be 97 0e 87 bc
       0.28703064 -0.24680294 -0.2070058 -0.01648645
0001f0 78 36 12 bf ea 9d 9f bf 08 8d a0 be 4b e5 09 bc
       -0.5711436 -1.2470067 -0.31357598 -0.008416484
000200 2b aa 5c 3e 01 da 0e bf 51 1d 8a bd 16 9f 6e 3f
       0.21549289 -0.558014 -0.06743873 0.93211496
000210 29 48 27 bd 34 6d 12 bf cf fb b3 3e 21 36 1d 3e
       -0.0408403 -0.5719788 0.35153052 0.1535268
000220 fb 7c 09 bf d1 1c 5d 3e b1 fe f0 3e 81 fb d3 3c
       -0.5370633 0.21593024 0.47069314 0.025876762
000230 e8 5b c6 3d bb 27 64 3f 79 ff f8 3e 05 27 01 bf
       0.096854985 0.89123124 0.4863241 -0.50450164
000240 62 4d ed be 59 ae 00 3d 46 94 3b 3b 26 97 28 3e
       -0.463481 0.03141627 0.0028622313 0.16463909
000250 ba 31 25 be 0a f5 5f bf 72 61 a4 be 91 54 9a 3e
       -0.1613225 -0.87483275 -0.32105595 0.30142644
000260 12 8e 59 be 10 86 99 be 23 2c ac be 89 a4 9a bf
       -0.21245602 -0.29985094 -0.33627424 -1.2081462
000270 42 cf f3 be 3c 5d 4d bf 74 e6 26 3e 50 ed 3b be
       -0.47619063 -0.8022039 0.16298848 -0.18352246
000280 47 32 75 be 35 22 b6 be 55 80 57 bf c7 02 b9 be
       -0.2394496 -0.35572973 -0.84180194 -0.3613493
000290 dd bb 54 3f af 65 1b 3f 6c ab 8d bd 3e 15 6c 3d
       0.83099157 0.6070203 -0.06917462 0.057637446
0002a0 53 d7 53 be 45 54 b8 bf 2c 36 33 3f 89 46 6b bf
       -0.20687608 -1.4400717 0.70004535 -0.91904503
0002b0 7a d0 0f 3f bf 8f 12 3f 9d 67 10 bf 7b e1 7b be
       0.56177485 0.5725059 -0.564081 -0.24597733
0002c0 33 86 ff 3c f0 14 ba be 6b 7a 27 3e 32 6c 39 3f
       0.03119192 -0.363441 0.16355292 0.7243072
0002d0 a3 2e 84 be 29 aa 00 bf 66 b6 5a 3e af 75 0d 3f
       -0.2581683 -0.50259644 0.21358642 0.55257696
0002e0 b7 0c 88 3f 01 88 8e be cc f2 13 3f 2e a6 4d 3f
       1.062888 -0.27838138 0.57792354 0.80331695
0002f0 9b 41 de be fe d9 9f be dc 88 9f 3e c1 bb b2 bc
       -0.43409428 -0.31221002 0.31159103 -0.021818044
000300 94 dd c3 3e d6 86 50 3d e3 4c cd be 11 8f c8 bf
       0.38254988 0.05090984 -0.40097722 -1.566866
000310 d5 d5 aa 3f 67 08 cc 3d a7 dd 36 3e f1 01 4f 3e
       1.3346506 0.0996254 0.17857991 0.20215584
000320 c5 c1 28 bd 08 3b 04 3e 16 6e 3b c0 8c 81 bc 3e
       -0.041200418 0.12913144 -2.928594 0.36817586
000330 dd cf 08 bf ea 66 67 3e 6f 4d 05 3e 01 cc 96 3e
       -0.53442174 0.22597852 0.1301782 0.29452518
000340 36 09 73 3f 32 54 a2 be 03 72 36 3f 09 cf f1 3e
       0.9493593 -0.3170486 0.7126772 0.47228268
000350 0b ff 0f bf d4 51 b3 be 7a 01 cb bc 7e 61 65 3d
       -0.5624854 -0.35023367 -0.024780978 0.05600118
000360 c5 1f 08 be 27 fd fd be f3 9e 4e 3f 11 ef 8e bf
       -0.13293369 -0.49607202 0.8071129 -1.1166707
000370 6f 63 4f bd 94 1e 04 3f 70 ee 31 3f 3f f7 c2 bb
       -0.050631937 0.5160916 0.6950445 -0.005949884
000380 12 c4 83 bf aa 8b 8b be d9 be 1a bf 54 73 8c be
       -1.0294211 -0.27254993 -0.6044746 -0.27431738
000390 4b 3b d2 3e 85 6a 6b bd 22 76 82 3d 0f 75 b3 3e
       0.41060862 -0.05747463 0.06370188 0.35050246
0003a0 01 53 32 3f 71 72 13 3e 28 83 2a 3e 56 5f 48 bf
       0.69657904 0.14399125 0.16651595 -0.7827047
0003b0 81 f6 e4 bc 17 c5 79 bf 96 ec 86 be 27 03 81 3d
       -0.027949573 -0.9756636 -0.26352376 0.062994294
0003c0 87 f4 64 3f ab ff c9 bc 02 de a3 3b 85 8e e9 be
       0.8943562 -0.024658045 0.0050008306 -0.45616546
0003d0 53 ea 5e be 94 14 82 bf 19 df 59 3e af 45 34 be
       -0.21769075 -1.016253 0.21276511 -0.17604707
0003e0 5d 3d b6 bf e5 61 01 bf d8 99 8d bf f7 be a2 3d
       -1.4237477 -0.5054 -1.1062574 0.0794658
0003f0 6b af be 3f ae 3d f5 3d cb a2 72 bd 9c e8 34 3c
       1.4897283 0.11974655 -0.059237283 0.0110417865

fc2.weight f4 [32, 32]
000000 95 a2 35 bf ce d5 51 3f 49 98 16 3f a7 e7 d4 be
       -0.70951205 0.81966865 0.5882612 -0.41582987
000010 76 c4 0b 3e d1 18 af 3e f3 e6 b1 3e 9e 65 c7 be
       0.13649163 0.3419862 0.34746513 -0.38944715
000020 4b c1 45 3f f2 b3 6f 3d ee b6 a8 be 23 88 7a 3e
       0.77248067 0.05852122 -0.32952064 0.24465995
000030 55 b7 11 3f 42 d9 32 3e 6f 19 13 bf 39 37 fc 3e
       0.5692037 0.1746569 -0.57460684 0.49260882
000040 a9 53 ec 3d 42 b8 1a 3f 52 b0 1e 3b 0c 83 6e bd
       0.115393944 0.60437405 0.0024213982 -0.058230445
000050 55 2f 1b 3f 7b 9f 24 bf 13 8c 21 3e ba 15 a6 3e
       0.606191 -0.6430585 0.1577609 0.3243845
000060 da 94 d7 3c 64 bc 9d 3c 3e f7 af 3e 94 b2 64 3d
       0.026316095 0.01925487 0.34368318 0.055834368
000070 43 bf a4 3e 42 c7 1e 3f e6 5d 17 3f a8 8b d9 3f
       0.3217717 0.62022793 0.5912765 1.6995745
000080 06 01 92 be ae bc 15 3f 8c 5c 30 3e 29 11 5c 3d
       -0.28516406 0.5849103 0.17222804 0.053727303
000090 67 5a 46 3d af 05 4d 3e d5 83 35 3e 29 bf fa be
       0.04842606 0.200217 0.17726071 -0.4897397
0000a0 fc 03 d9 3e 56 4b 74 3e 0f 2b 77 be 07 83 9c bd
       0.42385852 0.23856863 -0.2413752 -0.07642179
0000b0 23 20 65 bd f0 0c 09 bb 6a 12 a1 bf 4e 29 42 3f
       -0.05593885 -0.0020912252 -1.2583745 0.75844276
0000c0 f7 ec a3 3e b7 86 17 bd 35 8b 86 3d ca b4 95 3e
       0.32016727 -0.03699371 0.065695204 0.29239494
0000d0 ad 50 cb 3e f0 44 1d bf c1 d4 3d bd 83 d2 e2 3d
       0.39709988 -0.61433315 -0.046345476 0.11075308
0000e0 77 43 d9 3d 74 84 08 3e c4 74 f5 3e e6 e0 08 be
       0.10608571 0.13331777 0.47940648 -0.13367042
0000f0 16 30 cb 3d eb 54 b7 3e d2 6b 1c 3f 97 dc a8 3f
       0.09921281 0.35806975 0.6110202 1.3192319
000100 e6 8d 14 bf 90 6f 62 3f b8 30 74 3e fd a3 1d be
       -0.5802902 0.8845148 0.2384671 -0.15394588
000110 11 00 26 3e f1 44 90 3e e4 3f 51 3e 2c f4 f4 be
       0.16210963 0.28177598 0.20434529 -0.47842538
000120 04 6e 1d 3f 4f ca 8f be 64 0a 0b be ee 39 36 3d
       0.61495996 -0.28084037 -0.13578182 0.04448884
000130 e7 29 38 3e 1b 58 fb 3d 55 3b db be 47 45 13 3f
       0.17984734 0.12272664 -0.42818704 0.57527584
000140 32 2f 68 3e cb da d9 3e e3 3d 91 3e f9 76 f1 3e
       0.22674254 0.42549738 0.28367528 0.4716108
000150 e8 62 82 3e 05 82 01 bf f5 a9 84 3e e6 39 8a 3e
       0.25466084 -0.5058902 0.25910917 0.26997298
000160 07 cf 40 be fc 47 3b 3d 17 aa 08 3f d0 35 e3 bd
       -0.18828975 0.045722947 0.53384537 -0.11094248
000170 f1 83 a0 3c 47 09 e8 3e 9b ef c6 3e d5 d4 b4 3f
       0.019594165 0.45319578 0.3885468 1.4127451
000180 dd 7e e8 bd f6 25 27 bf cb 99 b0 3e 1f 31 35 3e
       -0.11352322 -0.652923 0.34492335 0.1769452
000190 d6 d5 84 3e b3 37 10 3f 4f 6c 4f 3e a1 bb 32 bf
       0.25944394 0.5633499 0.2025616 -0.6981755
0001a0 c4 a4 50 3e 6b 10 b1 3e d3 76 79 bf 45 a8 28 3e
       0.20375353 0.34582838 -0.97446936 0.1647044
0001b0 89 16 15 3f 14 6e 8e 3d d1 17 8d bf 49 b7 40 bf
       0.5823751 0.069545895 -1.1022893 -0.7527967
0001c0 de 2d c9 3e fb 91 f7 3e 61 69 cb bf 24 51 1b 3e
       0.39292806 0.48353562 -1.5891534 0.15167671
0001d0 21 60 0b be b1 89 2a bf a9 6d 8b 3e b4 70 c9 3e
       -0.13610889 -0.6661635 0.27232102 0.39343798
0001e0 ef e5 c1 be 06 73 12 3e 3e 86 38 3f 9b cf dc 3d
       -0.37870738 0.1430169 0.7207984 0.10781785
0001f0 3d 45 3c 3e bf dc 2f bf b8 a6 2e 3e 0f 9c 8c 3f
       0.18385787 -0.68696207 0.17055786 1.0985125
000200 69 66 b6 be 3f 70 2b 3f ce f2 4d 3f f0 5f ae be
       -0.35625008 0.6696815 0.80448616 -0.3405757
000210 85 43 cc bd 99 93 5e 3e 26 68 3d 3e 27 8f 33 bf
       -0.09973816 0.21735992 0.1849676 -0.7014031
000220 1d 0f 1a 3f cd 35 3e bd 78 32 f4 be 9d 5e 53 bd
       0.6017931 -0.046438027 -0.47694755 -0.051603902
000230 e1 21 2a 3f 9e f8 97 bd 7f 21 e5 be d4 5c 44 3f
       0.66457945 -0.07420467 -0.44752118 0.76704144
000240 8d 2c b2 3e f8 e7 22 3f 9c e8 02 be 6e 34 52 3e
       0.34799615 0.63635206 -0.12784046 0.20527813
000250 c2 94 81 3e a9 23 49 bf 1e ec 83 3e 0c 69 0e 3e
       0.25308806 -0.7857004 0.2576608 0.1390726
000260 d4 1f 08 3e ac 8d 7c 3e 11 6c b7 3c 6b 9c 97 be
       0.13293391 0.24663419 0.022390397 -0.29611525
000270 83 6d 47 3e 5c 4a 96 3e 34 c6 8b 3e b6 53 c8 3f
       0.19475369 0.29353607 0.27299654 1.5650547
000280 42 a1 b3 be 7c 5b b4 3e e5 be e4 3e 2a bf 2d be
       -0.35083967 0.35226047 0.4467689 -0.16967455
000290 d6 bc a3 3c e5 94 b1 be 7d ba d2 3e 8a cc 81 3c
       0.019987505 -0.3468391 0.41157904 0.015844602
0002a0 0a 56 14 3f 8b 05 07 3e 4f 94 a3 3e 37 82 3a bf
       0.57943785 0.13185708 0.31949088 -0.7285494
0002b0 47 bf 03 be 4b 02 a2 3e 86 38 e1 3e e7 2e ad bf
       -0.12865935 0.31642374 0.43988436 -1.3529938
0002c0 ba 81 78 be db 56 79 3d f2 7c 6f 3f 26 9b 0c 3e
       -0.24268237 0.060873847 0.93550026 0.1373106
0002d0 0a f5 8c 3d 1e a1 16 bf e2 fe e3 3d 73 f1 18 3e
       0.06882675 -0.58839595 0.111325994 0.14935856
0002e0 a8 b5 5a be 98 c0 24 bf 0c 21 b1 3d ed e7 ac 3e
       -0.21358359 -0.64356375 0.08648881 0.33770695
0002f0 f0 df 7f bd 0a d6 6d 3e f7 13 30 bf 17 61 13 3f
       -0.062469423 0.2322618 -0.68780464 0.5757002
000300 e2 a3 2a bf 9e ff 09 3f 0e 46 14 3f 03 d9 68 bc
       -0.66656315 0.53905666 0.57919395 -0.014211896
000310 3c b7 bf 3e 23 d2 b0 3e 1e 6d c7 3d 70 6e 09 bf
       0.37444484 0.34535322 0.09737609 -0.5368414
000320 5a ac d8 3e 35 6a bb 3e c1 44 5e be 5b c7 61 3e
       0.42318994 0.36604467 -0.21705915 0.22048704
000330 d6 f9 a7 bd 45 99 d6 bd 85 45 bd be 0b cd 68 3e
       -0.08201949 -0.104784526 -0.36967102 0.22734468
000340 7f 31 90 3e 44 d8 fb 3e 8f 71 e6 3d 7a f5 86 be
       0.28162763 0.49188435 0.11252128 -0.2635916
000350 aa 75 28 3d 0f 73 24 bf e5 01 9b 3e 67 1e 05 3f
       0.04112784 -0.64238065 0.30274883 0.51999515
000360 d1 3c 19 be e8 90 ea bc 74 29 2c 3f 89 28 a1 be
       -0.14964606 -0.02863355 0.6725075 -0.31476238
000370 ac 7d 36 3d 1d 4d 18 3f ca 0d ec 3e 10 f7 a2 3f
       0.044553444 0.59492666 0.4610427 1.2731647
000380 4e c1 23 40 89 f6 08 be bc b1 e7 bf 7e 89 7e 3f
       2.5586734 -0.13375296 -1.8101115 0.99428546
000390 1e 62 a4 bf 52 6a a9 3d 9a c8 af bf e4 71 ca bf
       -1.2842443 0.08272232 -1.3733094 -1.5816007
0003a0 48 96 85 bf ae b3 b2 3d 4d 1a f3 3e c7 0f 48 bf
       -1.0436487 0.087256774 0.47481003 -0.78149074
0003b0 cb d7 14 40 92 4c 8c bf b3 04 d0 3f 91 97 aa bd
       2.325671 -1.0960867 1.6251434 -0.0832969
0003c0 6a ce c8 be db 80 f6 bf ec dd 91 3e d1 24 cf 3e
       -0.3921998 -1.9258074 0.28489625 0.40457776
0003d0 26 f0 da bf 42 f1 13 bf 6e 4d 82 3b bb 0b 53 bf
       -1.7104537 -0.57790005 0.0039765155 -0.82439774
0003e0 9f 40 83 3f d5 38 50 3f 15 04 dc 3d 87 2f 04 c0
       1.0254096 0.8133672 0.10742966 -2.0654008
0003f0 75 56 98 bf 95 26 7e 3e 5c 84 28 3c b8 3a 21 bf
       -1.1901385 0.24819405 0.010285463 -0.6298022

fc3.weight f4 [4, 32]
000000 4a 32 ec be b9 6c f4 be cd 57 bc be b5 1d 35 be
       -0.46132118 -0.477392 -0.36785737 -0.17687114
000010 fa 80 d7 be 86 1c 68 bd 75 35 c8 be 05 22 1a 40
       -0.4209059 -0.056667827 -0.39103284 2.4083264
000020 c5 49 27 40 e2 f9 3b 40 e4 e7 3b bd 2f da 5e be
       2.6138775 2.9371266 -0.045875445 -0.21762918
000030 22 cd b6 be 6b 9a f2 3f d9 97 e8 be c3 97 1e bf
       -0.3570338 1.8953375 -0.4542835 -0.6195032
000040 24 c7 73 40 d8 ad 2c bf 96 f4 87 bf 5a d3 e5 be
       3.8090296 -0.67452765 -1.0621517 -0.4488781
000050 5a 40 32 bf e0 36 fd 3f a1 94 b5 be 79 fe 0e bd
       -0.6962944 1.9782372 -0.35464957 -0.034910653
000060 5d 74 36 be ef 87 5f be 63 f6 81 3e 64 05 e2 bd
       -0.17817827 -0.21829198 0.2538329 -0.110361844
000070 bf 70 20 bf aa 4c 6b be 11 6e 41 40 db 07 d5 be
       -0.62672037 -0.22978464 3.022343 -0.41607556
000080 51 24 af be 93 b8 ef be 5e c7 ce be 14 73 5a 3c
       -0.34207395 -0.46820506 -0.4038648 0.013333101
000090 58 61 1e bf 81 25 8d bf d6 1e 4c be f6 ce 33 40
       -0.61867285 -1.102707 -0.19933638 2.809507
0000a0 4e 0c 12 40 17 bc 39 40 0d 7f c3 be 3e 60 32 bf
       2.282001 2.902105 -0.3818287 -0.69678104
0000b0 df 5e 0e bf b5 00 08 40 ce 8e b6 be 82 ad a2 be
       -0.5561351 2.1250432 -0.35655826 -0.31773
0000c0 a2 0d 69 40 51 a6 14 bf e2 f4 31 bf f6 b4 18 bf
       3.641457 -0.5806628 -0.69514287 -0.59651124
0000d0 1a f7 f4 bd db 85 de 3f 9e ec 0d bf b0 e2 ee be
       -0.119611934 1.73846 -0.55439174 -0.46657324
0000e0 30 f4 e2 bd fa 5e 17 bf 05 38 f5 3e 3d 59 06 3d
       -0.11081731 -0.591293 0.47894302 0.032799948
0000f0 84 73 08 bf 86 8b a4 bc ad e3 44 40 4f 38 38 bd
       -0.5330126 -0.020086061 3.0763962 -0.044975575
000100 db ac 13 bf 66 22 f6 be 43 83 84 be ab 86 af bf
       -0.5768563 -0.4807312 -0.25881395 -1.3712972
000110 d8 bc fc be ba a6 2b 3d 1f 90 2d bf bf ff 24 40
       -0.49362826 0.04190705 -0.67798036 2.5781095
000120 78 4a 3f 40 55 45 24 40 00 c7 f5 be 7f 84 84 be
       2.9889202 2.5667317 -0.48003387 -0.25882336
000130 0d 87 0a bf bf a8 e1 3e 66 c3 75 be 77 85 bf be
       -0.5411232 0.44074056 -0.2400032 -0.37406513
000140 d5 91 ec 3f 88 f6 7e be ad 9e 8e bf f9 c4 4e be
       1.8482004 -0.24898732 -1.1142174 -0.20192327
000150 92 3f 58 3d 52 09 0d 40 25 2b de be 69 0e 3b bf
       0.052795 2.2036939 -0.43392292 -0.73068863
000160 54 dc 43 bf ac 81 74 be 0c 76 43 40 0d f1 c6 3d
       -0.7650807 -0.23877591 3.05408 0.097139455
000170 88 6f 21 bf 64 fa 36 bf 84 99 bb 3f 2a 21 06 be
       -0.6306081 -0.71475816 1.4656224 -0.13098589
000180 7d 9d ba be 81 96 ee be 18 35 fc be 0d a0 a2 be
       -0.3644828 -0.465992 -0.49259257 -0.31762734
000190 31 97 01 be 26 25 64 bf e7 9e f8 be cf dc 91 3f
       -0.12655331 -0.89119184 -0.48558733 1.139551
0001a0 2e 17 21 40 03 cd 7a 40 16 50 cf be 84 bb 03 bf
       2.5170398 3.918763 -0.40490788 -0.51458
0001b0 0c ef fe be c0 d4 09 40 c0 c3 e3 be a3 1e c4 bd
       -0.49791753 2.1536102 -0.44485283 -0.09576156
0001c0 68 e0 60 40 19 35 0d be 49 48 89 bf 08 c9 e9 be
       3.5136967 -0.13789786 -1.0725185 -0.45661187
0001d0 87 62 dc be 19 66 fa 3f 5d 53 a8 be 58 1d bd be
       -0.4304392 1.9562408 -0.328761 -0.3693645
0001e0 d6 b6 ff be 81 a1 06 bf 4c c8 8c 3e 80 55 88 3d
       -0.4994418 -0.52590185 0.27496564 0.06656933
0001f0 0e 02 b5 be 7e 4a 76 be 9d a1 59 40 fe a7 1d bf
       -0.3535313 -0.24051854 3.400489 -0.6158446
