dqn/exercise/models/checkpoint688_177.70355865425415.pth (torch, 7111 bytes, 3 tensors)

fc1.weight f4 [32, 8]
0	0xbd32b8a0	-0.043633103
1	0xbc16d06d	-0.009204966
2	0x3da7b341	0.08188487
3	0x3d91d8e6	0.07121448
4	0x4053c774	3.3090487
5	0xbf0d9d0a	-0.5531775
6	0x3e9c6699	0.30547026
7	0x3f0deb2d	0.55436975
8	0xbb79daa3	-0.0038124702
9	0x3f13eda6	0.577845
10	0x3eafb599	0.34318236
11	0xbf6fccc4	-0.9367182
12	0xbe86df36	-0.2634217
13	0xbf99cd93	-1.2015861
14	0xbee43706	-0.4457323
15	0xbe549de3	-0.20763354
16	0x3d0e9372	0.034808584
17	0x3f2fab8e	0.68621147
18	0xbe8ba67d	-0.27275458
19	0xbeea730c	-0.457909
20	0x3fa26b65	1.2689024
21	0x3f4296e6	0.760115
22	0x3d93c0e2	0.07214524
23	0x3d890562	0.0669048
24	0x3d9e5557	0.07731121
25	0xbc6aa0d2	-0.014320569
26	0x4014c4dc	2.3245153
27	0x3f6e8908	0.93177843
28	0xbf0a762e	-0.5408658
29	0xbeff83cc	-0.4990524
30	0xbf922649	-1.1417934
31	0x3e9baaed	0.30403844
32	0xbefceaa2	-0.4939776
33	0xbef5b0a3	-0.47986326
34	0xbe68b6d8	-0.22726
35	0xbe899713	-0.26873073
36	0x3dc24b5b	0.09487029
37	0x3d4ad309	0.049517665
38	0x3eb42bf1	0.35189775
39	0x3e6d1cae	0.23155472
40	0x3ec0dfb9	0.37670687
41	0xbf712ee6	-0.94212186
42	0x3ea766c5	0.32695594
43	0x3f9bde2a	1.2177174
44	0xbedd76f4	-0.43254817
45	0xbf0e0061	-0.5546933
46	0x3e7ee347	0.24891387
47	0x3ebd0c23	0.36923322
48	0xbe2fc7cb	-0.17166059
49	0xbea12f11	-0.3148122
50	0xbda5f1ef	-0.08102786
51	0xbd41b224	-0.04728903
52	0x3f1b6d48	0.60713625
53	0x3e341967	0.17587815
54	0x3ef5ae67	0.4798462
55	0xbe831b5a	-0.25606805
56	0x3f3aab50	0.7291765
57	0xbfb402b9	-1.4063331
58	0x3e556680	0.20839882
59	0xbfa8de42	-1.3192828
60	0x3d9be387	0.07611757
61	0x3f16fbe3	0.589781
62	0x3e1d9ac5	0.15391071
63	0x3c98897e	0.018620249
64	0x3e327673	0.17427997
65	0x3eac67f1	0.3367305
66	0x3f08c0ce	0.53419197
67	0x3d02b22f	0.03190821
68	0x3f5f324a	0.8718611
69	0x3f83851e	1.0274999
70	0xbdc56402	-0.096382156
71	0x3dc351f3	0.09537115
72	0x3eb6dbe6	0.35714644
73	0x3f5f6a20	0.8727131
74	0x3eb68a89	0.3565257
75	0x4010ed0c	2.2644682
76	0xbefc1952	-0.49238068
77	0xbd36385d	-0.044487346
78	0x3e7501f7	0.23926531
79	0xbf2d1c5d	-0.67621404
80	0x3d6faf25	0.05851664
81	0x3ee3543c	0.44400203
82	0x3f25f96d	0.6483372
83	0xc0251d7b	-2.5799243
84	0xbf66cb6b	-0.9015414
85	0xbec1217b	-0.37720856
86	0x3f08c9db	0.53433007
87	0x3dda03c2	0.10645248
88	0x3eabd1a7	0.3355839
89	0xbf344898	-0.7042327
90	0x3fe26485	1.7686926
91	0x3dbe4cdc	0.092920035
92	0xbea03f86	-0.31298465
93	0x3ef5813a	0.47950155
94	0xbd5289cd	-0.05140095
95	0x3d585c0d	0.05282216
96	0xbeb0b573	-0.34513435
97	0x3e04b8c4	0.12961107
98	0xbecfbbed	-0.40573063
99	0x3f55332c	0.8328121
100	0x3f918a45	1.1370322
101	0x3f4b8812	0.795045
102	0xbda6b465	-0.08139876
103	0xbf241e64	-0.6410887
104	0xbf16f48e	-0.5896691
105	0xbebf13f9	-0.37319925
106	0xbe9c31d2	-0.3050676
107	0xbeb72376	-0.35769242
108	0x3e98faf1	0.29878953
109	0x3b2b751e	0.0026162337
110	0xbc28fa49	-0.010313579
111	0x3e815060	0.25256634
112	0xbe334653	-0.17507295
113	0x3f4443e9	0.7666612
114	0x3e93fb0c	0.2890247
115	0xbf890488	-1.0704508
116	0xbf82105c	-1.0161242
117	0x3f63e500	0.890213
118	0xbf4d9601	-0.8030701
119	0x3eb0c1b7	0.34522793
120	0x3e980c60	0.2969694
121	0xbe5590d1	-0.20856024
122	0xbe30b006	-0.17254648
123	0xbc49a927	-0.0123083955
124	0xbf0e04a7	-0.5547585
125	0xbf9dd527	-1.2330674
126	0xbe9c280c	-0.30499303
127	0x3b837b51	0.004012503
128	0x3e4fd690	0.20296693
129	0xbf096a4a	-0.5367781
130	0xbd270f12	-0.040785857
131	0x3f736a91	0.9508448
132	0xbd57904a	-0.05262784
133	0xbf162969	-0.58656937
134	0x3eb5e37a	0.35525113
135	0x3e13f7c5	0.14449985
136	0xbf06c045	-0.5263713
137	0x3e5cf25a	0.21576825
138	0x3ee8baff	0.45455167
139	0x3c90d88b	0.01768138
140	0x3de66b77	0.11250966
141	0x3f676543	0.9038889
142	0x3ef72684	0.48271573
143	0xbf01d833	-0.5072052
144	0xbeea9504	-0.45816815
145	0x3cb9ac88	0.022665277
146	0x3c0b654c	0.008508038
147	0x3e2055cc	0.15657729
148	0xbe28de4e	-0.16491053
149	0xbf5eae9f	-0.869852
150	0xbea85779	-0.32879236
151	0x3e97959a	0.29606324
152	0xbe535049	-0.20636095
153	0xbe91e49c	-0.28494728
154	0xbea57df1	-0.32322648
155	0xbf97da12	-1.1863425
156	0xbeff23ee	-0.498321
157	0xbf507be0	-0.8143902
158	0x3e2c26ef	0.16811727
159	0xbe426958	-0.18985498
160	0xbe74ce78	-0.23906887
161	0xbeb55adb	-0.3542088
162	0xbf5e4259	-0.8681999
163	0xbeb4ef34	-0.35338748
164	0x3f593ed4	0.84861493
165	0x3f2174b9	0.6306873
166	0xbda5f7eb	-0.08103927
167	0x3d69b54d	0.057057668
168	0xbe770ae7	-0.24125253
169	0xbfbe6e76	-1.487746
170	0x3f392360	0.723196
171	0xbf6bfc5a	-0.9218193
172	0x3f0d0257	0.55081695
173	0x3f0ee56f	0.5581884
174	0xbf0db2bc	-0.5535085
175	0xbe8dc9d9	-0.2769306
176	0x3d1218f8	0.035668343
177	0xbea56bc4	-0.3230878
178	0x3e332cec	0.17497605
179	0x3f49b8e1	0.7879773
180	0xbe8ea986	-0.2786371
181	0xbf004d22	-0.50117695
182	0x3e5fd945	0.21860225
183	0x3f09e29e	0.53861415
184	0x3f84ab06	1.0364692
185	0xbe873b30	-0.26412344
186	0x3f1581c1	0.58401114
187	0x3f569052	0.83813965
188	0xbed75707	-0.42058584
189	0xbeb2cd1f	-0.3492212
190	0x3e9d9609	0.3077853
191	0xbce49f85	-0.027908096
192	0x3ec00638	0.37504745
193	0x3d76e92b	0.06028096
194	0xbec2fb2c	-0.38082254
195	0xbfc86ce9	-1.5658237
196	0x3fa9b618	1.3258696
197	0x3dc19415	0.094520725
198	0x3e3e4991	0.18582751
199	0x3e58c831	0.21170117
200	0xbcb39a06	-0.02192403
201	0x3ded588f	0.11589157
202	0xc03c0593	-2.9378402
203	0x3ebf8812	0.374085
204	0xbf0d974b	-0.5530898
205	0x3e5dc817	0.2165836
206	0x3e0961c6	0.13416204
207	0x3e9b519d	0.30335703
208	0x3f70ad9d	0.9401491
209	0xbea1c253	-0.3159357
210	0x3f36342f	0.71173376
211	0x3ef8a2ae	0.48561615
212	0xbf13f076	-0.5778879
213	0xbec611cf	-0.38685462
214	0xbcf6a5ac	-0.030108295
215	0x3d699519	0.057026956
216	0xbdf9878a	-0.12184055
217	0xbef47da4	-0.47752106
218	0x3f4ddc18	0.8041396
219	0xbf90c227	-1.130925
220	0xbd49ce0e	-0.049268775
221	0x3f03d621	0.5149861
222	0x3f355670	0.7083502
223	0xba560a63	-0.0008165
224	0xbf821dcc	-1.0165343
225	0xbe8a81e0	-0.27052212
226	0xbf1bcd34	-0.6085999
227	0xbe8cc410	-0.27493334
228	0x3ed8dc5c	0.4235562
229	0xbd38cf96	-0.045119844
230	0x3d7984d4	0.06091769
231	0x3eb1a182	0.34693533
232	0x3f2eb03f	0.6823768
233	0x3e0df94c	0.1386463
234	0x3e3bc724	0.18337685
235	0xbf46e706	-0.77696264
236	0xbd8f2211	-0.069889195
237	0xbf7985fc	-0.9747007
238	0xbe7080af	-0.23486589
239	0x3da92026	0.08258085
240	0x3f5bd6e5	0.8587478
241	0xbcd73792	-0.026271615
242	0x3c86d122	0.016457144
243	0xbee75bed	-0.4518732
244	0xbe76ba83	-0.24094586
245	0xbf8389b3	-1.0276397
246	0x3e6b043f	0.22950839
247	0xbe32818d	-0.17432232
248	0xbfb46397	-1.4092892
249	0xbf00d49a	-0.50324404
250	0xbf8faed8	-1.1225233
251	0x3da51d36	0.08062212
252	0x3fc16a73	1.5110611
253	0x3e0f818a	0.14014259
254	0xbd7c5554	-0.061604813
255	0x3c01e998	0.007929228

fc2.weight f4 [32, 32]
0	0xbf3489e9	-0.70522934
1	0x3f504ba6	0.8136543
2	0x3f19e74b	0.6011855
3	0xbed148d2	-0.4087587
4	0x3e0242e4	0.12720829
5	0x3ea9a7f8	0.33135962
6	0x3eb58b3e	0.35457796
7	0xbec90863	-0.3926421
8	0x3f4ab240	0.7917824
9	0x3d83c42e	0.06433903
10	0xbeb24404	-0.34817517
11	0x3e870531	0.26371148
12	0x3f11c778	0.5694499
13	0x3e2a263b	0.16616146
14	0xbf13ba26	-0.57705915
15	0x3ef59eac	0.4797262
16	0x3ddcc01b	0.10778829
17	0x3f1d9536	0.615558
18	0xbc0e3184	-0.008678798
19	0xbda65a3d	-0.0812268
20	0x3f206646	0.62656057
21	0xbf2650fd	-0.6496733
22	0x3e17b2d6	0.14814314
23	0x3ea05b6d	0.31319752
24	0x3d122b32	0.035685726
25	0x3c39688d	0.011316431
26	0x3eb9078b	0.36138567
27	0x3d497a90	0.04918915
28	0x3ea00f79	0.31261805
29	0x3f1ecff9	0.6203609
30	0x3f18c587	0.596764
31	0x3fdaa0de	1.7080343
32	0xbe8d2ee8	-0.2757485
33	0x3f113852	0.5672656
34	0x3e3bebe1	0.183517
35	0x3d900768	0.07032663
36	0x3d450a2c	0.048105404
37	0x3e48ef66	0.19622573
38	0x3e448f42	0.19195274
39	0xbef9f0a2	-0.488164
40	0x3ee1b8d3	0.44086322
41	0x3e81899d	0.25300303
42	0xbe825bb1	-0.2546058
43	0xbd3fb8b5	-0.04680701
44	0xbd82d809	-0.06388862
45	0xbbe096db	-0.006853921
46	0xbfa4bd45	-1.287026
47	0x3f3e92cb	0.7444274
48	0x3ea452c5	0.32094398
49	0xbcdbf19e	-0.02684861
50	0x3d400089	0.04687551
51	0x3e895ee0	0.26830196
52	0x3ed4c37a	0.41555387
53	0xbf1f4d95	-0.62227756
54	0xbd4a82ff	-0.049441334
55	0x3ddd2873	0.10798731
56	0x3df41b1e	0.11919235
57	0x3e086527	0.13319837
58	0x3efcaeef	0.49352214
59	0xbe05b39f	-0.13056801
60	0x3dc0098e	0.093768224
61	0x3eb671e7	0.35633776
62	0x3f1d7bc9	0.61517006
63	0x3fa9b619	1.3258697
64	0xbf15235e	-0.5825709
65	0x3f630488	0.8867879
66	0x3e81e31b	0.2536858
67	0xbe1ec8c7	-0.15506278
68	0x3e1e37b8	0.15450943
69	0x3e8a8c51	0.27060178
70	0x3e53a486	0.2066823
71	0xbef88011	-0.48535207
72	0x3f21d886	0.63221014
73	0xbe90b7d9	-0.28265265
74	0xbe1855cc	-0.14876479
75	0x3d6e66d0	0.05820352
76	0x3e2b51ef	0.16730474
77	0x3de578d7	0.11204689
78	0xbed8547f	-0.42251965
79	0x3f0f1681	0.55893713
80	0x3e614ada	0.2200121
81	0x3edc0031	0.42968896
82	0x3e8569f6	0.26057404
83	0x3ee61f69	0.4494584
84	0x3e8b2862	0.27179247
85	0xbf058427	-0.52154773
86	0x3e7e9a0a	0.24863449
87	0x3e84fe47	0.25975248
88	0xbe3a9a3e	-0.18222901
89	0x3d297cef	0.04137891
90	0x3f0b46dd	0.54405004
91	0xbdeb34d4	-0.114846855
92	0x3c3389a3	0.010958108
93	0x3ee33c40	0.44381905
94	0x3ec97237	0.39344952
95	0x3fb54cf0	1.4164104
96	0xbdd9a380	-0.10626888
97	0xbf352f89	-0.7077566
98	0x3eb7d603	0.35905465
99	0x3e1957aa	0.14974847
100	0x3e87c566	0.2651779
101	0x3f0eedc2	0.5583154
102	0x3e685c1a	0.22691384
103	0xbf2fe925	-0.68715125
104	0x3e62d240	0.22150517
105	0x3ec99513	0.39371547
106	0xbf78c569	-0.97176224
107	0x3e451298	0.19245374
108	0x3f179ba4	0.59221864
109	0x3d8ba3f4	0.06818381
110	0xbf8f5d11	-1.1200277
111	0xbf47bf92	-0.7802669
112	0x3ecc985c	0.3995999
113	0x3f02d586	0.5110706
114	0xbfcfa711	-1.622286
115	0x3e18f786	0.14938173
116	0xbdf8e098	-0.12152213
117	0xbf293fa6	-0.66112745
118	0x3e859edc	0.26097763
119	0x3ecdf973	0.40229377
120	0xbebc1ddd	-0.36741534
121	0x3e1a2234	0.1505211
122	0x3f406ac7	0.7516293
123	0x3e002e8d	0.12517758
124	0x3e3af602	0.18257907
125	0xbf2e8437	-0.68170494
126	0x3e4c4587	0.19948398
127	0x3f8d91b9	1.1060096
128	0xbead9b01	-0.3390732
129	0x3f2b0e33	0.6681854
130	0x3f525d9a	0.82174075
131	0xbead4c02	-0.33847052
132	0xbdc9bc38	-0.09850353
133	0x3e566ed8	0.20940721
134	0x3e5739f8	0.21018207
135	0xbf34d473	-0.7063667
136	0x3f202e9e	0.6257113
137	0xbd4bb226	-0.049730442
138	0xbefb969a	-0.49138337
139	0xbd86caa5	-0.0658162
140	0x3f2af285	0.66776305
141	0xbd9c04ca	-0.07618101
142	0xbeeda35b	-0.46413693
143	0x3f40419f	0.7510013
144	0x3eb356c8	0.35027146
145	0x3f292043	0.6606485
146	0xbe1185fd	-0.14211269
147	0x3e3a87bb	0.1821584
148	0x3e8c4f80	0.27404404
149	0xbf4969c2	-0.78677
150	0x3e81c504	0.25345623
151	0x3e00bd24	0.12572151
152	0x3e18e77a	0.14932051
153	0x3e7cef6a	0.24700704
154	0x3acf60a8	0.0015821652
155	0xbe9499df	-0.29023644
156	0x3e4722ee	0.19446918
157	0x3e8e625f	0.27809426
158	0x3e888a79	0.26668146
159	0x3fc9aa52	1.5755103
160	0xbeb71227	-0.35756037
161	0x3ec354d7	0.38150665
162	0x3eeb08b6	0.45905083
163	0xbe24c2d4	-0.16089946
164	0x3ca54788	0.02017571
165	0xbebc4bb4	-0.36776507
166	0x3ecd9fd8	0.40161014
167	0x3c95eb99	0.018300818
168	0x3f16172c	0.5862911
169	0x3de5ded2	0.1122414
170	0x3eacd7cc	0.3375839
171	0xbf3f169e	-0.74643886
172	0xbe243767	-0.1603676
173	0x3ea353e2	0.31899935
174	0x3eed08b9	0.46295717
175	0xbfaba905	-1.3410956
176	0xbe84113e	-0.25794405
177	0x3d6d5ab9	0.057947848
178	0x3f6de408	0.92926073
179	0x3e1a86b2	0.15090445
180	0x3d911e9f	0.07085919
181	0xbf1ab57e	-0.60433185
182	0x3dce7f3a	0.1008286
183	0x3e063ca1	0.13109066
184	0xbe4c3ec9	-0.19945826
185	0xbf21a85a	-0.6314751
186	0x3d428c8d	0.04749732
187	0x3eac4238	0.3364427
188	0xbd57602f	-0.052581962
189	0x3e77614e	0.24158213
190	0xbf224770	-0.63390255
191	0x3f1269d1	0.57192713
192	0xbf28490e	-0.6573647
193	0x3f094d70	0.53633785
194	0x3f17d298	0.59305716
195	0xbcf2d68d	-0.029643321
196	0x3ebf2d57	0.3733928
197	0x3eae152f	0.34000537
198	0x3de6d15b	0.112704
199	0xbf07b477	-0.5300974
200	0x3ee098f9	0.4386671
201	0x3ec478c3	0.38373384
202	0xbe678936	-0.22610936
203	0x3e7430b0	0.23846698
204	0xbda3a96e	-0.079913005
205	0xbdde04b7	-0.10840743
206	0xbec2fbc5	-0.3808271
207	0x3e5e9241	0.21735479
208	0x3e907417	0.2821357
209	0x3f00eec4	0.5036433
210	0x3db9f3e7	0.09079724
211	0xbe9029e5	-0.28156963
212	0x3d77c24a	0.060488023
213	0xbf252401	-0.6450806
214	0x3e982527	0.29715845
215	0x3f04ac00	0.5182495
216	0xbe08e08d	-0.1336691
217	0xbcde32e8	-0.027123883
218	0x3f2fa15f	0.6860561
219	0xbe9dedc0	-0.3084545
220	0x3d2560d4	0.040375546
221	0x3f17e48e	0.5933312
222	0x3eefa4d1	0.46805432
223	0x3fa408ef	1.2815226
224	0x402469b1	2.568951
225	0xbe2a86d0	-0.1665299
226	0xbfe55012	-1.791506
227	0x3f7953bd	0.973934
228	0xbfa5ee21	-1.2963296
229	0x3d9c4991	0.07631219
230	0xbfaedb5b	-1.3660692
231	0xbfcaff60	-1.5859184
232	0xbf856f90	-1.0424671
233	0x3dd0cf5d	0.101958014
234	0x3ee62389	0.44948986
235	0xbf46efaf	-0.7770948
236	0x401704dd	2.3596718
237	0xbf8d36c9	-1.1032344
238	0x3fcefe4e	1.6171358
239	0xbdc66a4e	-0.09688245
240	0xbed0bfe7	-0.4077141
241	0xbff950da	-1.9477799
242	0x3e87f9df	0.26557824
243	0x3ec49268	0.3839295
244	0xbfdb79b1	-1.7146512
245	0xbf0ba80f	-0.5455331
246	0xbbddfc16	-0.0067744358
247	0xbf5a0582	-0.85164654
248	0x3f8566eb	1.0422033
249	0x3f543822	0.8289815
250	0x3dd33558	0.10312909
251	0xc005f6a4	-2.0931787
252	0xbf9a1910	-1.2038898
253	0x3e74eb67	0.23917924
254	0xbc54f100	-0.012996912
255	0xbf24615b	-0.6421105

fc3.weight f4 [4, 32]
0	0xbeef0268	-0.46681523
1	0xbefa37bd	-0.4887065
2	0xbebeb52f	-0.37247607
3	0xbe43de01	-0.19127657
4	0xbedb356c	-0.42814195
5	0xbd52ab5e	-0.05143296
6	0xbed0d035	-0.4078385
7	0x401c5baf	2.443096
8	0x402628eb	2.5962474
9	0x4039bb1f	2.902046
10	0xbd2c36a0	-0.042044282
11	0xbe619ac0	-0.22031689
12	0xbeb6924a	-0.35658485
13	0x3ff5e188	1.9209452
14	0xbee90e66	-0.45518798
15	0xbf1fe071	-0.62451845
16	0x4074f698	3.827551
17	0xbf2e2d00	-0.68037415
18	0xbf8d6551	-1.1046544
19	0xbee52a5a	-0.44758874
20	0xbf3243f8	-0.6963496
21	0x400025e7	2.0023134
22	0xbeb93e3f	-0.36180303
23	0xbd0d5caa	-0.0345122
24	0xbe43d547	-0.19124328
25	0xbe5e3a67	-0.21701966
26	0x3e8b5bf3	0.2721859
27	0xbde20564	-0.110361844
28	0xbf227898	-0.6346526
29	0xbe759af5	-0.23984893
30	0x40438669	3.0550787
31	0xbed878dc	-0.42279708
32	0xbeae42a1	-0.3403521
33	0xbeebb7e2	-0.4603873
34	0xbed30b74	-0.41219676
35	0x3d355be2	0.04427708
36	0xbf20d1b2	-0.6281997
37	0xbf902506	-1.1261299
38	0xbe4deefa	-0.20110694
39	0x4034d421	2.8254473
40	0x40135e76	2.3026404
41	0x403a9680	2.9154358
42	0xbec2d6b5	-0.38054433
43	0xbf36633a	-0.7124516
44	0xbf0e92cb	-0.5569274
45	0x4009a9b8	2.1509838
46	0xbeb9d9ed	-0.36299077
47	0xbea3bba5	-0.319791
48	0x4068b696	3.6361442
49	0xbf180fb2	-0.5939895
50	0xbf32ead9	-0.698896
51	0xbf1aa80a	-0.6041266
52	0xbe03a479	-0.1285571
53	0x3fdfe00b	1.7490247
54	0xbf0e96dc	-0.55698943
55	0xbef181d5	-0.47169366
56	0xbde600d3	-0.11230626
57	0xbf19493e	-0.59877384
58	0x3eff5e95	0.49876848
59	0x3d06593d	0.032799948
60	0xbf0803a4	-0.53130555
61	0xbb2aaba7	-0.0026042254
62	0x404623a8	3.0959263
63	0xbd37b952	-0.04485447
64	0xbf176d5d	-0.5915125
65	0xbeff614c	-0.4987892
66	0xbe8a3457	-0.26993057
67	0xbfb29dab	-1.3954366
68	0xbf01a828	-0.5064721
69	0x3cc420b5	0.023941377
70	0xbf30026b	-0.6875369
71	0x40242b40	2.5651398
72	0x403f376b	2.9877574
73	0x4023ca26	2.5592132
74	0xbefc57ba	-0.4928568
75	0xbe89f929	-0.26947907
76	0xbf0df061	-0.55444914
77	0x3eeb2a93	0.4593092
78	0xbe80e7ed	-0.25176945
79	0xbec5e603	-0.38652048
80	0x3fedcc16	1.8577907
81	0xbe859bd1	-0.2609544
82	0xbf8dfcd3	-1.1092781
83	0xbe59d6ef	-0.21273397
84	0x3d2f7020	0.04283154
85	0x400c8399	2.195532
86	0xbee560c5	-0.44800392
87	0xbf3f2ae1	-0.74674803
88	0xbf4638f9	-0.77430683
89	0xbe80a562	-0.25126177
90	0x40434603	3.0511482
91	0x3dc6f10d	0.097139455
92	0xbf248cb9	-0.64277226
93	0xbf3aa871	-0.7291327
94	0x3fbc79e5	1.4724699
95	0xbe0c1bff	-0.13682555
96	0xbeb79d98	-0.35862422
97	0xbee96f5c	-0.45592773
98	0xbef60eff	-0.48058316
99	0xbe99152a	-0.2989896
100	0xbdf7117a	-0.1206388
101	0xbf61f833	-0.88269347
102	0xbef4e72e	-0.47832626
103	0x3f92de32	1.1474059
104	0x4020d56e	2.5130267
105	0x407a9e75	3.9159214
106	0xbec99e38	-0.39378524
107	0xbf01c40f	-0.50689787
108	0xbefb0cd6	-0.4903323
109	0x400bda09	2.1851828
110	0xbee00147	-0.43750975
111	0xbdbc4080	-0.0919199
112	0x40608fe2	3.508782
113	0xbe081ed5	-0.13293011
114	0xbf8bb520	-1.091465
115	0xbee5fe05	-0.44920364
116	0xbedc9643	-0.4308339
117	0x3ffcafb1	1.9741117
118	0xbea46d61	-0.321147
119	0xbeb6bd49	-0.35691288
120	0xbefccf06	-0.49376696
121	0xbf03a70d	-0.51426774
122	0x3e8b99f2	0.27265888
123	0x3d885580	0.06656933
124	0xbeb2bc33	-0.3490921
125	0xbe7496fe	-0.23885724
126	0x405b38f3	3.425351
127	0xbf1cfb6f	-0.6132116
