dqn/exercise/models/checkpoint485_51.89935086579017.pth (torch, 7111 bytes, 3 tensors)

fc1.weight f4 [32, 8]
0.09801432 -0.0075483937 -0.19883788 0.10092944 2.8842385 -0.45819864 0.3185832 0.4573591
-0.059678577 0.34130907 -0.052174665 -0.59556246 -0.68014693 -1.4283416 -0.21740147 -0.30588582
0.38967904 0.4625597 -0.062948525 -0.4152121 0.99466324 0.8534607 0.03056621 0.2320391
0.18686117 -0.0035131623 1.7904592 0.46926728 -1.0203537 -0.66471606 -0.22144702 0.08762148
-0.4749622 -1.2123948 -0.121860884 -0.74588865 -0.13308792 0.21594141 0.35468653 0.2841184
0.45171636 -1.0290844 0.49550363 -0.006351896 -0.768025 -0.6448218 0.29663342 0.30069393
-0.10066932 -0.87057453 -0.012952351 -0.4872843 0.56461436 0.28972563 0.4759794 -0.2804593
0.48803633 -1.3711017 -0.076852076 -0.9860274 0.29285836 0.27918494 0.083256215 0.013052718
0.63859594 0.17200805 0.27740955 -0.09594621 0.6677693 1.0717212 0.08269375 0.1449946
0.3433627 0.8711577 0.2712078 1.6938487 0.2017494 -0.44471306 0.17974845 -0.67621404
-0.01185171 0.5106861 0.60370934 -2.108318 -0.6517177 -0.49686453 0.36132258 -0.12356782
0.65177 -0.7962675 1.0572222 -0.16663727 0.547956 0.53319454 -0.16147338 0.10258472
-0.092033334 -0.24257037 -0.15778206 0.11757772 0.8856019 0.9246154 -0.3446483 -0.48598304
-0.62260354 -0.80033153 -0.033852007 -0.7831996 0.144762 0.1240771 0.0036755868 0.28939024
-0.07978694 0.9134722 0.6080343 -1.0568773 -0.54485667 0.5579486 -0.70085573 0.27342862
-0.2813318 -0.6003413 -0.2901858 0.04635775 -0.6883581 -1.275198 -0.15988585 -0.23100471
0.42176083 -0.7191004 0.21530654 -0.009994129 -0.57285064 -0.64222133 0.36154428 0.20336579
-0.551678 0.17206123 0.41736647 0.039678264 0.40837365 1.1652042 0.23889817 -0.6652991
-0.5213402 0.074016124 0.023105204 -0.011771203 -0.28505108 -1.1217489 -0.41577584 0.18292612
-0.27415523 -0.6433337 -0.000657502 -1.0944921 -0.3733106 -0.74079746 0.030343408 -0.16957802
-0.017919762 -0.7427994 -0.2928939 -0.72038406 0.4196774 0.44512466 -0.0565383 0.12202346
0.22293648 -0.9420932 0.532961 -0.80732965 0.68717194 0.29150414 -0.34655055 -0.028088693
0.0871148 -0.91473746 0.61410904 0.030731669 -0.5530833 -0.6158217 0.25898525 0.41140375
0.8104871 -0.4546974 0.35116223 -0.045784734 -0.5122316 -0.11246268 0.4727717 0.13624983
0.3174522 -0.04359813 -0.60441935 -1.484848 1.4683625 -0.0242605 0.09334465 0.03869633
-0.0021106706 0.33355322 -2.455193 0.023653325 0.23879361 0.5393596 0.027625475 0.13960457
0.4917372 -0.30818653 0.59860265 0.24596514 -0.50185853 -0.48071182 0.08537997 0.23009104
-0.107165374 -0.90530145 0.44238794 -1.1207654 0.22419351 0.36848632 0.37875485 -0.044915758
-0.99768007 -0.47029242 -0.38549098 -0.58346105 0.06528748 -0.049294703 0.069018684 0.39305964
0.83487743 0.1617206 0.09446109 -0.43344814 -0.24614553 -1.0771052 -0.35333642 -0.1583351
0.87788516 0.011048883 -0.1404999 -0.35901955 -0.39443704 -1.1525353 0.017935863 -0.35867143
-1.3316933 -0.7262253 -0.6863565 0.12435271 1.0784268 0.08166568 -0.22489683 -0.09292841
00000000: bbbb c83d 8458 f7bb 289c 4bbe 18b4 ce3d
00000010: 5d97 3840 0399 eabe 561d a33e f92a ea3e
00000020: 8671 74bd 10c0 ae3e 1ab5 55bd c876 18bf
00000030: 1c1e 2ebf e6d3 b6bf 7e9e 5ebe 119d 9cbe
00000040: 0384 c73e a0d4 ec3e 28eb 80bd ae96 d4be
00000050: 40a2 7e3f 677c 5a3f fd65 fa3c a89b 6d3e
00000060: 8958 3f3e 153d 66bb c42d e53f cd43 f03e
00000070: f39a 82bf d52a 2abf 02c3 62be e472 b33d
00000080: 3f2e f3be c12f 9bbf 3392 f9bd 8ff2 3ebf
00000090: 3348 08be bf1f 5d3e 7999 b53e f877 913e
000000a0: 5e47 e73e 0ab9 83bf a7b2 fd3e 9123 d0bb
000000b0: 499d 44bf 0b13 25bf 56e0 973e 8ef4 993e
000000c0: b72b cebd f9dd 5ebf 1936 54bc 547d f9be
000000d0: 918a 103f eb56 943e 92b3 f33e 5d98 8fbe
000000e0: e6df f93e 4380 afbf 9f64 9dbd 4b6c 7cbf
000000f0: 88f1 953e 54f1 8e3e 3c82 aa3d 11db 553c
00000100: 067b 233f e122 303e a008 8e3e 727f c4bd
00000110: eef2 2a3f 292e 893f 575b a93d 7779 143e
00000120: 3ccd af3e 3104 5f3f c0db 8a3e 09d0 d83f
00000130: 6597 4e3e 6eb1 e3be fa0f 383e 5d1c 2dbf
00000140: ad2d 42bc 53bc 023f b28c 1a3f afee 06c0
00000150: f9d6 26bf 0765 febe 46ff b83e 2011 fdbd
00000160: 66da 263f 30d8 4bbf 0f53 873f f6a2 2abe
00000170: d846 0c3f 707f 083f 4759 25be f017 d23d
00000180: f97b bcbd 5e64 78be 9f91 21be 96cc f03d
00000190: ceb6 623f 98b3 6c3f be75 b0be c5d2 f8be
000001a0: f262 1fbf 87e2 4cbf 67a8 0abd c57f 48bf
000001b0: 7d3c 143e 221c fe3d 1de2 703b f52a 943e
000001c0: 5667 a3bd 50d9 693f 23a8 1b3f c147 87bf
000001d0: ba7b 0bbf b8d5 0e3f 486b 33bf d6fe 8b3e
000001e0: b90a 90be f8af 19bf 3c93 94be a0e1 3d3d
000001f0: 3d38 30bf b039 a3bf 1eb9 23be 808c 6cbe
00000200: 09f1 d73e f716 38bf 5179 5c3e 6abe 23bc
00000210: 57a6 12bf 9e68 24bf 551c b93e 1f3f 503e
00000220: c53a 0dbf d230 303e 0fb1 d53e ad85 223d
00000230: 5a16 d13e 6925 953f b9a1 743e 0b51 2abf
00000240: 8d76 05bf c495 973d 2047 bd3c 01dc 40bc
00000250: 37f2 91be 7895 8fbf 92e0 d4be fc50 3b3e
00000260: 135e 8cbe 84b1 24bf 365c 2cba 5118 8cbf
00000270: 9122 bfbe e7a4 3dbf bd92 f83c dca5 2dbe
00000280: 77cc 92bc 1a28 3ebf 30f6 95be 176b 38bf
00000290: f5df d63e 61e7 e33e b494 67bd 70e7 f93d
000002a0: 7649 643e 052d 71bf 2270 083f 28ad 4ebf
000002b0: 80ea 2f3f 0840 953e 136f b1be 421a e6bc
000002c0: 3f69 b23d 3c2c 6abf 4036 1d3f fbc0 fb3c
000002d0: de96 0dbf 7ea6 1dbf b799 843e 83a3 d23e
000002e0: 157c 4f3f 19ce e8be 89cb b33e c688 3bbd
000002f0: 9c21 03bf d552 e6bd 220f f23e 1385 0b3e
00000300: 1889 a23e f493 32bd 3abb 1abf 800f bebf
00000310: 4df3 bb3f f5bd c6bc 7b2b bf3d 0b80 1e3d
00000320: 2d53 0abb 7dc7 aa3e e221 1dc0 9ec4 c13c
00000330: 5086 743e 7913 0a3f d24e e23c 80f4 0e3e
00000340: fac4 fb3e a0ca 9dbe 063e 193f 49de 7b3e
00000350: cd79 00bf dc1f f6be b2db ae3d fc9c 6b3e
00000360: 8579 dbbd d6c1 67bf ac80 e23e 3e75 8fbf
00000370: fc92 653e 3daa bc3e 28ec c13e 96f9 37bd
00000380: f667 7fbf 2bca f0be 135f c5be b45d 15bf
00000390: 71b5 853d 3ee9 49bd ab59 8d3d 1d3f c93e
000003a0: 87ba 553f 169a 253e d174 c13d eaec ddbe
000003b0: 930d 7cbe 95de 89bf 83e8 b4be 9922 22be
000003c0: 15bd 603f 6006 353c 35df 0fbe 69d1 b7be
000003d0: a7f3 c9be 4786 93bf 3bee 923c c8a3 b7be
000003e0: ed74 aabf e7e9 39bf 0fb5 2fbf a2ac fe3d
000003f0: e409 8a3f 5640 a73d 5b4b 66be 4051 bebd

fc2.weight f4 [32, 32]
-0.5315435 0.913469 0.5525538 0.113974154 0.34830037 0.57872146 0.48433253 0.39780864
0.9364957 0.19509396 -0.007930155 0.5413083 0.84361184 0.42205307 -0.52532476 0.75074404
0.3109569 0.7207556 0.41577074 0.32565814 0.600005 0.2868184 0.39755145 0.524426
0.14427947 0.1506341 0.33508876 0.378845 0.48416626 0.6732794 0.62930846 1.4325725
-0.22473525 0.8355813 0.06528743 0.33217376 0.15854764 0.3650154 0.16043879 0.044652823
0.4735213 0.03665501 0.18459415 0.113774136 0.17121942 0.18198547 -0.84572333 1.0277821
0.4196807 0.13841817 0.5837002 0.585248 0.32310462 0.16746491 0.111112736 0.22971648
0.12384497 0.03052285 0.4971415 0.04630481 0.21713032 0.47860318 0.7251454 1.1329147
-0.43203852 0.97458833 0.13347395 0.21802819 0.33076 0.49400255 0.2978236 0.15106246
0.7380089 -0.17366323 0.12939125 0.27882305 0.48668367 0.33095008 -0.41094878 0.8853981
0.38998067 0.42842513 0.7729922 0.67631304 0.23682934 0.31974366 0.46925533 0.4512311
-0.10259669 0.06407163 0.550714 0.10902765 0.13258329 0.633023 0.4833864 1.2226341
-0.15212941 0.11375915 0.45022866 0.4388658 0.1852594 0.46306184 0.027787324 -0.1435393
0.46915302 -0.29514033 -0.629964 0.32322416 0.6917253 0.20510958 -0.34674132 -0.24746692
0.21458119 0.6525385 -0.75562274 0.2458839 -0.02283245 0.004258618 0.23854712 0.3031472
-0.22400407 0.03259009 0.3911951 0.22001141 0.24331445 -0.5364434 -0.21893103 1.0203311
-0.28828168 0.72798973 0.7893521 0.05824497 0.03427255 0.3674015 0.23690876 0.10569216
0.7308217 0.12685055 -0.1793344 0.4576084 0.9307955 0.105375454 -0.343956 0.9633593
0.43778247 0.87782 0.15590163 0.64301825 0.27646288 0.15623158 0.39543405 0.28471905
0.24414784 0.47029817 0.10778035 -0.0025633802 0.30106577 0.30743185 0.37674546 1.319428
-0.39243048 0.24739142 0.20128281 -0.45858252 -0.077619724 -0.26170394 0.33887362 0.23251528
0.5585697 0.05393983 0.24098594 0.18999222 0.16001362 0.16080876 0.49405485 -1.1223587
-0.29345638 0.21339552 0.96869403 -0.050051693 0.10881205 0.11796962 0.012622094 0.12942868
-0.19491427 -0.44753572 0.0593295 0.27531224 -0.26542896 0.36348557 -0.68369335 0.64158547
-0.55416995 0.66088706 0.4854808 0.54050004 0.46437827 0.5197635 0.10279076 0.091537476
0.5379644 0.4184919 -0.0450134 0.1454967 0.17432143 0.05121382 -0.43004268 0.5029792
0.40244702 0.44395974 0.60904115 0.06127673 0.03949535 0.031216197 0.4726935 0.63259774
-0.17455961 -0.05288529 0.6279983 -0.16122788 0.10462191 0.68117595 0.47183496 1.0642692
2.3106368 -0.019405754 -1.6723977 0.5539226 -1.2208458 -0.009890211 -0.89050984 -1.475531
-0.8899961 -0.26652235 0.81456447 -0.79716367 0.92479527 -1.1942837 1.6394627 -0.26422432
-0.3610839 -1.9687709 0.21878071 0.22196865 -1.6552439 -1.1062863 -0.017028876 -0.27860245
1.1091456 0.25087875 -0.02933271 -1.158211 -1.1777908 0.123575166 -0.15271902 -0.4740145
00000000: 3c13 08bf 1bd9 693f 2a74 0d3f 486b e93d
00000010: 6d54 b23e 1727 143f 6ffa f73e 93ad cb3e
00000020: 2fbe 6f3f b6c6 473e 7bed 01bc 2e93 0a3f
00000030: f2f6 573f 5717 d83e af7b 06bf c330 403f
00000040: be35 9f3e 7083 383f e7df d43e aabc a63e
00000050: ed99 193f dcd9 923e dd8b cb3e c840 063f
00000060: ffbd 133e d33f 1a3e c190 ab3e f9f7 c13e
00000070: a4e4 f73e 0a5c 2c3f 5c1a 213f 895e b73f
00000080: ff20 66be a8e8 553f 6bb5 853d ae12 aa3e
00000090: 505a 223e 4ce3 ba3e 114a 243e e1e5 363d
000000a0: 6271 f23e 9023 163d 4006 3d3e 6a02 e93d
000000b0: 2554 2f3e 665a 3a3e 5381 58bf 5d8e 833f
000000c0: 64e0 d63e 7ebd 0d3e 606d 153f d0d2 153f
000000d0: f86d a53e ec7b 2b3e 138f e33d cc3a 6b3e
000000e0: 6ea2 fd3d 0e0b fa3c 5589 fe3e 1daa 3d3d
000000f0: 6957 5e3e 7a0b f53e 21a3 393f 5903 913f
00000100: 2734 ddbe 9f7e 793f 65ad 083e c842 5f3e
00000110: 6059 a93e e7ed fc3e 567c 983e 1eb0 1a3e
00000120: 27ee 3c3f c6d4 31be 247f 043e e5c1 8e3e
00000130: 9a2e f93e 4a72 a93e e167 d2be 73a9 623f
00000140: 8cab c73e 8a5a db3e d1e2 453f da22 2d3f
00000150: 6483 723e 71b5 a33e 3c42 f03e c307 e73e
00000160: 371e d2bd fd37 833d 98fb 0c3f e349 df3d
00000170: eac3 073e cc0d 223f 6c7e f73e 467f 9c3f
00000180: d0c7 1bbe 8ffa e83d 5f84 e63e 05b3 e03e
00000190: a4b4 3d3e 7116 ed3e 3ea2 e33c f7fb 12be
000001a0: d334 f03e a21c 97be 5245 21bf a37d a53e
000001b0: e914 313f 3f08 523e 1488 b1be f867 7dbe
000001c0: 2cbb 5b3e c30c 273f 7e70 41bf fdc8 7b3e
000001d0: 1e0b bbbc e18b 8b3b b245 743e 1c36 9b3e
000001e0: 5361 65be 307d 053d b94a c83e ac4a 613e
000001f0: 6c27 793e 5b54 09bf 752f 60be 369a 823f
00000200: a899 93be 895d 3a3f fb12 4a3f 4792 6e3d
00000210: 6061 0c3d 0d1c bc3e 3698 723e 2275 d83d
00000220: 2217 3b3f 1ce5 013e 70a3 37be a64b ea3e
00000230: 9d48 6e3f 16cf d73d 001b b0be b79e 763f
00000240: 0625 e03e d0b8 603f ada4 1f3e d89c 243f
00000250: 8b8c 8d3e 2cfb 1f3e 5576 ca3e b2c6 913e
00000260: e401 7a3e ecca f03e f2bb dc3d 62fe 27bb
00000270: 4b25 9a3e b567 9d3e c8e4 c03e 04e3 a83f
00000280: a6ec c8be 2d54 7d3e 151d 4e3e 54cb eabe
00000290: 17f7 9ebd 0ffe 85be d880 ad3e 7c18 6e3e
000002a0: 6dfe 0e3f 03f0 5c3d 05c5 763e 528d 423e
000002b0: 9cda 233e 0dab 243e c2f4 fc3e 73a9 8fbf
000002c0: ea3f 96be 5b84 5a3e 55fc 773f 0103 4dbd
000002d0: dad8 de3d 0e9a f13d e6cc 4e3c f488 043e
000002e0: 9b97 47be 6723 e5be 7d03 733d baf5 8c3e
000002f0: 4ee6 87be c81a ba3e 8706 2fbf f23e 243f
00000300: 15de 0dbf e52f 293f f090 f83e 365e 0a3f
00000310: fdc2 ed3e 390f 053f f683 d23d 0078 bb3d
00000320: 09b8 093f 9244 d63e f95f 38bd 16fd 143e
00000330: 5181 323e 95c5 513d 8e2e dcbe 3fc3 003f
00000340: 890d ce3e b14e e33e 1fea 1b3f 4ffd 7a3d
00000350: e0c5 213d 1cb9 ff3c e204 f23e edf1 213f
00000360: c1bf 32be 3f9e 58bd 7fc4 203f ec18 25be
00000370: 0344 d63d 8c61 2e3f 5a94 f13e f939 883f
00000380: 79e1 1340 d1f8 9ebc 2111 d6bf dfcd 0d3f
00000390: ad44 9cbf 8d0a 22bc 74f8 63bf 33de bcbf
000003a0: c9d6 63bf 9e75 88be 4c87 503f eb12 4cbf
000003b0: 62bf 6c3f 4ade 98bf ead9 d13f 6948 87be
000003c0: fddf b8be af00 fcbf 0d08 603e c04b 633e
000003d0: 08df d3bf ca9a 8dbf 2480 8bbc fba4 8ebe
000003e0: 7cf8 8d3f 2e73 803e 274b f0bc 4240 94bf
000003f0: d9c1 96bf fa14 fd3d 6062 1cbe 07b2 f2be

fc3.weight f4 [4, 32]
-0.5087211 -0.42910343 -0.41348305 -0.24310446 -0.33874643 0.021678455 -0.39447737 1.9311467
2.4904666 2.88545 -0.20587577 -0.31405553 -0.44753435 1.3184724 -0.5428793 -0.51776457
3.428424 -0.5055732 -0.6280631 -0.5393244 -0.5060532 1.6070973 -0.33822653 -0.17896788
-0.24847995 -0.3547564 -0.10434946 -0.110361844 -0.6004716 -0.2286228 2.3835697 -0.43876776
-0.43607938 -0.53718436 -0.31175873 -0.10531182 -0.7268013 -0.8263416 -0.0860744 2.7520041
2.0587463 2.3969169 -0.39783597 -0.5935387 -0.58300817 1.817325 -0.3420617 -0.56253695
3.5258527 -0.7012608 -0.44995463 -0.5848397 -0.26173383 1.8084286 -0.61833555 -0.40264145
-0.0794819 -0.4796857 -0.09524238 0.032799948 -0.6458777 -0.26180395 2.5063043 -0.039156307
-0.57450265 -0.45798096 -0.302252 -0.7923735 -0.51651275 -0.0009092389 -0.6471498 2.0166013
2.7925575 2.7568333 -0.5077389 -0.29510164 -0.5801958 -0.5865598 -0.2836554 -0.4061319
1.7364401 -0.28946903 -0.99157417 -0.26380602 -0.04223248 2.1179473 -0.45134816 -0.49965885
-0.70686996 -0.27726865 2.7981389 0.097139455 -0.6633074 -0.6350699 0.7540433 -0.19765146
-0.41000703 -0.539927 -0.5755862 -0.24541102 -0.15472628 -0.87971103 -0.5660886 0.7534868
2.4605062 3.389214 -0.44654086 -0.57604355 -0.54684615 1.5178646 -0.47688258 -0.117587194
3.3471148 -0.18321952 -0.85614324 -0.5099295 -0.48893476 1.6696833 -0.37154618 -0.37982023
-0.5243648 -0.6125191 0.21608596 0.06656933 -0.3918303 -0.22666015 3.1390805 -0.672973
00000000: 8c3b 02bf 72b3 dbbe 0db4 d3be 60f0 78be
00000010: 2c70 adbe 0497 b13c f0f8 c9be d12f f73f
00000020: ce63 1f40 36ab 3840 19d1 52be e3cb a0be
00000030: 3923 e5be b4c3 a83f 23fa 0abf 388c 04bf
00000040: 4c6b 5b40 3f6d 01bf bec8 20bf 2a11 0abf
00000050: b48c 01bf 5db5 cd3f 072c adbe 5b43 37be
00000060: 8771 7ebe a2a2 b5be 2bb5 d5bd 6405 e2bd
00000070: 82b8 19bf 181c 6abe 688c 1840 2ba6 e0be
00000080: cc45 dfbe ea84 09bf d79e 9fbe b9ad d7bd
00000090: a60f 3abf 208b 53bf c647 b0bd d620 3040
000000a0: 80c2 0340 1667 1940 28b1 cbbe 27f2 17bf
000000b0: 0640 15bf 1b9e e83f b622 afbe 6c02 10bf
000000c0: 92a7 6140 d485 33bf 7460 e6be 0eb8 15bf
000000d0: fa01 86be 977a e73f 3d4b 1ebf 0527 cebe
000000e0: 68c7 a2bd 5d99 f5be 700e c3bd 3d59 063d
000000f0: 3e58 25bf 2b0b 86be 4a67 2040 5d62 20bd
00000100: 9b12 13bf 7b7c eabe c6c0 9abe fdd8 4abf
00000110: 2e3a 04bf fd59 6eba 9cab 25bf ff0f 0140
00000120: 43b9 3240 f56f 3040 2dfb 01bf 9017 97be
00000130: b687 14bf c828 16bf 483b 91be 85f0 cfbe
00000140: ab43 de3f 4935 94be ced7 7dbf 9511 87be
00000150: f7fb 2cbd 738c 0740 1b17 e7be 49d3 ffbe
00000160: 6ef5 34bf 28f6 8dbe b514 3340 0df1 c63d
00000170: 84ce 29bf f193 22bf fb08 413f 2565 4abe
00000180: 71ec d1be a838 0abf 9e59 13bf 074d 7bbe
00000190: 9170 1ebe be34 61bf 2feb 10bf 83e4 403f
000001a0: ef78 1d40 e2e8 5840 01a1 e4be 9777 13bf
000001b0: 1cfe 0bbf 6349 c23f f429 f4be 8ed1 f0bd
000001c0: 2137 5640 e69d 3bbe 342c 5bbf bd8a 02bf
000001d0: a855 fabe 2fb8 d53f 4d3b bebe cc77 c2be
000001e0: c63c 06bf 0dce 1cbf a345 5d3e 8055 883d
000001f0: fb9d c8be 9919 68be b2e6 4840 f547 2cbf
