dqn/exercise/models/checkpoint514_81.65106542044953.pth (torch, 7111 bytes, 3 tensors)

fc1.weight f4 [32, 8]
000000 7d b6 70 3d ac a4 d7 ba 0d 5c 07 be 08 08 ed 3d
       0.058767784 -0.0016452274 -0.13218708 0.115737975
000010 dd 89 41 40 ff c2 e8 be 22 40 9c 3e 96 af f5 3e
       3.0240395 -0.4546127 0.3051768 0.47985524
000020 ca 44 01 be ce cc b0 3e 20 59 58 bd 66 9b 34 bf
       -0.12623897 0.34531254 -0.05281937 -0.7054962
000030 5f 3b 09 bf 1d d4 b9 bf 72 86 82 be 8e 9e 7d be
       -0.5360622 -1.4517857 -0.254932 -0.24767515
000040 2a 2d c1 3e 01 2b fe 3e 04 67 8b bd b2 a6 c7 be
       0.3772977 0.49642184 -0.06806758 -0.38994366
000050 e6 a7 8f 3f 76 84 3f 3f b8 d1 4b 3d 2b 3c 3e 3e
       1.1223114 0.74811494 0.04976055 0.1857764
000060 a7 11 b2 3d 2b 65 bf 39 f1 66 f4 3f ab d8 fc 3e
       0.08694773 0.00036505735 1.9093915 0.49384055
000070 e1 0b 78 bf 4d 59 3b bf f2 6c 81 be 97 12 0a 3e
       -0.96893126 -0.7318314 -0.2527843 0.13483654
000080 f7 e1 00 bf 83 ae 8d bf c0 87 af bd fc 93 0a bf
       -0.50344795 -1.1068882 -0.08570814 -0.54132056
000090 f0 94 ac bd e1 11 32 3e 3d 93 b9 3e 26 f3 88 3e
       -0.08426845 0.17389633 0.36245146 0.26748008
0000a0 27 3f ec 3e 56 55 7f bf 8e 6a ef 3e 53 cd a5 3e
       0.4614193 -0.9973959 0.46760982 0.32383212
0000b0 ac a7 3d bf dd bb 28 bf 4c 96 96 3e 1a 75 99 3e
       -0.7408397 -0.65911657 0.29411542 0.29972154
0000c0 46 ac d1 bd dd c7 3b bf d0 b3 ff 3c af 7d a4 be
       -0.10237937 -0.7335184 0.031213671 -0.3212714
0000d0 48 f9 19 3f fc 53 6c 3e 77 a3 fb 3e c3 e2 88 be
       0.60146 0.23078912 0.4914815 -0.26735505
0000e0 98 73 02 3f 27 8a a1 bf 5a d0 20 be 6e 86 83 bf
       0.5095763 -1.2620286 -0.1570448 -1.02754
0000f0 e1 b7 a8 3e f3 b7 7e 3e cc 8e ad 3d 52 29 82 bc
       0.32952788 0.24874859 0.08474502 -0.015888844
000100 ed 0b 1b 3f b7 43 5b 3e df 15 9e 3e 0e 45 89 bd
       0.6056507 0.2141255 0.3087606 -0.06702624
000110 b5 73 2a 3f cb 4f 85 3f 07 d8 a8 3d 0e ac 00 3e
       0.66582805 1.0414976 0.08244329 0.12565634
000120 ad 9b c4 3e df ba 62 3f 2d 04 ad 3e 3e 4d de 3f
       0.3840002 0.8856639 0.33792248 1.7367322
000130 11 4e 55 3e 32 15 a0 be 1d fd 01 3e 5d 1c 2d bf
       0.20830561 -0.3126617 0.12694211 -0.67621404
000140 44 5e 2b 3c 37 a3 00 3f 74 1b 13 3f 1f ca 0b c0
       0.010459486 0.50249046 0.57463765 -2.1842115
000150 c1 9e 2c bf fc 1d e7 be 87 a8 c3 3e 01 57 db bd
       -0.6742974 -0.45140064 0.38214514 -0.10709954
000160 30 45 18 3f 51 55 4f bf 88 b7 92 3f 9e 93 eb bd
       0.5948057 -0.8098956 1.1462259 -0.11502765
000170 77 1f 03 3f c4 9a 0a 3f 18 ae 1c be ae fb a5 3d
       0.51219887 0.54142404 -0.15300786 0.08104645
000180 60 5f cb bd 97 ce 62 be c9 8e 64 be ee 1b 77 3e
       -0.09930301 -0.2214912 -0.22320093 0.24131748
000190 5a 94 6d 3f 36 a7 5e 3f cf 7f 9c be 9c d6 fb be
       0.9280449 0.86973894 -0.3056626 -0.4918717
0001a0 e0 26 1b bf cf aa 38 bf 9d 50 49 bd 5c c9 18 bf
       -0.60606194 -0.72135633 -0.049149144 -0.5968225
0001b0 7e 4f 40 3e 28 ea 9d 3d fb 3a 48 3c 3f 3e 94 3e
       0.18780324 0.077106774 0.012221093 0.2895374
0001c0 21 f0 56 bd d8 08 66 3f df e1 0d 3f ff ed 83 bf
       -0.0524751 0.89857244 0.55422777 -1.0307006
0001d0 7e 21 2b bf 33 a8 14 3f f4 9c 39 bf d7 ea 97 3e
       -0.6684798 0.5806915 -0.72505116 0.29671356
0001e0 c7 02 5c be 36 98 11 bf b9 c1 a3 be 85 6e c3 bc
       -0.21485434 -0.5687288 -0.31983736 -0.02385641
0001f0 d6 fa 28 bf 5a ac a4 bf 15 d6 3d be 90 7f 4a be
       -0.66007745 -1.2865098 -0.18538697 -0.19775224
000200 f6 1d da 3e c5 a3 35 bf 85 83 0b 3e c0 66 79 3e
       0.42600983 -0.7095302 0.1362439 0.24355602
000210 d6 33 00 bf c5 92 2d bf 52 5e b7 3e 64 d2 48 3e
       -0.50079095 -0.6780208 0.35814148 0.19611508
000220 6b f1 15 bf f1 b2 3b 3e 95 b6 c5 3e db 99 02 3d
       -0.585715 0.1832998 0.38615862 0.03188501
000230 2e 4e 9d 3e 41 51 86 3f 87 d6 81 3e b0 10 36 bf
       0.3072371 1.0493547 0.25358984 -0.71119213
000240 35 da 08 bf be ef 89 3d a2 a0 cd 3c 09 fb af 3c
       -0.5345796 0.0673518 0.02510101 0.021482008
000250 8e 3c 6a be 8a c1 88 bf 5c 79 c2 be eb a4 38 3e
       -0.22874662 -1.0684063 -0.37983215 0.18031661
000260 f8 44 8c be 4c ed 00 bf 39 79 6f bd 6f 32 9e bf
       -0.2739637 -0.50362086 -0.058465216 -1.2359141
000270 cd 70 c4 be fe 80 3e bf 33 a0 4e 3d 39 be 14 be
       -0.3836731 -0.74415576 0.050445747 -0.14525689
000280 01 da 61 bd 89 c5 21 bf 03 1a cd be 6b 04 13 bf
       -0.055139545 -0.6319204 -0.40058908 -0.57428616
000290 ba 94 fd 3e b2 92 ef 3e 43 99 32 bd 6d 60 97 3d
       0.49527532 0.46791607 -0.043603193 0.07391439
0002a0 0f 90 29 3e 05 98 73 bf 17 e6 13 3f c8 26 4e bf
       0.1655886 -0.9515384 0.57772964 -0.80527925
0002b0 70 19 21 3f 8a 57 8b 3e 25 6c be be ff c9 aa bc
       0.6292944 0.27215225 -0.37191883 -0.020848272
0002c0 2e 6b bf 3d 6e e7 4f bf 70 a6 24 3f 43 6c 8b 3e
       0.09346615 -0.8121251 0.64316463 0.27231035
0002d0 56 f8 0a bf f4 4b 1e bf 11 64 85 3e 63 93 d5 3e
       -0.5428518 -0.61834645 0.26052907 0.4171401
0002e0 67 6e 61 3f 7f b2 da be 98 46 ed 3e 1a 80 17 3e
       0.88059086 -0.42714307 0.4634292 0.1479496
0002f0 bb aa e0 be a1 7b b1 bd 84 42 ee 3e 17 e1 e7 3d
       -0.43880257 -0.086661585 0.46535122 0.11322229
000300 0e 91 a0 3e d9 eb bb bc f8 d0 17 bf df 0a be bf
       0.31360668 -0.02293961 -0.59303236 -1.4847068
000310 65 57 bb 3f 5c 3c 3d bc 84 44 be 3d 31 b8 a4 3d
       1.4636046 -0.011550035 0.09290412 0.08042944
000320 6d 95 b6 bc 99 63 a6 3e 5d 8a 27 c0 9f 8b 3f 3e
       -0.022288049 0.32497862 -2.61782 0.18705605
000330 8e 86 cb 3d 21 fc ee 3e 08 86 10 3d ae b7 11 3e
       0.09937774 0.46676734 0.035284072 0.14230224
000340 5d 5f 0f 3f b9 4e 9b be 0f 9e 26 3f 18 cd c8 3e
       0.5600489 -0.30333498 0.6508493 0.39218974
000350 30 ba e9 be 5f eb d1 be 59 1d ba 3d 9f 36 64 3e
       -0.45649862 -0.40999886 0.09087629 0.22286461
000360 93 f8 1a be cc 9d 54 bf e9 15 12 3f 61 b1 8d bf
       -0.15133886 -0.8305328 0.5706468 -1.1069757
000370 23 92 3d 3e cb 40 e9 3e 6e 86 cf 3e 7e 41 0b bd
       0.18512778 0.45557246 0.4053225 -0.033998005
000380 71 48 81 bf 4f 06 da be df a2 db be 33 30 f9 be
       -1.0100232 -0.42582938 -0.42897698 -0.48669586
000390 f9 59 eb 3d d3 73 7a bd e1 b2 8d 3d 78 05 c5 3e
       0.1149177 -0.061145615 0.06918884 0.38480735
0003a0 43 44 5e 3f b5 e8 1b 3e b1 0a 03 3e f2 21 fd be
       0.8682291 0.1522549 0.12797047 -0.4943996
0003b0 e6 2c 17 be 2b 3a 85 bf 0a 80 af be 31 34 13 be
       -0.14763221 -1.0408376 -0.34277374 -0.14375378
0003c0 9b 6c 6b 3f a5 ac 2e 3c b4 81 d6 bd c0 ae b8 be
       0.91962594 0.010661279 -0.10473958 -0.36070824
0003d0 e4 80 ac be 10 9d 8f bf f2 c1 29 3d 3f e8 a7 be
       -0.33692086 -1.1219807 0.041444726 -0.32794377
0003e0 45 f1 b0 bf b4 04 3a bf ee f4 39 bf 90 39 53 3d
       -1.382363 -0.72663426 -0.7263936 0.051568568
0003f0 29 c5 89 3f 5f b8 d6 3c a9 48 1c be a4 7b 2c bd
       1.0763294 0.026210962 -0.15262093 -0.0421101

fc2.weight f4 [32, 32]
000000 3e 8f 10 bf 0b ad 6b 3f 2d 79 0c 3f ce 09 69 3c
       -0.5646857 0.9206092 0.548724 0.014223529
000010 c0 e5 a2 3e 41 14 10 3f 12 ee e7 3e 42 6a 95 3e
       0.3181591 0.56280905 0.4529882 0.2918263
000020 be c3 67 3f 5b 9c 3c 3e 25 ed 20 bd 1d 3c fc 3e
       0.90533054 0.1841902 -0.03928866 0.49264613
000030 9b 04 47 3f 04 21 bc 3e 3c 46 04 bf 36 a4 39 3f
       0.777414 0.3674394 -0.5166967 0.7251619
000040 4f 7a 98 3e 17 bd 22 3f fa 9e b4 3e a0 01 7f 3e
       0.29780814 0.6356978 0.3527754 0.24902964
000050 11 5c f8 3e bb 12 18 3e a0 30 c2 3e 33 54 04 3f
       0.4850774 0.14850895 0.37927723 0.5169098
000060 37 dc d7 3d 28 4d d3 3d 4b 61 a7 3e f6 3e a4 3e
       0.105400495 0.10317451 0.32691416 0.32079285
000070 73 b9 e9 3e 10 a1 2d 3f 04 14 25 3f 02 41 bf 3f
       0.456493 0.67823887 0.64483666 1.4941714
000080 e2 58 70 be bd 46 4e 3f 57 45 8e 3d 13 16 90 3e
       -0.23471406 0.8057669 0.06946819 0.2814184
000090 90 44 08 3e 75 f2 b2 3e 1f 26 0b 3e 5c ca 41 bd
       0.13307405 0.34950605 0.13588761 -0.047312126
0000a0 17 0c e8 3e f7 63 81 3d 9b ac eb 3d 48 e9 75 3d
       0.45321724 0.06317895 0.11507531 0.060036927
0000b0 b4 c6 ba 3d cc c7 0d 3e a6 08 5f bf 8c 22 7d 3f
       0.09119931 0.13845748 -0.8712257 0.9888084
0000c0 5e 5f d0 3e 0a b2 0c 3c eb c1 f9 3e 74 71 0a 3f
       0.4069776 0.00858737 0.4878076 0.54079366
0000d0 35 b7 68 3e 78 41 14 3d d4 33 c3 3d 1b da 5f 3e
       0.22726138 0.03619525 0.0953137 0.21860544
0000e0 88 a9 dd 3d 55 78 ad 3c a4 11 fa 3e 12 59 db ba
       0.10823351 0.021175543 0.48841584 -0.0016734919
0000f0 ad 1f 48 3e e8 4d f9 3e 1a c5 3a 3f df 3c 95 3f
       0.19543333 0.4869225 0.72957003 1.1659201
000100 3d b4 ec be 78 43 7d 3f d5 ff 10 3e 08 f4 14 3e
       -0.4623126 0.98931074 0.14160092 0.14546216
000110 3a ba 96 3e 36 06 f1 3e 16 eb 85 3e 94 54 86 3d
       0.29438955 0.4707505 0.2615592 0.06559101
000120 7e be 36 3f 2b a7 2f be 68 75 d2 3d 13 6f 63 3e
       0.7138442 -0.17153613 0.102763 0.2221034
000130 30 71 c8 3e 7a 0d 90 3e 92 fc c3 be 83 af 57 3f
       0.39148855 0.28135282 -0.38278633 0.84252185
000140 df 6b bc 3e 40 e4 c1 3e 88 f8 33 3f c7 97 29 3f
       0.3680105 0.37869453 0.70301104 0.6624722
000150 fd e8 18 3e 84 b8 54 3e 2b a3 e3 3e b4 a4 dd 3e
       0.14932628 0.20773512 0.44460425 0.4328972
000160 f0 a2 ff bd 17 ee 31 3d e3 d4 09 3f e2 96 6e 3d
       -0.1248225 0.04343995 0.53840464 0.05824936
000170 e7 c7 d4 3d 4e 32 24 3f eb 06 fa 3e 1c 42 a0 3f
       0.10389691 0.6413926 0.48833403 1.2520175
000180 65 76 07 be 4f f5 9c 3d 77 d8 e3 3e 0d 85 d9 3e
       -0.13228758 0.076639764 0.44501087 0.42484322
000190 30 75 2f 3e 81 e4 fa 3e 9e a8 6d 3c 2c 0a 78 be
       0.17134547 0.4900246 0.0145055335 -0.2422263
0001a0 fd 88 fb 3e 93 af 35 bc 5e 3e 3b bf a7 06 a7 3e
       0.4912795 -0.011089223 -0.7314204 0.32622263
0001b0 3a 36 2a 3f 7e bc 10 3e 5a b2 f3 be 98 e9 81 be
       0.66488993 0.14134404 -0.4759701 -0.2537353
0001c0 3d ae 7b 3e 3b 6a 04 3f 45 e3 5d bf 8a 83 4e 3e
       0.24578185 0.51724595 -0.8667491 0.20167366
0001d0 f2 7e 15 be 43 21 c3 bd 79 84 82 3e 8c de b3 3e
       -0.14599207 -0.095278285 0.25491694 0.35130727
0001e0 98 25 a0 be 11 b3 67 3a 98 f8 df 3e ea 5b 19 3e
       -0.31278682 0.00088386337 0.4374435 0.14976469
0001f0 b5 be 51 3e be 4a 00 bf 4b e6 0a be 99 5a 82 3f
       0.20482905 -0.5011405 -0.13564412 1.0183898
000200 d7 62 93 be c4 17 37 3f a9 f3 47 3f 91 b5 03 bd
       -0.28786346 0.7152064 0.7810617 -0.032155577
000210 75 c7 e8 3c cb 1d ba 3e 4f 1a 6e 3e 72 97 9f 3c
       0.028415421 0.36350855 0.23252223 0.019481394
000220 64 42 32 3f a2 18 01 3e 0f 18 5a be 09 16 cc 3e
       0.69632554 0.12607053 -0.2129824 0.3986056
000230 8f ef 66 3f fa 7c 9b 3d 2d 4b b2 be c6 7a 6e 3f
       0.9020929 0.07592197 -0.3482298 0.9315609
000240 59 b7 e0 3e e2 da 41 3f 91 c9 d5 3d 24 e3 0d 3f
       0.43889883 0.75724614 0.10438836 0.55424714
000250 f7 5e 2b 3e b0 95 d0 3b ab 41 c9 3e 6c e9 91 3e
       0.16735445 0.0063655004 0.39307913 0.284984
000260 9a b3 59 3e 6c 4d c9 3e 5e 5e d2 3d 9a 8b 45 bd
       0.21259919 0.3931688 0.10271905 -0.048228838
000270 74 22 99 3e 94 c7 a3 3e db b1 c1 3e a2 b9 b2 3f
       0.29909098 0.31988204 0.37831005 1.3962901
000280 c6 94 cf be 7b c7 5a 3e fb 01 8c 3e 31 04 fd be
       -0.40543193 0.21365158 0.2734526 -0.4941726
000290 61 3b 4a bd 9e e9 93 be 53 cb b3 3e 56 e2 51 3e
       -0.049373034 -0.28889173 0.35116062 0.20496497
0002a0 7f 1e 19 3f 62 67 c0 3d ea 4c 85 3e 47 43 4d 3d
       0.5981216 0.09394719 0.26035243 0.05011299
0002b0 81 12 96 3d 9c 2d 77 3e 7c be 09 3f 45 85 a4 bf
       0.07327748 0.24138492 0.5380628 -1.2853171
0002c0 d2 0a a9 be 88 2f 17 3e f9 f3 6e 3f 2a 8a 18 3d
       -0.33016068 0.14764225 0.9334102 0.03724114
0002d0 4a 18 f6 3d 96 b8 76 3a be 74 b4 3c bd 6e c1 3d
       0.120163515 0.0009411661 0.022028323 0.0944495
0002e0 9b 07 51 be cb ae ff be ea 0e 5f 3d c7 4b 94 3e
       -0.20413058 -0.49938044 0.054457583 0.28964064
0002f0 ec e7 4b be 5d 3f b1 3e b7 e0 47 bf 8e 8d 1b 3f
       -0.1991269 0.34618655 -0.7807726 0.6076287
000300 c6 f8 1a bf 0d a7 2d 3f 44 34 fc 3e f6 ed e4 3e
       -0.6053585 0.67833024 0.49258626 0.447128
000310 a4 63 da 3e 8b 8b 01 3f d5 53 87 3d 6d 76 25 bd
       0.42654145 0.5060355 0.066077866 -0.040396143
000320 8c 5f 05 3f a2 af cf 3e 21 48 91 bd 54 d1 04 3e
       0.5209892 0.40563685 -0.070938356 0.12970477
000330 5b ae bb 3d 47 20 9d bc 3f 16 d3 be 9a 3d fb 3e
       0.09164115 -0.01918043 -0.4122791 0.49070436
000340 e3 0b c7 3e 01 3d c2 3e a0 c8 09 3f 65 dc a6 bc
       0.38876256 0.37937167 0.53821754 -0.020368764
000350 c7 49 a6 bd 5c 45 bd bd 83 26 e9 3e af 9f 21 3f
       -0.08119541 -0.09241745 0.45537195 0.6313428
000360 7e 01 67 be b4 a1 a7 bd 3d ac 21 3f 05 23 6b be
       -0.22559163 -0.08185139 0.6315344 -0.22962578
000370 e6 0b 8c 3d 9b e6 2a 3f 48 e5 fe 3e cc 2c 8b 3f
       0.06838207 0.66758126 0.49784303 1.0873046
000380 84 b3 19 40 33 dd da bc e8 99 da bf 0e bb 32 3f
       2.4015818 -0.026716804 -1.7078218 0.6981667
000390 f6 af 97 bf ee 2f 44 3c b8 23 8c bf 9b 62 c6 bf
       -1.1850574 0.011974318 -1.09484 -1.5498842
0003a0 84 2c 62 bf 86 b9 70 be 93 db 46 3f 56 aa 44 bf
       -0.88349175 -0.23508272 0.77678794 -0.7682241
0003b0 5a 42 80 3f c8 4f 8f bf 86 4f d0 3f 59 45 79 be
       1.0020249 -1.1196222 1.6274269 -0.2434286
0003c0 24 6c b7 be 2f 25 f8 bf 84 c9 80 3e e8 d6 8b 3e
       -0.35824692 -1.9386348 0.25153744 0.27312398
0003d0 62 aa d1 bf 13 01 88 bf 7b cb 08 3c 0e 1c b0 be
       -1.6380122 -1.0625328 0.008349295 -0.34396404
0003e0 3c b6 88 3f 95 41 b1 3e 80 1d 85 bc 94 7b a5 bf
       1.0680614 0.34620348 -0.016249418 -1.2928338
0003f0 e1 bf 90 bf 93 ce 01 3e 4c 8a 00 be f1 e7 fb be
       -1.1308557 0.12676458 -0.12552756 -0.49200395

fc3.weight f4 [4, 32]
000000 40 63 f9 be 7c bc d5 be 06 21 cb be 0e 40 5b be
       -0.48708534 -0.41745365 -0.39673632 -0.21411154
000010 89 17 a7 be 7b 54 ca bd 5d 50 c1 be c1 55 ff 3f
       -0.32635143 -0.098793946 -0.37756625 1.9948045
000020 dc 3a 21 40 2b d3 3c 40 a1 f1 3a be b9 83 97 be
       2.5192175 2.9503887 -0.18256237 -0.29592684
000030 74 39 db be a1 23 bb 3f 9d 8d 05 bf 25 a0 01 bf
       -0.4281727 1.4620248 -0.5216921 -0.50634986
000040 29 14 5f 40 58 80 ff be f6 d2 39 bf 4b 3b 04 bf
       3.4856055 -0.49902606 -0.72587526 -0.51652974
000050 ac 5d 04 bf 4b 48 cd 3f e6 f4 a5 be 0c e9 16 be
       -0.5170543 1.6037687 -0.32413405 -0.14737338
000060 a9 3b 6c be 58 87 a9 be 80 55 ab bd 64 05 e2 bd
       -0.23069634 -0.33111072 -0.08365917 -0.110361844
000070 a8 69 15 bf ab 8c 53 be b7 e0 1f 40 88 81 d8 be
       -0.58364344 -0.2065913 2.4980905 -0.42286325
000080 f1 24 de be 55 7e 07 bf 83 4f 9c be 94 c7 dc bd
       -0.4338756 -0.5292714 -0.30529413 -0.10780254
000090 73 c9 36 bf 9a ca 72 bf 12 89 9f bd 50 eb 2b 40
       -0.7140114 -0.94840395 -0.07789816 2.6862373
0000a0 84 98 03 40 b3 ca 20 40 54 ac c9 be e8 2a 17 bf
       2.0561838 2.5123718 -0.39389288 -0.59049845
0000b0 d5 ef 13 bf 6b 86 f0 3f 4d 24 af be 1d 80 0d bf
       -0.5778783 1.8791021 -0.34207383 -0.5527361
0000c0 1b 4d 68 40 18 48 31 bf f2 be d6 be 55 a0 17 bf
       3.6297061 -0.6925063 -0.41942555 -0.5922902
0000d0 97 2b 6a be 7f 02 e5 3f 1f cd 1c bf f9 54 da be
       -0.2286819 1.7891387 -0.6125049 -0.42642954
0000e0 5f 6f 8b bd cc 0f f9 be bb 39 7a bd 3d 59 06 3d
       -0.06808352 -0.48644865 -0.061090212 0.032799948
0000f0 bd f8 22 bf 10 61 81 be 00 dc 26 40 8b c5 dc bc
       -0.63660794 -0.25269365 2.6071777 -0.026949665
000100 48 c2 12 bf bd e1 ea be d8 e9 9a be df 6f 65 bf
       -0.573277 -0.4587535 -0.30256534 -0.89623827
000110 a9 89 02 bf 69 42 ec 3c 3e 24 2d bf a1 9e 05 40
       -0.509913 0.02884026 -0.67633426 2.087807
000120 f9 39 35 40 7f 6a 2e 40 85 2b 01 bf 66 e6 95 be
       2.8316634 2.72525 -0.5045703 -0.29277343
000130 b1 7b 12 bf 03 3f ae be 2f 02 8b be 08 0f c7 be
       -0.5721999 -0.3403245 -0.27150103 -0.38878655
000140 37 ff dd 3f 89 90 8c be 01 dd 88 bf d7 d8 7b be
       1.734351 -0.27454022 -1.0692445 -0.24594437
000150 1d e7 be bc c5 61 0b 40 12 a4 e4 be 50 46 04 bf
       -0.023303563 2.1778424 -0.44656426 -0.5166979
000160 09 72 3b bf b6 30 8c be f4 72 36 40 0d f1 c6 3d
       -0.7322088 -0.27380913 2.8507662 0.097139455
000170 4b ce 29 bf d1 c3 27 bf a5 87 58 3f ae 98 47 be
       -0.66330403 -0.6553317 0.8458198 -0.19491836
000180 71 8e c3 be 93 4c 01 bf a9 e7 0b bf 28 c4 65 be
       -0.38194612 -0.5050747 -0.5465036 -0.22438109
000190 ea 15 06 be 88 b0 5e bf 90 59 08 bf c6 67 5a 3f
       -0.13094297 -0.86988115 -0.5326166 0.85314596
0001a0 54 3a 1e 40 e0 10 60 40 d1 46 d8 be 3d 24 0d bf
       2.47231 3.50103 -0.4224153 -0.5513342
0001b0 90 bb 05 bf 6f b0 d4 3f 44 54 e9 be 01 d7 b7 bd
       -0.5223932 1.6616343 -0.45572102 -0.089765556
0001c0 13 b9 57 40 f9 a4 22 be 2c 36 65 bf 0e 00 fa be
       3.370671 -0.15883245 -0.89535785 -0.48828167
0001d0 03 2a ec be 3f e3 d6 3f 07 3f b0 be 6d 5a b7 be
       -0.46125802 1.67881 -0.34423086 -0.35811177
0001e0 ad 86 f9 be b0 45 17 bf 12 d9 47 3e 80 55 88 3d
       -0.48735562 -0.5909071 0.195164 0.06656933
0001f0 ba fa bb be 2b 40 46 be 37 47 4b 40 21 24 26 bf
       -0.36714727 -0.19360416 3.1762216 -0.6489888
