dqn/exercise/models/checkpoint411_-30.722411803441684.pth (torch, 7111 bytes, 3 tensors)

fc1.weight f4 [32, 8]
0	0x3e9c9c8a	0.3058818
1	0xba0c8569	-0.0005360456
2	0xbf2adaff	-0.6674041
3	0x3d813d8b	0.063105665
4	0x401bd6f1	2.434994
5	0xbee57678	-0.44816947
6	0x3ec9cc74	0.39413798
7	0x3ef40d42	0.47666365
8	0xbd456cd0	-0.048199475
9	0x3e8da3fc	0.27664173
10	0xbdbf8eee	-0.093534335
11	0xbe4489d5	-0.19193204
12	0xbf4cc90a	-0.7999426
13	0xbfa0f8fd	-1.2575985
14	0xbe9fca9a	-0.3120926
15	0xbe9ac9bb	-0.30232033
16	0x3e559305	0.20856865
17	0x3e8b7c32	0.2724319
18	0xbe42ead7	-0.19034897
19	0xbf03ee07	-0.51535076
20	0x3f3eaa78	0.74478865
21	0x3f82c8de	1.021755
22	0xbd1249a1	-0.03571475
23	0x3e92bd64	0.2866012
24	0x3f24b5d2	0.64339936
25	0x3bcd4f42	0.006265552
26	0x3f9f82fb	1.2461847
27	0x3e7a3a2b	0.24436252
28	0xbf8477f1	-1.0349103
29	0xbf1757ea	-0.5911852
30	0xbe4700c1	-0.19433881
31	0x3e40aec1	0.18816663
32	0xbed3cac6	-0.4136564
33	0xbfb18457	-1.3868512
34	0xbe80ac80	-0.25131607
35	0xbf8961d3	-1.0732979
36	0xbe25ca5d	-0.16190477
37	0x3e56ff00	0.20995712
38	0x3e96b0e7	0.2943184
39	0x3e98a6e0	0.29814816
40	0x3f3380b2	0.7011825
41	0xbf8af5bd	-1.0856243
42	0x3edf13b7	0.4356973
43	0xbedca389	-0.43093517
44	0xbf4826e4	-0.7818434
45	0xbf265ffd	-0.64990216
46	0x3e8bfcba	0.27341253
47	0x3ea7689a	0.32696992
48	0x3b41e3f1	0.0029585327
49	0xbf7caec6	-0.98704183
50	0xbd76bdd2	-0.06023962
51	0xbf3cc1b1	-0.7373305
52	0x3efed42b	0.49771246
53	0x3e9fd5bd	0.31217757
54	0x3ee9e0f4	0.45679438
55	0xbe99c725	-0.30034748
56	0x3f072327	0.52788013
57	0xbfdd355b	-1.7281908
58	0x3c22a270	0.009926423
59	0xbf8cc115	-1.0996424
60	0x3e16f817	0.14743076
61	0x3e569f27	0.2095915
62	0x3d8cf4be	0.06882618
63	0x3dc27dcd	0.09496651
64	0x3f28c9eb	0.659331
65	0x3d87f55c	0.066385955
66	0x3e13f32f	0.14448236
67	0xbe607f8b	-0.21923654
68	0x3f3463b1	0.70464617
69	0x3f98650c	1.1905837
70	0x3d7371a0	0.059434533
71	0xbd0cf0a1	-0.03440917
72	0x3eac9397	0.33706352
73	0x3f58a4b6	0.8462633
74	0x3e610f13	0.21978407
75	0x3fab6916	1.3391445
76	0x3c824778	0.01590322
77	0xbf14bfe6	-0.58105314
78	0x3dc46bc1	0.09590865
79	0xbf235abf	-0.6381034
80	0xbd7af61b	-0.06126986
81	0x3f071d9a	0.52779543
82	0x3f2b9900	0.67030334
83	0xbff63b8e	-1.9236925
84	0xbf13c221	-0.5771809
85	0xbf1316a2	-0.5745641
86	0x3ee072ff	0.43837735
87	0xbd30a00c	-0.043121383
88	0x3f5ffcb8	0.87494993
89	0xbf4f4c72	-0.8097602
90	0x3f77cd7f	0.9679794
91	0xbe29f183	-0.16596036
92	0x3ec51e6c	0.38499773
93	0x3eafc8a0	0.34332752
94	0xbdaf1138	-0.08548206
95	0x3da43c22	0.08019282
96	0xbd201d7c	-0.03909062
97	0xbe8c4b7d	-0.27401343
98	0xbeb15f43	-0.3464299
99	0xbe53d77f	-0.20687674
100	0x3f59c7c0	0.8507042
101	0x3f81d9df	1.0144614
102	0x3d11e4bb	0.035618525
103	0xbe8eb2a6	-0.27870673
104	0xbf05bcb7	-0.5224108
105	0xbf7f6dc8	-0.9977689
106	0xbe664718	-0.22488058
107	0xbf89d5ca	-1.0768368
108	0x3e30896d	0.17239924
109	0x3e0d59aa	0.13803735
110	0xbc50d7c0	-0.012746751
111	0x3e93bbf9	0.2885435
112	0xbdd10555	-0.10206095
113	0x3f64c25a	0.89359057
114	0x3f33ad2f	0.7018613
115	0xbf9768df	-1.1828879
116	0xbe9ba850	-0.3040185
117	0x3f048a28	0.5177331
118	0xbf1ab222	-0.6042806
119	0x3e31f070	0.17376876
120	0xbe3cf770	-0.18453765
121	0xbe9ff4a2	-0.31241328
122	0xbe565ef2	-0.20934656
123	0x3e4b8b4c	0.19877356
124	0xbf2fbad0	-0.6864443
125	0xbf9539b8	-1.1658239
126	0xbe694e9f	-0.22783898
127	0xbe55d160	-0.20880651
128	0x3f12744e	0.57208717
129	0xbf47b557	-0.7801108
130	0x3e72edf7	0.23723589
131	0xbe8e9805	-0.27850357
132	0xbf1f9ac9	-0.6234556
133	0xbf197eef	-0.5995931
134	0x3ebc97d5	0.3683459
135	0x3e7b73be	0.24555871
136	0xbee13139	-0.43982866
137	0x3ddee58d	0.10883627
138	0x3e86b9d2	0.26313645
139	0x3cf4f7dc	0.029903345
140	0x3f2c03d0	0.6719332
141	0x3fadb2b4	1.3570161
142	0x3e8fd9fc	0.28095996
143	0xbf0a00e6	-0.5390762
144	0xbed545ca	-0.41654807
145	0x3d8a2cc7	0.06746822
146	0x3c905a88	0.017621294
147	0xbcb7a705	-0.022418508
148	0xbed39881	-0.4132729
149	0xbf992426	-1.1964157
150	0xbedd953a	-0.43277913
151	0x3e4b991e	0.19882628
152	0xbe289e32	-0.16466597
153	0xbf619e38	-0.8813205
154	0x3d95a591	0.0730697
155	0xbf716179	-0.94289356
156	0xbe6f7a70	-0.2338655
157	0xbf1cf097	-0.6130461
158	0x3cd5bfcb	0.02609243
159	0xbdd19cc2	-0.10234977
160	0x3d3214da	0.043476917
161	0xbf889bfe	-1.0672605
162	0xbeadeeb0	-0.33971167
163	0xbf8839de	-1.064266
164	0x3e97da8f	0.29658934
165	0x3ea64a27	0.3247845
166	0xbc9f3704	-0.019435413
167	0x3e3ea003	0.18615727
168	0x3e9e7b2d	0.3095335
169	0xbf89a3bc	-1.0753093
170	0x3ec8453f	0.3911533
171	0xbf5f3cb8	-0.87202024
172	0x3f235668	0.6380372
173	0x3e4134dd	0.18867822
174	0xbe180c13	-0.14848356
175	0x3e013bbf	0.12620448
176	0x3eb99b17	0.36251137
177	0xbf7e779d	-0.99401265
178	0x3f052562	0.52010167
179	0xbeb61ccc	-0.35568845
180	0xbf00feb3	-0.5038864
181	0xbf0fbf5e	-0.5615138
182	0x3e854c10	0.26034594
183	0x3ed8d431	0.4234939
184	0x3f6a072c	0.91417193
185	0xbf3ff834	-0.749881
186	0x3e1a1e1b	0.15050547
187	0xbe77af54	-0.24187976
188	0xbf0ac5f6	-0.54208314
189	0xbde23c9b	-0.11046716
190	0x3edf0437	0.43557903
191	0x3e741e45	0.23839672
192	0x3eb243aa	0.3481725
193	0xbdf405a3	-0.119151376
194	0xbf4c5b75	-0.7982705
195	0xbfcb587e	-1.5886381
196	0x3fa1ed08	1.2650461
197	0xbd4931e8	-0.04911986
198	0x3dd0840f	0.10181438
199	0x3e166422	0.14686635
200	0x3db3875f	0.08766054
201	0x3e9565fc	0.2917937
202	0xc0002052	-2.0019727
203	0xbe5d1fbd	-0.21594138
204	0x3ebe7da1	0.37205222
205	0x3ee5c936	0.44880074
206	0xbd9c6706	-0.07636838
207	0x3e634776	0.22195229
208	0x3f23b07b	0.6394116
209	0xbea42ca3	-0.32065305
210	0x3ed65306	0.41860217
211	0x3d509b9e	0.050929658
212	0xbf0f8ddc	-0.56075835
213	0xbf1bda20	-0.6087971
214	0x3d0fae4b	0.035078328
215	0x3e77b707	0.24190913
216	0x3c034ed9	0.008014404
217	0xbfa24c64	-1.2679563
218	0x3e5837ba	0.21115008
219	0xbf992a29	-1.1965991
220	0x3e5427c4	0.20718294
221	0x3e85799c	0.26069343
222	0x3ea144fe	0.3149795
223	0xbc629e65	-0.0138317095
224	0xbf5a6315	-0.8530744
225	0xbf50aea6	-0.8151649
226	0xbedf638b	-0.43630633
227	0xbf3ffaee	-0.74992263
228	0x3d0ad8ed	0.033898283
229	0x3cf4725f	0.029839693
230	0x3dacb613	0.084331654
231	0x3ecc773d	0.39934722
232	0x3f3f8b12	0.7482158
233	0x3e0fec43	0.1405497
234	0x3dab5b31	0.08367003
235	0xbe54b7d0	-0.20773244
236	0xbf09b2ba	-0.5378834
237	0xbf8b41fc	-1.0879512
238	0xbe6f0bc7	-0.23344336
239	0x3cff516a	0.031166751
240	0x3f46cd7f	0.7765731
241	0x3d280a5d	0.04102551
242	0xbde7d049	-0.11319024
243	0xbe676109	-0.2259561
244	0xbf18cc8b	-0.5968711
245	0xbf8a2f01	-1.0795594
246	0x3d731017	0.059341516
247	0xbe51d00e	-0.20489523
248	0xbf9c743a	-1.222297
249	0xbf4fb7a4	-0.8113959
250	0xbf431e35	-0.7621797
251	0x3d169b2a	0.03676907
252	0x3f7fab21	0.99870497
253	0x3e38ee37	0.18059622
254	0xbe457522	-0.19282964
255	0xbe6ef7c4	-0.23336703

fc2.weight f4 [32, 32]
0	0xbec53332	-0.3851562
1	0x3f546e97	0.82981247
2	0x3ef2cfae	0.47424072
3	0x3e958989	0.29206493
4	0x3ef922a7	0.4865925
5	0x3f28892e	0.6583432
6	0x3f20c5e4	0.6280196
7	0x3f4a78ac	0.7909038
8	0x3f727bc0	0.9472008
9	0x3e88f8ac	0.26752222
10	0x3b135046	0.0022478267
11	0x3f18c00f	0.5966806
12	0x3f599924	0.849993
13	0x3f1ed756	0.62047327
14	0xbf020431	-0.50787646
15	0x3f28a5be	0.658779
16	0x3ec418b3	0.38300094
17	0x3f5ff225	0.8747886
18	0x3f0729df	0.52798265
19	0x3e938b65	0.28817287
20	0x3f6414dd	0.89094335
21	0x3ebe80bb	0.3720759
22	0x3ee9f318	0.45693278
23	0x3f1db6db	0.6160714
24	0x3e79e723	0.24404578
25	0x3e9ad0a3	0.30237302
26	0x3ee6e3ce	0.45095676
27	0x3f0c8db6	0.54903734
28	0x3f0d26a0	0.5513706
29	0x3f3268ea	0.69691336
30	0x3f1b29c6	0.60610616
31	0x3fab8c52	1.3402197
32	0xbe31b28b	-0.17353265
33	0x3f4dcfd7	0.80395263
34	0xbcf4dbe1	-0.029890003
35	0x3ee2899c	0.44245613
36	0x3e9872d5	0.2977511
37	0x3ee62e7d	0.44957343
38	0x3e8ecacd	0.278891
39	0x3ec0b401	0.37637332
40	0x3edf082a	0.43560916
41	0x3e443925	0.19162424
42	0x3e83eed1	0.2576814
43	0x3e19fdf1	0.15038277
44	0x3e27ba18	0.16379583
45	0x3eb20440	0.34768867
46	0xbf3f9580	-0.74837494
47	0x3f6a0016	0.9140638
48	0x3eff30d3	0.49841937
49	0x3e897fe9	0.268554
50	0x3f321832	0.6956817
51	0x3efe0f36	0.4962098
52	0x3f103b53	0.5634052
53	0x3e636018	0.22204626
54	0x3e38bab3	0.1803997
55	0x3eaa1d91	0.33225682
56	0x3e2830ea	0.16424909
57	0x3d9f2a2c	0.077717155
58	0x3f1954e2	0.59895146
59	0x3e52e8d2	0.20596626
60	0x3e931091	0.28723577
61	0x3f065ecf	0.52488416
62	0x3f388f66	0.7209381
63	0x3f871484	1.0553136
64	0xbe944e67	-0.28966066
65	0x3f51759e	0.81820095
66	0x3d833d21	0.06408144
67	0x3eab5e09	0.3347018
68	0x3f02f05a	0.51148
69	0x3f11d3e8	0.5696397
70	0x3ee47804	0.44622815
71	0x3eedc189	0.46436718
72	0x3f449f5c	0.76805663
73	0xbe26f1d5	-0.16303189
74	0x3e00a17c	0.12561601
75	0x3e8dac3d	0.2767047
76	0x3f029eb4	0.5102341
77	0x3f035468	0.5130067
78	0xbef132b5	-0.47109
79	0x3f453aff	0.77043146
80	0x3eef915e	0.46790594
81	0x3f0ecf8b	0.55785435
82	0x3f538400	0.8262329
83	0x3f195225	0.5989097
84	0x3eeab358	0.45839953
85	0x3eb0a46a	0.34500438
86	0x3f0a083b	0.5391881
87	0x3f0c20ef	0.5473775
88	0xbc82af9f	-0.015952883
89	0x3e0fdd33	0.14049225
90	0x3f1b0076	0.6054758
91	0x3e984c00	0.29745483
92	0x3e896449	0.26834324
93	0x3f1e2d55	0.6178792
94	0x3eed18b7	0.46307918
95	0x3f9a4f05	1.2055365
96	0xbe6057e0	-0.21908522
97	0x3d8cb19e	0.06869815
98	0x3edf8703	0.43657693
99	0x3eed19ac	0.4630865
100	0x3e814bb9	0.25253084
101	0x3ee57034	0.44812167
102	0x3e2a1393	0.1660903
103	0x3ea456ea	0.3209756
104	0x3ee30901	0.44342807
105	0xbf07336d	-0.52812845
106	0xbf04c0db	-0.51856774
107	0x3eb7b54c	0.35880506
108	0x3f377952	0.71669495
109	0x3eca6672	0.39531285
110	0xbe360439	-0.17775048
111	0xbea2319a	-0.31678468
112	0x3e3cc69f	0.18435143
113	0x3f4a166f	0.7894048
114	0xbf1cc57f	-0.61238855
115	0x3e8e3357	0.27773544
116	0x3e923319	0.2855461
117	0x3d9c60fa	0.07635684
118	0x3e399388	0.18122685
119	0x3e841bd8	0.25802493
120	0x3d03eb9e	0.032207124
121	0x3e68a754	0.2272008
122	0x3ee3656a	0.4441331
123	0x3eb4c800	0.35308838
124	0x3e9280c2	0.2861386
125	0xbdae64c2	-0.08515312
126	0x3d8ced12	0.06881155
127	0x3f793964	0.97353196
128	0xbe83e627	-0.2576153
129	0x3f2e1a05	0.6800845
130	0x3f2ef234	0.6833832
131	0x3e79defd	0.2440147
132	0x3df92e9b	0.121670924
133	0x3eefd286	0.46840304
134	0x3e961874	0.2931553
135	0x3ed4a417	0.4153144
136	0x3f38e358	0.722219
137	0x3e1468b8	0.14493072
138	0xbe200c87	-0.15629779
139	0x3f1054a9	0.5637918
140	0x3f610918	0.879045
141	0x3e771a87	0.24131213
142	0xbe926be6	-0.28597945
143	0x3f586ee2	0.84544194
144	0x3f061698	0.52378225
145	0x3f7c0443	0.98444
146	0x3e8633d3	0.26211414
147	0x3f07551f	0.5286426
148	0x3f0736e2	0.5281812
149	0x3e82ddf9	0.25559977
150	0x3ef51440	0.47867012
151	0x3ecb70ac	0.397344
152	0x3e8d66c4	0.27617466
153	0x3f1f5293	0.62235373
154	0x3e8813df	0.2657766
155	0x3dcdc7d0	0.10047877
156	0x3e8f5fb5	0.28002706
157	0x3eb99812	0.36248833
158	0x3ec50345	0.38479057
159	0x3f8ed804	1.1159673
160	0xbe6bf703	-0.23043446
161	0x3e739214	0.23786193
162	0x3e156cca	0.14592281
163	0xbe139406	-0.14411935
164	0xbdc35bb3	-0.095389746
165	0xbec22440	-0.37918282
166	0x3e83d2af	0.25746676
167	0x3e81ecaa	0.25375873
168	0x3f19691f	0.5992603
169	0x3d4e3380	0.050342083
170	0x3da43505	0.08017925
171	0x3e61fe21	0.22069599
172	0x3e0e5834	0.13900834
173	0x3ccd1d65	0.02503843
174	0x3e805a76	0.25069016
175	0xbf418070	-0.75586605
176	0xbebdd075	-0.37073103
177	0x3e6b3012	0.22967556
178	0x3f856f67	1.0424622
179	0xbe855d8e	-0.2604794
180	0x3d8d421b	0.06897374
181	0x3dad3b5c	0.084585875
182	0xbc4ee942	-0.012628855
183	0x3d9ce1dd	0.076602675
184	0xbda6db3b	-0.08147284
185	0xbec26d96	-0.37974232
186	0xbe42e697	-0.19033276
187	0x3e4ec2a4	0.20191437
188	0xbe8b7db0	-0.2724433
189	0x3f23ccb3	0.6398422
190	0xbe43a288	-0.1910497
191	0x3f1d9bf5	0.61566097
192	0xbebec28f	-0.3725781
193	0x3f1159ae	0.56777465
194	0x3ecd7455	0.40127817
195	0x3f31fb13	0.69523734
196	0x3f17f849	0.5936323
197	0x3f057678	0.52133894
198	0x3e8e254f	0.2776284
199	0x3f084d83	0.53243273
200	0x3f0a5028	0.5402856
201	0x3efad55c	0.48990905
202	0xbd534ecf	-0.05158883
203	0x3e2fa966	0.17154464
204	0x3e632fa2	0.22186139
205	0x3e8994fb	0.26871476
206	0xbee5c8f1	-0.4487987
207	0x3eef513c	0.46741664
208	0x3ed0af38	0.4075868
209	0x3f1c45d3	0.61044043
210	0x3f3d545f	0.73956865
211	0x3e0f345d	0.13984819
212	0x3eb0e972	0.34553105
213	0x3e028ffb	0.12750237
214	0x3ee006b2	0.43755108
215	0x3f244852	0.6417285
216	0xbd1d8a49	-0.038461957
217	0x3da148d9	0.07875223
218	0x3f26be36	0.6513399
219	0x3cec763a	0.028864969
220	0x3e49f712	0.19723156
221	0x3f31e45a	0.6948906
222	0x3edc1bb9	0.429899
223	0x3f87b17e	1.0601041
224	0x3feb93bd	1.8404461
225	0xbdbb09d3	-0.09132733
226	0xbfcd0aa9	-1.6018878
227	0x3ea16d6e	0.315288
228	0xbf99777a	-1.1989586
229	0xbc4f753c	-0.012662228
230	0xbf55376c	-0.8328769
231	0xbfb567e0	-1.4172325
232	0xbf79ab35	-0.97526866
233	0xbe952509	-0.29129818
234	0x3f52cb74	0.82341695
235	0xbf6f49a7	-0.9347176
236	0x3ef4b92b	0.47797522
237	0xbfaa3864	-1.3298459
238	0x3fc7f3f1	1.562132
239	0xbe9eb2d6	-0.30995816
240	0xbeb6acb5	-0.3567864
241	0xc01d4ed8	-2.4579372
242	0x3dd454e6	0.103677556
243	0x3e633913	0.22189741
244	0xbfd06c7f	-1.628311
245	0xbf92bf75	-1.1464678
246	0xbc9fb0d6	-0.019493502
247	0xbe6474cd	-0.22310181
248	0x3f890c4e	1.070688
249	0xbd8a8f0b	-0.067655645
250	0xbd937058	-0.07199162
251	0xbf8fa114	-1.1221032
252	0xbf951c6d	-1.16493
253	0x3deb1928	0.114794075
254	0xbe25565a	-0.16146222
255	0xbeb0e48d	-0.3454937

fc3.weight f4 [4, 32]
0	0xbf143de6	-0.5790695
1	0xbef33d9c	-0.47507942
2	0xbeefba78	-0.46821952
3	0xbeabf27c	-0.33583438
4	0xbec8c992	-0.39216286
5	0x3e022fd2	0.12713555
6	0xbee9f684	-0.4569589
7	0x3fd6c2e0	1.6778221
8	0x401e94c3	2.4778297
9	0x40286777	2.631315
10	0xbe8bc090	-0.2729535
11	0xbebbb177	-0.36658832
12	0xbf02a607	-0.5103459
13	0x3f737bd3	0.95110816
14	0xbf1a364c	-0.602391
15	0xbf161021	-0.5861836
16	0x4043a858	3.05715
17	0xbf0ec5e0	-0.55770683
18	0xbe91214a	-0.2834571
19	0xbf1c09d9	-0.60952526
20	0xbf08ed00	-0.53486633
21	0x3fc4b91a	1.5368989
22	0xbec6fceb	-0.38864836
23	0xbe86a8c5	-0.26300636
24	0xbea0a4c9	-0.3137572
25	0xbed8868c	-0.4229015
26	0x3c9ceda0	0.019156277
27	0xbde20564	-0.110361844
28	0xbf285432	-0.6575347
29	0xbea079b5	-0.31342855
30	0x40054bda	2.0827546
31	0xbef82106	-0.48462695
32	0xbeee34a9	-0.46524552
33	0xbf0fab9c	-0.5612123
34	0xbeb27a7e	-0.3485908
35	0xbe3072a1	-0.17231227
36	0xbf3c1610	-0.73471165
37	0xbec81205	-0.39076248
38	0xbe22f545	-0.15913875
39	0x402a248a	2.6584802
40	0x4002d56b	2.044276
41	0x3ffc9c56	1.973521
42	0xbee00a3f	-0.43757817
43	0xbf1e1371	-0.61748415
44	0xbf1d79c2	-0.6151391
45	0x3fbc5332	1.4712889
46	0xbebbae40	-0.3665638
47	0xbf0c2e83	-0.5475847
48	0x40376c32	2.8659787
49	0xbf2df08a	-0.6794516
50	0xbec46af2	-0.38362843
51	0xbf15ff04	-0.5859225
52	0xbe84c509	-0.25931576
53	0x3fdebdcf	1.7401675
54	0xbf1f01a4	-0.6211188
55	0xbed81304	-0.42202008
56	0xbe138290	-0.14405274
57	0xbf029697	-0.5101103
58	0x3d0f775d	0.035025943
59	0x3d06593d	0.032799948
60	0xbf2c183a	-0.67224467
61	0xbea06a61	-0.3133116
62	0x3ff9c123	1.9512066
63	0xbda20938	-0.079119146
64	0xbf18a086	-0.5961994
65	0xbefc015d	-0.4921979
66	0xbea8eeb8	-0.32994628
67	0xbf372bb1	-0.7155104
68	0xbf06ecaf	-0.527049
69	0xbc97490c	-0.018467449
70	0xbf23d9a2	-0.64003956
71	0x3fd67433	1.6754211
72	0x401ee923	2.4829795
73	0x4020b4d1	2.5110362
74	0xbf072aad	-0.52799493
75	0xbea215d5	-0.31657282
76	0xbf1a8908	-0.60365343
77	0xbf738a79	-0.9513317
78	0xbe9f6fc8	-0.3113997
79	0xbed86b9f	-0.42269608
80	0x3feaf757	1.8356732
81	0xbea0aa25	-0.3137981
82	0xbf44b1a3	-0.7683355
83	0xbe9a396c	-0.30121934
84	0xbdb5117b	-0.08841225
85	0x3feb7825	1.839604
86	0xbeeb75b6	-0.45988244
87	0xbf02b997	-0.5106444
88	0xbf369d05	-0.7133334
89	0xbe9998da	-0.2999943
90	0x402ac646	2.6683517
91	0x3dc6f10d	0.097139455
92	0xbf2dcd75	-0.6789163
93	0xbf202ff8	-0.62573195
94	0x3ec34146	0.38135737
95	0xbe72ab25	-0.23698099
96	0xbee58379	-0.44826868
97	0xbf0bda53	-0.5463001
98	0xbf11622f	-0.5679044
99	0xbe874616	-0.2642066
100	0xbe4b0d42	-0.19829276
101	0xbf4870fe	-0.7829741
102	0xbf0f9f78	-0.56102705
103	0x3f12286b	0.5709292
104	0x40166e30	2.3504753
105	0x404188d7	3.023977
106	0xbeef43ca	-0.46731406
107	0xbf158486	-0.5840534
108	0xbf124589	-0.5713735
109	0x3f873769	1.0563785
110	0xbefab8ff	-0.48969266
111	0xbe3b1d56	-0.1827291
112	0x403f3ea5	2.9881985
113	0xbe651b67	-0.22373734
114	0xbf31d8e6	-0.69471586
115	0xbf0ab355	-0.5417989
116	0xbf013628	-0.5047326
117	0x3fc817b0	1.5632229
118	0xbed112f7	-0.40834782
119	0xbed1b854	-0.40960944
120	0xbf074e40	-0.52853775
121	0xbf205f99	-0.6264587
122	0x3e7d8f7e	0.24761769
123	0x3d885580	0.06656933
124	0xbed93760	-0.4242506
125	0xbe963ba8	-0.2934239
126	0x4038859d	2.883155
127	0xbf25f84c	-0.64831996
