dqn/exercise/models/checkpoint472_30.226913471445393.pth (torch, 7111 bytes, 3 tensors)

fc1.weight f4 [32, 8]
0	0x3ddd0ab6	0.107930586
1	0xbb0faabd	-0.0021921836
2	0xbe7cbfa5	-0.24682482
3	0x3dbf85c0	0.09351683
4	0x4033ca44	2.8092203
5	0xbeed3ca4	-0.46335328
6	0x3ea51d2d	0.32248822
7	0x3ee521a1	0.4475222
8	0xbd28c7af	-0.041206058
9	0x3eaf987d	0.34296027
10	0xbd19a358	-0.037509292
11	0xbf0a4ede	-0.5402659
12	0xbf34b091	-0.7058192
13	0xbfb3954e	-1.4029939
14	0xbe567c48	-0.20945847
15	0xbea4074e	-0.32036823
16	0x3ebd0e1f	0.36924836
17	0x3ee49acf	0.4464936
18	0xbd9e82fe	-0.077398285
19	0xbee39bfb	-0.4445494
20	0x3f714992	0.94252884
21	0x3f606d4d	0.8766678
22	0x3c86e276	0.016465407
23	0x3e805d29	0.25071076
24	0x3e6983c9	0.22804178
25	0xbbf597de	-0.0074949106
26	0x3fdc380c	1.7204604
27	0x3ee3f88f	0.44525573
28	0xbf88cb63	-1.0687069
29	0xbf1e5b47	-0.6185803
30	0xbe4d7def	-0.20067571
31	0x3dbd770b	0.09251221
32	0xbef4ab81	-0.47787097
33	0xbfa091b3	-1.2544464
34	0xbe14aaed	-0.14518328
35	0xbf5808c2	-0.84388363
36	0xbe0917fc	-0.13388056
37	0x3e6aa86c	0.2291581
38	0x3eb64c2a	0.35604984
39	0x3e93e524	0.28885758
40	0x3ef53edd	0.47899523
41	0xbf8843ab	-1.0645651
42	0x3ef9f26d	0.4881777
43	0xbe238018	-0.15966833
44	0xbf492d08	-0.7858434
45	0xbf223056	-0.63355005
46	0x3e981694	0.29704726
47	0x3e998117	0.299813
48	0xbdd02ba9	-0.101645775
49	0xbf6ce8d5	-0.92542773
50	0xbcc8875e	-0.02447861
51	0xbf120ade	-0.5704783
52	0x3f100c62	0.56268895
53	0x3e90dc8b	0.2829326
54	0x3ef657e9	0.48113945
55	0xbe8aa047	-0.27075407
56	0x3ef4a5b0	0.4778266
57	0xbfb87ab4	-1.4412446
58	0xbd267dd6	-0.04064735
59	0xbf79ba81	-0.9755021
60	0x3e89eefc	0.26940143
61	0x3e91f6cb	0.285086
62	0x3dba8aa5	0.091084756
63	0x3cbadb95	0.022809783
64	0x3f277eee	0.65428054
65	0x3e166ed8	0.14690721
66	0x3e89aa75	0.2688786
67	0xbdca176d	-0.09867749
68	0x3f2c30b0	0.6726179
69	0x3f8be10d	1.0928055
70	0x3da8fc68	0.08251268
71	0x3e11b026	0.14227352
72	0x3ea95abe	0.33077043
73	0x3f5fbcd0	0.8739748
74	0x3e6ed5d7	0.23323761
75	0x3fd22463	1.6417354
76	0x3e4df47c	0.20112795
77	0xbef39b0e	-0.47579235
78	0x3e2b4818	0.1672672
79	0xbf2d1c5d	-0.67621404
80	0xbd10ece8	-0.03538218
81	0x3f039fb8	0.51415586
82	0x3f218ebf	0.6310844
83	0xc004873d	-2.0707543
84	0xbf225e19	-0.6342483
85	0xbf013dae	-0.5048474
86	0x3eb75144	0.35804188
87	0xbdfc81c5	-0.12329439
88	0x3f2b99bc	0.67031455
89	0xbf4de508	-0.804276
90	0x3f81a272	1.0127699
91	0xbe3b87c3	-0.18313508
92	0x3f103ee1	0.56345946
93	0x3f01a338	0.5063968
94	0xbe211094	-0.1572898
95	0x3dcc3109	0.0997029
96	0xbdf80abe	-0.12111424
97	0xbe934c0d	-0.2876896
98	0xbe32738f	-0.17426895
99	0x3d4ec398	0.0504795
100	0x3f694aca	0.91129744
101	0x3f79468c	0.9737327
102	0xbe9ba3e1	-0.30398467
103	0xbeec9435	-0.46206823
104	0xbf1dc4cf	-0.6162843
105	0xbf5c6dda	-0.8610512
106	0xbd74f671	-0.059805337
107	0xbf5da524	-0.8658011
108	0x3e161f55	0.1466039
109	0x3e1177a3	0.14205794
110	0x3c90102e	0.01758584
111	0x3e944fb0	0.28967047
112	0xbdb432b9	-0.08798737
113	0x3f6a97b2	0.9163772
114	0x3f24e3ba	0.64409983
115	0xbf89c800	-1.076416
116	0xbf027e11	-0.5097361
117	0x3f0c5048	0.5481
118	0xbf328f6d	-0.697501
119	0x3e955824	0.29168808
120	0xbe8f9c02	-0.28048712
121	0xbf15efb3	-0.58568877
122	0xbe8a35ca	-0.26994163
123	0x3d8f5e31	0.070003875
124	0xbf313c04	-0.692322
125	0xbfa04129	-1.2519885
126	0xbe0b89a8	-0.1362673
127	0xbe82cfa5	-0.25549045
128	0x3ee1b8be	0.4408626
129	0xbf405f38	-0.7514529
130	0x3e6366d3	0.22207193
131	0xbde30b22	-0.11086108
132	0xbf16f874	-0.5897286
133	0xbf201d38	-0.62544584
134	0x3ebce597	0.36893913
135	0x3e52d30e	0.20588323
136	0xbf0aa058	-0.54150915
137	0x3e2a5dc7	0.16637336
138	0x3ed39942	0.41327864
139	0x3d22e4da	0.03976903
140	0x3ee9fa44	0.4569875
141	0x3f9b53e6	1.2134979
142	0x3e7a71e3	0.24457507
143	0xbf224dd0	-0.6339998
144	0xbf028cf9	-0.5099636
145	0x3d952dee	0.07284151
146	0x3cfd0e9d	0.030890757
147	0xbd22b139	-0.039719794
148	0xbe9d037b	-0.30666718
149	0xbf910f8e	-1.1332872
150	0xbecbdba7	-0.3981602
151	0x3e2241ba	0.15845385
152	0xbe8296f9	-0.25505808
153	0xbf3f378a	-0.7469412
154	0x3c5c2e06	0.013438707
155	0xbf84f169	-1.0386173
156	0xbebd02a4	-0.36916077
157	0xbf39eda0	-0.7262821
158	0x3d46bb92	0.048518725
159	0xbe2ee86e	-0.17080852
160	0xbd2f55ae	-0.04280632
161	0xbf4b05b8	-0.793056
162	0xbe84d5bc	-0.25944316
163	0xbf519aff	-0.8187713
164	0x3ece83e9	0.40335014
165	0x3edd5683	0.43230066
166	0xbd3d3205	-0.04619028
167	0x3e130597	0.14357601
168	0x3e841e5f	0.2580442
169	0xbf700330	-0.93754864
170	0x3f099490	0.53742313
171	0xbf535a86	-0.8256
172	0x3f363269	0.7117067
173	0x3e87a1df	0.26490685
174	0xbea0491b	-0.31305775
175	0xbc4c5fbd	-0.012473998
176	0x3e002a6d	0.12516184
177	0xbf75e444	-0.9605143
178	0x3f18570a	0.5950781
179	0xbdbdb9be	-0.09263943
180	0xbf0f4453	-0.5596363
181	0xbf182ae4	-0.59440446
182	0x3e853b7c	0.26021945
183	0x3ed1455d	0.40873232
184	0x3f4c44b3	0.79792327
185	0xbf059492	-0.52179825
186	0x3ea6676f	0.3250079
187	0xbdf53954	-0.11973825
188	0xbf0b1d0e	-0.5434121
189	0xbdee4389	-0.11633975
190	0x3ef0b810	0.4701543
191	0x3e0c27f3	0.13687114
192	0x3ea78cd5	0.32724634
193	0xbd567d8a	-0.052365817
194	0xbf1f3924	-0.62196565
195	0xbfbfea8b	-1.4993452
196	0x3fba7de2	1.4569666
197	0xbcc5c837	-0.024143321
198	0x3da4ae6c	0.08041081
199	0x3cc46cff	0.023977755
200	0x3b0fe0ea	0.0021954128
201	0x3eaace27	0.33360407
202	0xc0182de1	-2.3778002
203	0xbd2e2465	-0.042515177
204	0x3e97bc80	0.29636002
205	0x3f146e42	0.5798074
206	0xbc24cb88	-0.010058291
207	0x3e002e4f	0.12517665
208	0x3f00b6f1	0.50279146
209	0xbea984a8	-0.3310902
210	0x3f13ba5d	0.5770624
211	0x3e1ec36a	0.15504232
212	0xbf063e0c	-0.52438426
213	0xbefc6de4	-0.4930259
214	0x3da61bdb	0.08110782
215	0x3e6ac595	0.22926934
216	0xbdba8da8	-0.0910905
217	0xbf7992d1	-0.9748965
218	0x3ec3e54c	0.38260877
219	0xbf8f4b8f	-1.1194934
220	0x3e696c48	0.22795212
221	0x3ea21f69	0.3166459
222	0x3ec054e0	0.37564754
223	0xbd21d413	-0.03950889
224	0xbf7d06fb	-0.98838776
225	0xbf070d79	-0.5275493
226	0xbec07bfb	-0.3759459
227	0xbf1e6f59	-0.61888653
228	0x3d7edc31	0.06222171
229	0xbcfd7b9f	-0.030942736
230	0x3da7e48b	0.08197888
231	0x3eca0d2b	0.3946317
232	0x3f55108c	0.83228374
233	0x3e275534	0.16341096
234	0x3dae4989	0.085101195
235	0xbeca9747	-0.3956854
236	0xbe929468	-0.2862885
237	0xbf8ab614	-1.0836816
238	0xbeab2419	-0.33425978
239	0xbe064b1c	-0.1311459
240	0x3f5e21b5	0.8677018
241	0x3ba21871	0.0049467613
242	0xbe0b47a2	-0.13601544
243	0xbeb7905c	-0.35852325
244	0xbed8444a	-0.422396
245	0xbf92bb81	-1.1463472
246	0x3cba1cc9	0.022718804
247	0xbeb6031c	-0.35549247
248	0xbfa7300c	-1.3061538
249	0xbf3d7649	-0.74008614
250	0xbf33e100	-0.702652
251	0x3e009f4f	0.12560771
252	0x3f8d6e25	1.1049238
253	0x3e0b8bad	0.13627501
254	0xbe7dc62f	-0.24782632
255	0xbddd7276	-0.10812847

fc2.weight f4 [32, 32]
0	0xbf01d2d3	-0.5071232
1	0x3f66de09	0.9018255
2	0x3f0e019a	0.55471194
3	0x3e162d23	0.14665656
4	0x3ebfc9fe	0.37458795
5	0x3f17f83e	0.5936316
6	0x3f047ce8	0.5175309
7	0x3ef0b37c	0.47011936
8	0x3f7468cd	0.95472413
9	0x3e42c230	0.19019389
10	0x3c001d98	0.007819556
11	0x3f0e1148	0.5549512
12	0x3f61e415	0.8823865
13	0x3eeb8904	0.46002972
14	0xbf0889c7	-0.5333523
15	0x3f3d2212	0.7388011
16	0x3ea5bb25	0.32369342
17	0x3f46835e	0.775442
18	0x3ed7acbe	0.4212398
19	0x3eabdaa5	0.3356525
20	0x3f2f46c5	0.6846736
21	0x3eb26292	0.34840828
22	0x3ed17155	0.40906778
23	0x3f09958e	0.5374383
24	0x3e2ee386	0.17078981
25	0x3e3df8a6	0.18551883
26	0x3eb323d4	0.34988272
27	0x3ed8bc23	0.42331037
28	0x3f00005f	0.50000566
29	0x3f2ad301	0.66728216
30	0x3f1ee927	0.6207451
31	0x3fb8a076	1.4423969
32	0xbe5b3dee	-0.21410343
33	0x3f549a26	0.8304771
34	0x3d6f2c1b	0.05839167
35	0x3eb41eb9	0.3517969
36	0x3e39f0ac	0.18158215
37	0x3ec2fa7f	0.38081738
38	0x3e3fa64e	0.18715784
39	0x3dd75eaa	0.105161026
40	0x3ef89222	0.4854899
41	0x3c81088d	0.015751148
42	0x3e57a868	0.21060336
43	0x3e01ea5b	0.12687056
44	0x3e5133ee	0.20429966
45	0x3e56a400	0.20960999
46	0xbf599bf3	-0.85003585
47	0x3f820298	1.0157042
48	0x3eddf9b2	0.43354565
49	0x3e4dae7e	0.20086095
50	0x3f18073c	0.5938604
51	0x3f160966	0.5860809
52	0x3ec7b301	0.39003757
53	0x3e5edb2b	0.21763293
54	0x3dfa882e	0.122330055
55	0x3e7ac51f	0.24489258
56	0x3e0a7115	0.135197
57	0x3d1568f4	0.036477044
58	0x3f034927	0.51283497
59	0x3dad5d7d	0.08465097
60	0x3e692d5f	0.22771214
61	0x3ef29e1c	0.47386253
62	0x3f395a98	0.7240386
63	0x3f929685	1.1452185
64	0xbed07118	-0.40711284
65	0x3f742bae	0.9537915
66	0x3e0a9632	0.13533857
67	0x3e7627d1	0.24038626
68	0x3eb7aed0	0.3587556
69	0x3f02b719	0.51060635
70	0x3eaa78c7	0.3329527
71	0x3e53e497	0.20692669
72	0x3f421c00	0.75823975
73	0xbe3b794e	-0.18307993
74	0x3e0dd54f	0.13850902
75	0x3e92f5fb	0.28703293
76	0x3f06a6e7	0.5259842
77	0x3eb8ed9e	0.36118788
78	0xbedcfe13	-0.43162593
79	0x3f5f34e9	0.8719011
80	0x3ecffcdc	0.40622604
81	0x3ef20e84	0.472767
82	0x3f44e7ae	0.76916015
83	0x3f2bf944	0.67177224
84	0x3e987a86	0.29780978
85	0x3eb6248f	0.35574767
86	0x3ef71cec	0.48264253
87	0x3eef71ee	0.4676661
88	0xbdacb59d	-0.084330775
89	0x3da3aead	0.07992301
90	0x3f100c66	0.5626892
91	0x3e187f99	0.14892425
92	0x3e1b0791	0.15139605
93	0x3f1e06fb	0.617294
94	0x3ef25fab	0.47338614
95	0x3f9ee069	1.2412235
96	0xbe251b4f	-0.16123699
97	0x3deb09b2	0.114764586
98	0x3ee58fd7	0.44836304
99	0x3ee55063	0.44787893
100	0x3e4cf7a6	0.20016345
101	0x3eea400a	0.45751983
102	0x3d549bff	0.051906582
103	0xbd99db45	-0.075125255
104	0x3ee7e075	0.45288435
105	0xbef7e960	-0.48420238
106	0xbf19f838	-0.60144377
107	0x3ea00a00	0.3125763
108	0x3f398caf	0.7248029
109	0x3e8028af	0.2503104
110	0xbeb1a96e	-0.34699577
111	0xbe7d702b	-0.2474982
112	0x3e5171ab	0.20453517
113	0x3f355294	0.7082913
114	0xbf3baa6d	-0.73306924
115	0x3e87200c	0.26391637
116	0x3d871da3	0.0659745
117	0x3d328355	0.04358228
118	0x3e6d3df8	0.2316817
119	0x3e90d11c	0.28284538
120	0xbe271de1	-0.16319992
121	0x3d913be8	0.07091504
122	0x3ec4ebd3	0.3846117
123	0x3e83ba94	0.25728285
124	0x3e82f18c	0.2557491
125	0xbf03d94f	-0.5150346
126	0xbe65a154	-0.22424823
127	0x3f861c59	1.0477401
128	0xbe953fd7	-0.29150268
129	0x3f398438	0.72467375
130	0x3f47adc4	0.7799952
131	0x3dbfa359	0.09357328
132	0x3d4d73be	0.05015921
133	0x3ec4281f	0.3831186
134	0x3e7d9706	0.24764642
135	0x3e27a7de	0.1637263
136	0x3f3e3641	0.74301535
137	0x3df117a4	0.11772087
138	0xbe21dc1b	-0.1580662
139	0x3ef77eb8	0.48338866
140	0x3f751fcc	0.95751643
141	0x3e04f4e8	0.1298405
142	0xbeb045a3	-0.3442813
143	0x3f73c4b7	0.9522204
144	0x3ee633bf	0.44961354
145	0x3f6fdaba	0.93693125
146	0x3e29f4ed	0.16597338
147	0x3f25ef02	0.6481782
148	0x3eb3eff5	0.3514401
149	0x3e6d25c5	0.23158939
150	0x3ed008c4	0.40631688
151	0x3e98ea3d	0.2986621
152	0x3e81a6fd	0.25322714
153	0x3f0283c5	0.50982314
154	0x3e041813	0.12899809
155	0x3d0053c1	0.031329874
156	0x3e9951ca	0.29945213
157	0x3e9f0e04	0.3106538
158	0x3ec4cc46	0.38437098
159	0x3fa86e5d	1.315868
160	0xbec432d7	-0.38320038
161	0x3e866c70	0.26254606
162	0x3e2f1074	0.1709612
163	0xbed867b6	-0.42266625
164	0xbdd403dc	-0.103522986
165	0xbe739af3	-0.23789577
166	0x3ea5c0f7	0.32373783
167	0x3e7169ff	0.2357559
168	0x3f0e5ebd	0.5561331
169	0x3d22f23c	0.039781794
170	0x3e688039	0.22705163
171	0x3e669020	0.22515917
172	0x3e2fe59e	0.17177436
173	0x3dca2b63	0.098715566
174	0x3eeeb82b	0.46624884
175	0xbf868419	-1.0509063
176	0xbe89544f	-0.26822135
177	0x3e6c3bbc	0.23069662
178	0x3f7a955a	0.9788414
179	0xbdc8a3f5	-0.09796897
180	0x3db9c236	0.09070246
181	0x3e0a8ced	0.13530321
182	0x3cd1a85e	0.025592979
183	0x3e0e9ea5	0.13927706
184	0xbe53a545	-0.20668514
185	0xbeecee88	-0.46275735
186	0x3da55477	0.08072751
187	0x3e835431	0.2565017
188	0xbea39167	-0.3194687
189	0x3ed17637	0.40910503
190	0xbf1e6931	-0.6187926
191	0x3f2283f4	0.63482594
192	0xbf050a4f	-0.51968855
193	0x3f26189c	0.648813
194	0x3ef9d857	0.48797867
195	0x3f117083	0.56812304
196	0x3efa5191	0.48890355
197	0x3f05d0dd	0.52271825
198	0x3e0edf4f	0.13952373
199	0x3e2e8390	0.17042375
200	0x3f0d10e1	0.5510388
201	0x3ed3dbe2	0.41378695
202	0xbd110f9f	-0.035415288
203	0x3e185dad	0.14879484
204	0x3e5d5f67	0.21618424
205	0x3dc07cf8	0.09398836
206	0xbee1aa02	-0.44075018
207	0x3efd390b	0.49457583
208	0x3ecf6994	0.40510237
209	0x3ef90c38	0.48642135
210	0x3f1d1049	0.61352974
211	0x3dac5118	0.08413905
212	0x3e0216cb	0.12704007
213	0x3db01879	0.08598418
214	0x3ef1bbcd	0.47213593
215	0x3f220ef1	0.6330405
216	0xbe0aad9a	-0.13542786
217	0xbcb0e740	-0.021594644
218	0x3f202a5d	0.6256464
219	0xbdee1fbc	-0.116271466
220	0x3df8344e	0.12119351
221	0x3f2d9afc	0.6781461
222	0x3ee823a4	0.45339692
223	0x3f8b0350	1.0860386
224	0x4011abd5	2.2761128
225	0xbc72c098	-0.014816426
226	0xbfd26e21	-1.6439859
227	0x3f0474e5	0.51740867
228	0xbf9a5f63	-1.206036
229	0x3a85655c	0.0010177302
230	0xbf50598b	-0.8138663
231	0xbfb7c7a7	-1.4357804
232	0xbf62d30b	-0.88603276
233	0xbe8f7592	-0.28019387
234	0x3f5584b9	0.83405644
235	0xbf56670a	-0.83750975
236	0x3f5fcd00	0.8742218
237	0xbf9b7cd9	-1.2147475
238	0x3fd2cc1b	1.6468538
239	0xbe85a4cf	-0.261023
240	0xbeb19a04	-0.34687817
241	0xbffdb2c8	-1.9820185
242	0x3e581ace	0.21103975
243	0x3e657911	0.22409464
244	0xbfd7aa50	-1.684885
245	0xbf939c8e	-1.1532152
246	0xbbd4b36e	-0.0064911162
247	0xbe7d6f13	-0.24749403
248	0x3f92f32d	1.1480461
249	0x3e4f7142	0.20258048
250	0xbcc84ef3	-0.024451708
251	0xbf8df83c	-1.109138
252	0xbf974c31	-1.1820127
253	0x3dffef6c	0.12496838
254	0xbe1e8942	-0.15482047
255	0xbee3f5ab	-0.44523367

fc3.weight f4 [4, 32]
0	0xbf08e047	-0.5346722
1	0xbee4bf02	-0.44676977
2	0xbeddc110	-0.43311357
3	0xbe8da56a	-0.27665263
4	0xbeba0ae0	-0.36336422
5	0x3d0c7f66	0.034301184
6	0xbed2fa8f	-0.41206786
7	0x3ff9392c	1.9470572
8	0x401fc548	2.496416
9	0x4036edcc	2.858264
10	0xbe6c0c67	-0.23051606
11	0xbeac4312	-0.3364492
12	0xbef0e7f6	-0.47051972
13	0x3f9f6ca8	1.2455034
14	0xbf112de5	-0.56710654
15	0xbf0bc29b	-0.5459382
16	0x4058ec62	3.3894277
17	0xbf080023	-0.5312521
18	0xbf10ab85	-0.5651172
19	0xbf10b320	-0.56523323
20	0xbf04c596	-0.5186399
21	0x3fd359b6	1.6511753
22	0xbeb96dc1	-0.36216548
23	0xbe5b6e0d	-0.214287
24	0xbe889191	-0.26673558
25	0xbec22163	-0.37916097
26	0xbdb3e03b	-0.08783003
27	0xbde20564	-0.110361844
28	0xbf1f8fb3	-0.6232864
29	0xbe83316b	-0.2562364
30	0x401727b8	2.3617992
31	0xbee8fb0e	-0.4550404
32	0xbee4f6c7	-0.44719526
33	0xbf0cc6b3	-0.5499069
34	0xbea68095	-0.32519975
35	0xbdf8aa8b	-0.121419035
36	0xbf3c6103	-0.7358553
37	0xbf419c8c	-0.75629497
38	0xbdd615be	-0.10453366
39	0x4030def8	2.763609
40	0x4004eabb	2.0768268
41	0x4016773b	2.3510273
42	0xbed26a68	-0.41096807
43	0xbf1aa13d	-0.6040228
44	0xbf1851b5	-0.59499675
45	0x3fdff1ca	1.7495663
46	0xbeb3c3de	-0.35110372
47	0xbf119fb2	-0.568843
48	0x405e059f	3.469093
49	0xbf34d851	-0.7064257
50	0xbee9edd1	-0.45689252
51	0xbf16ef85	-0.5895923
52	0xbe8b5f2f	-0.27221057
53	0x3fe87bab	1.816274
54	0xbf209bb3	-0.6273758
55	0xbecfae03	-0.40562448
56	0xbdc9c3d6	-0.09851806
57	0xbef9d205	-0.48793045
58	0xbdbe99f1	-0.09306706
59	0x3d06593d	0.032799948
60	0xbf285579	-0.6575542
61	0xbe8de65a	-0.27714807
62	0x401c8fa0	2.4462662
63	0xbd5e15bb	-0.054219943
64	0xbf13764f	-0.576024
65	0xbeeb2a3c	-0.4593066
66	0xbe9b142f	-0.30288836
67	0xbf4362a9	-0.7632242
68	0xbf04b872	-0.5184394
69	0xbcaa77f2	-0.020809148
70	0xbf22f12e	-0.6364926
71	0x3ffded6b	1.9838079
72	0x40315e23	2.7713706
73	0x40311ecf	2.7675054
74	0xbf01f16c	-0.50759006
75	0xbe97bfd2	-0.29638535
76	0xbf153cf2	-0.5829612
77	0xbf35e369	-0.71050125
78	0xbe93543a	-0.28775197
79	0xbed35a78	-0.4127996
80	0x3fdf7988	1.7458963
81	0xbe978856	-0.29596204
82	0xbf75535b	-0.95830315
83	0xbe8ab79c	-0.27093208
84	0xbd5129b2	-0.051065154
85	0x40060051	2.0937693
86	0xbee7be3b	-0.45262322
87	0xbf0017f2	-0.5003654
88	0xbf32f074	-0.6989815
89	0xbe8dd875	-0.27704206
90	0x4030dc59	2.763449
91	0x3dc6f10d	0.097139455
92	0xbf29f569	-0.6639009
93	0xbf202960	-0.62563133
94	0x3f382c9f	0.71943086
95	0xbe4c7a6a	-0.19968572
96	0xbed1f5ee	-0.41007942
97	0xbf094400	-0.53619385
98	0xbf11c957	-0.56947845
99	0xbe7e54b8	-0.24837005
100	0xbe205518	-0.1565746
101	0xbf62139e	-0.88311183
102	0xbf0f984b	-0.56091756
103	0x3f359998	0.7093749
104	0x401c45a7	2.4417512
105	0x40556499	3.334265
106	0xbee3ae17	-0.44468758
107	0xbf12878f	-0.57238096
108	0xbf0b8750	-0.54503345
109	0x3fb9ac74	1.4505754
110	0xbef211ee	-0.47279304
111	0xbdf7a269	-0.12091524
112	0x40546136	3.3184333
113	0xbe3beb89	-0.18351568
114	0xbf584feb	-0.84496945
115	0xbf01f232	-0.50760186
116	0xbef6de98	-0.482167
117	0x3fd323f3	1.6495346
118	0xbebe8aad	-0.37215176
119	0xbec47fda	-0.38378793
120	0xbf04e489	-0.51911217
121	0xbf1c2e18	-0.61007833
122	0x3e64381b	0.22287028
123	0x3d885580	0.06656933
124	0xbec852f7	-0.39125797
125	0xbe6cfc42	-0.23143104
126	0x40473630	3.1126823
127	0xbf29f028	-0.66382074
