dqn/exercise/models/checkpoint572_146.55034147621834.pth (torch, 7111 bytes, 3 tensors)

fc1.weight f4 [32, 8]
00000000: 55ca df3c e162 483b bad7 10bd 2b4c 053e
00000010: 570d 4d40 df36 dfbe 59a6 a03e 337b 003f
00000020: 8155 05bd e0a6 c13e b166 843c f0da 5cbf
00000030: 05d5 9dbe 3154 b3bf 71fd acbe 20e2 3ebe
00000040: ad37 683e 3fad 163f c0fe d4bd 6819 cebe
00000050: 8364 a33f 9986 2d3f 50a4 7a3d 916e e23d
00000060: d471 883d 2528 21ba 1cd6 0440 05c2 1a3f
00000070: 3b67 53bf 66a1 37bf 060d e7be f690 693e
00000080: b5e3 14bf e207 5fbf e25c 13be 4b36 b0be
00000090: 0d1b fc3c 73de 8d3d 81c0 b33e bc00 753e
000000a0: 1331 d93e 1d9c 8bbf ba44 b43e 4b1b 2b3f
000000b0: f0ec 1fbf d7f3 27bf a11e 803e a34b 933e
000000c0: df5a 26be c947 04bf d7cf d43d dfe4 0dbe
000000d0: ad1d 1e3f 2593 663e bfc2 f83e 9528 8dbe
000000e0: a836 103f 18f9 9cbf efe8 d0bd accd 98bf
000000f0: 3ff3 9e3e 7b56 9e3e 18ab 9f3d e7a5 8bbd
00000100: f003 f43e e4b3 9c3e b901 e43e 5718 12bc
00000110: c056 2b3f 3106 813f 7e19 463d 2431 a23d
00000120: d264 e93e 9108 643f fe61 d63e b34e e83f
00000130: a359 c5bb a70b 36bd f015 1c3e 5d1c 2dbf
00000140: bfd6 3a3d 2b05 f53e 4c87 173f 0eb1 14c0
00000150: 230f 47bf 1236 ccbe 04fb dd3e 72ac 8bbd
00000160: 0707 f73e c52f 46bf d2a4 ac3f ce75 583d
00000170: 193e d03e e37c 033f 61af b3bd 49bc b53d
00000180: f24a 18be d670 123d 384b 97be b101 d73e
00000190: 34c7 823f 03c9 593f 6bcb 31be 2c66 c5be
000001a0: 2c47 23bf 863d 10bf 1832 3ebe 7baf eebe
000001b0: b610 8f3e cb31 ad3b a0fd ca3a adcd 8b3e
000001c0: 93fc a8bd 0539 5c3f 5522 dd3e 285b 84bf
000001d0: 31dc 60bf 5e7a 2d3f 1627 49bf 54c5 bf3e
000001e0: 83dd c9bc f980 19bf dca7 aabe a5bd 3abd
000001f0: 0236 06bf 780d a4bf df2d 88be 5acd d6bd
00000200: 9e11 bb3e 3c5a 3cbf e69d 913a 1e30 0c3f
00000210: d90b 8bbe 1482 36bf da43 a33e 65fb 303e
00000220: 61f8 12bf 6546 543e 2843 d93e 29e9 5c3d
00000230: 67ca fe3d 1cb5 723f e84d 983e 6eda 2ebf
00000240: 281c 0bbf f336 723d 160c 3e3c 2817 013e
00000250: cb0e e4bd ff4f 82bf 196b 99be a102 8f3e
00000260: 4f59 97be b207 dbbe 9259 81be c9a7 abbf
00000270: c438 afbe 0e97 33bf 8a52 b53d 6437 f8bd
00000280: 8415 82be ef8f 12bf 50bc 0dbf 253f f8be
00000290: 6a77 1b3f d03e f23e 949b 3dbd d5f0 943c
000002a0: 0db0 6f3d fc71 79bf 42c4 253f 5d05 4cbf
000002b0: 6928 0e3f eee8 c93e 70c9 b6be 8697 0abc
000002c0: 3490 1e3d 64e6 19bf cc57 003f 6491 d93e
000002d0: 1746 ecbe 4b6c 24bf 8f91 5e3e 267d e23e
000002e0: db5d 813f ff3a e0be 1c8c 0e3f 248b 003f
000002f0: d8a3 d9be 0f6f 2bbd 79ff c83e 192f 363d
00000300: 6e4b 9f3e a4bd 17bb 6f6c 09bf c057 c0bf
00000310: 3174 b73f 9008 7b3d 28e7 fd3d e4a3 f13d
00000320: 61bd e6bb c750 883e 966a 32c0 0cde b73e
00000330: c2c4 15be aab7 c13e ebc4 743d b080 2d3e
00000340: f4a4 393f c5a2 b0be 7c79 353f 460c 123f
00000350: b06b d2be 4b60 98be 2f74 2c3d a966 203e
00000360: fd70 62be a4c6 33bf 340f 393f 3f1d 89bf
00000370: 45e1 233e 098a 003f fcd2 f13e 917d 57bc
00000380: d7b2 85bf 68bd b3be 40d1 0cbf a630 c2be
00000390: a192 913e 44ce 9bbd 676b 6e3d 0f77 bd3e
000003a0: 7b54 4f3f 73af 163e 4fc9 193e e759 22bf
000003b0: 458a 9b3c 714c 7fbf 3c83 bbbe e0ad babd
000003c0: f8b4 763f 0079 673c 1b41 73bc df85 d3be
000003d0: 90a9 84be 1b2d 7dbf dbf6 7a3d 11fb 85be
000003e0: cc1c bdbf afa3 2bbf 487e 64bf 0845 f93c
000003f0: 7a29 9b3f 50d8 ae3c 370d 9cbd 1755 14bb
0.02731816 0.0030576515 -0.035361983 0.13017337 3.2039392 -0.4359655 0.31376913 0.5018799
-0.032552246 0.37822628 0.016162248 -0.8627157 -0.30826584 -1.4010068 -0.3378711 -0.18640947
0.22677489 0.588581 -0.10400152 -0.40253758 1.2765049 0.67783505 0.061191857 0.11056245
0.06662336 -0.00061476446 2.0755682 0.604523 -0.8257939 -0.7173065 -0.45127124 0.22809204
-0.58159953 -0.87121403 -0.143909 -0.34416422 0.030774618 0.069271944 0.35107806 0.23926061
0.42420253 -1.0907017 0.35208684 0.6683852 -0.6247091 -0.65606445 0.25023368 0.28768644
-0.16245602 -0.51672035 0.10391205 -0.13856839 0.6176403 0.22517069 0.4858608 -0.27570024
0.563334 -1.2263517 -0.102006786 -1.1937766 0.31044957 0.30925354 0.077963054 -0.06818753
0.47659254 0.30605996 0.44532564 -0.008916936 0.66929245 1.0080014 0.048364155 0.07919529
0.45584732 0.8907557 0.41871637 1.8149017 -0.0060226484 -0.044444706 0.15242743 -0.67621404
0.045614954 0.47855505 0.5919082 -2.3233066 -0.7775747 -0.39885002 0.43355572 -0.06820001
0.4824755 -0.7741664 1.3487799 0.052846722 0.40672377 0.51362437 -0.08773685 0.08873803
-0.1487234 0.03575214 -0.29549575 0.41993478 1.0217042 0.85072345 -0.17362754 -0.38554513
-0.63780475 -0.5634388 -0.18573797 -0.46618256 0.27942437 0.005285477 0.0015486963 0.27305356
-0.082513 0.86024505 0.43190256 -1.0340319 -0.87835985 0.6776484 -0.78575265 0.37455237
-0.024641758 -0.5996242 -0.33331192 -0.045591015 -0.5242616 -1.281661 -0.26597497 -0.104883865
0.36536878 -0.73575187 0.001110968 0.5476092 -0.27157477 -0.71292233 0.31887704 0.172834
-0.57410246 0.20729978 0.4243405 0.053933296 0.12440949 0.948076 0.29746938 -0.6830205
-0.5433984 0.059134435 0.011599561 0.1260649 -0.11135634 -1.0180663 -0.29964522 0.27931693
-0.29560325 -0.4277931 -0.2526365 -1.3410579 -0.34222996 -0.70152366 0.08853634 -0.1211994
-0.2540704 -0.57250875 -0.5536547 -0.48485675 0.60729086 0.47313547 -0.04629095 0.018181244
0.058517504 -0.9743955 0.6475259 -0.79695684 0.5553041 0.39435524 -0.3570056 -0.008458978
0.03871174 -0.60117173 0.5013397 0.42493737 -0.46147224 -0.6422774 0.21735214 0.44236106
1.0106767 -0.4379501 0.5568254 0.5021231 -0.42507815 -0.04185396 0.3925741 0.04447851
0.31112236 -0.0023153806 -0.5368108 -1.5026779 1.4332334 0.061287463 0.12397605 0.11798838
-0.0070416187 0.26624128 -2.7877555 0.35911596 -0.14625838 0.37835437 0.059758108 0.16943622
0.72517323 -0.34499183 0.70888495 0.5704998 -0.41097784 -0.29760966 0.04210299 0.15664162
-0.22113414 -0.70224977 0.72288823 -1.071205 0.16003902 0.50210625 0.4723128 -0.013152496
-1.0445203 -0.35105443 -0.5500679 -0.3792774 0.2843218 -0.076077014 0.058207896 0.37004897
0.8098828 0.14715366 0.150182 -0.6341843 0.01898683 -0.99726015 -0.3662356 -0.09115195
0.96369886 0.01412797 -0.014847065 -0.41313073 -0.25910616 -0.9889695 0.061270576 -0.2616811
-1.4774413 -0.67046636 -0.8925519 0.030428424 1.2122033 0.02134338 -0.07619708 -0.0022633725

fc2.weight f4 [32, 32]
00000000: 4e45 1ebf da86 663f 2ef3 0b3f 09d9 36be
00000010: e931 853e 26dc fe3e 0326 c73e b962 c63b
00000020: 69a6 513f 29bd 043e ca2e 10be ce7b 9c3e
00000030: 1e10 263f 18b9 9e3e 2a61 08bf dd21 2a3f
00000040: 4d52 743e 5e0d 163f ae96 8d3e 5163 033e
00000050: 267a fa3e 18d8 5abe 6ef3 9e3e ddf3 eb3e
00000060: 9576 9c3d e0dd 9e3d 4d88 903e 2286 4d3e
00000070: cfb2 d93e 3ee3 283f b14c 163f ff35 d13f
00000080: 62a8 88be d5a6 3f3f 7c62 b03d fbb2 103e
00000090: a034 ae3d 63e5 963e c93a bf3d ec33 8fbe
000000a0: fe80 d03e 8f82 013e 2195 28bd c399 20be
000000b0: 6ae0 40bc 5478 ad3d cdd3 79bf 1f9b 6c3f
000000c0: afde b73e c09b d1bd b9e3 bc3e 047e e23e
000000d0: de41 753e e6e7 a4be 708b 193d d720 2e3e
000000e0: f290 aa3d 5f3c 253d 340c ea3e 0bf7 d5bd
000000f0: 4e9f 243e 40ac ef3e 168c 253f 1bde a13f
00000100: 0612 04bf 04cb 753f 8e98 233e f8be 32bc
00000110: f128 6e3e 0c9f cb3e 9082 5a3e 088d 15be
00000120: 5c1e 263f f225 57be e68b a6bb 4246 223d
00000130: cee5 923e 5632 613e 4fde cbbe 5dde 3e3f
00000140: b5b5 993e 4940 c83e 2841 193f a546 183f
00000150: 748d 2a3e e284 00be 8241 bc3e e02c bd3e
00000160: 952b 19be bbca 533d 2182 fb3e e725 1abd
00000170: 0240 9a3d 3e35 183f d77f d13e aa76 ad3f
00000180: 38e2 0dbe a221 72bc c146 b23e 4dc5 c73e
00000190: 5b1d 243e 5687 073f fc79 573c 9c0b e3be
000001a0: 180c b73e 2b8e ea3d 2330 5abf 1442 333e
000001b0: bdd4 163f 0e96 953d eb0e 4bbf 52f7 87be
000001c0: acc7 933e 33aa d63e a791 87bf 13d1 303e
000001d0: 3d02 58be 617c c1be c133 8a3e 5f81 be3e
000001e0: 90e0 d1be a43c c13c 5d6a 013f 7090 063d
000001f0: f7b0 273e 5731 e0be ff15 3abc a83a 883f
00000200: 1839 9ebe c8e4 343f 9ce4 433f 3fd9 72be
00000210: fce7 88bb 96d2 aa3e 796c 393e c94d 9dbe
00000220: d842 1c3f d0b6 763d 885a 99be 910a 093e
00000230: 6094 3e3f ca41 193d 7a9c c5be 829d 663f
00000240: 707e d63e 3fcb 1e3f 7ff8 653d 4e9b ce3e
00000250: cb48 083e f54c c8be f703 b93e 8b28 833e
00000260: bc69 2c3e 81b3 953e 32e0 a83d e87f 2ebe
00000270: 66b7 8a3e 2118 a83e 0b22 9b3e fbc4 c13f
00000280: 2b07 bebe 6395 483e 7438 be3e 400d f5be
00000290: 5ed4 d3bb 99d0 95be 2257 d63e 6f16 3b3e
000002a0: 788b 243f b162 173e 5457 853e 9f65 97be
000002b0: f96b 3d3d 1bf5 923e de90 003f 47fd babf
000002c0: e8fd 8fbe f75b 073e 4a7d 6e3f fc64 c53d
000002d0: 25e6 073e faba 67be 7abf 1f3d 808c d83d
000002e0: 8c92 4abe 645c 16bf 4004 0f3e 78d6 a93e
000002f0: f41b 18be be6d a23e 70ee 68bf 5f06 1b3f
00000300: 30cc 27bf c977 243f cdb0 053f 0bd4 9e3e
00000310: 3c10 c13e f4d3 dd3e 7a0b ae3c 97a8 8bbe
00000320: e805 f63e 5f37 be3e c26d 14be fd87 e93d
00000330: 113c a5bc 4f61 88bd f549 c2be e532 d83e
00000340: 549c a23e 6f5e cb3e 6534 e53e a1a2 eebd
00000350: 5746 a6bd 32ce b2be 9d82 c33e 6319 133f
00000360: 2e83 5ebe c51e 97bd 90be 173f a9bd a8be
00000370: cdb1 6b3d e8b4 223f bcd8 ef3e c971 9a3f
00000380: 6826 1d40 a5ac 9cbd f40c e8bf 3de3 703f
00000390: d302 9dbf 9efd 573d 07de acbf c586 bbbf
000003a0: 37a9 73bf 9e35 13be 1726 2a3f 7409 38bf
000003b0: 5132 c63f f971 8ebf 466e ce3f 144e 68be
000003c0: dc07 bcbe 95cd f8bf 8736 893e ecc3 af3e
000003d0: 737f d8bf fe8a 59bf e9af 103d 87ac f5be
000003e0: 6023 7a3f 0c1c 063f 092c 163d 8500 c8bf
000003f0: 798a 92bf c401 333e d2d6 843c 3802 17bf
-0.618245 0.9004952 0.5466794 -0.1785623 0.2601464 0.49777335 0.38896188 0.006054249
0.81894547 0.12962784 -0.14080349 0.30563205 0.6486834 0.3100059 -0.5327326 0.6645792
0.2385952 0.58614147 0.27654022 0.12830855 0.48921317 -0.21371496 0.31045097 0.4608449
0.07639805 0.07757163 0.2822899 0.20070699 0.42519233 0.65971744 0.5871077 1.6344603
-0.26690966 0.7486394 0.086125344 0.14130776 0.08506131 0.29471883 0.09337384 -0.279693
0.40723413 0.1264746 -0.041157845 -0.15683655 -0.0117722545 0.084702164 -0.9758881 0.92424196
0.35912082 -0.10234785 0.3689249 0.44236767 0.23950908 -0.32208174 0.037486494 0.17004715
0.083284274 0.040340777 0.45712435 -0.1044751 0.16076395 0.46811104 0.6466688 1.2645906
-0.5159 0.960129 0.15976164 -0.010909788 0.23257805 0.3976978 0.21338868 -0.1460458
0.64890075 -0.21010569 -0.005082595 0.039617784 0.28690952 0.21991858 -0.39818045 0.7455805
0.30021444 0.39111546 0.59865046 0.59482795 0.16655523 -0.12550691 0.36768728 0.369483
-0.14958031 0.05170701 0.49122718 -0.037633803 0.0753174 0.5945624 0.40917847 1.3551838
-0.13855827 -0.0147785265 0.34819606 0.39017716 0.16026823 0.5294088 0.013151642 -0.44344795
0.35751414 0.11452898 -0.852297 0.17505676 0.5891836 0.07304011 -0.7931964 -0.26555878
0.28863275 0.41926727 -1.0591325 0.17267255 -0.21094604 -0.37790206 0.2699261 0.37208077
-0.4099164 0.023588486 0.5055292 0.03285259 0.163761 -0.43787643 -0.011357783 1.06429
-0.30902934 0.7066159 0.76520705 -0.23715685 -0.0041780453 0.3336379 0.18107785 -0.30723408
0.61039495 0.060232937 -0.29951882 0.13382937 0.7444515 0.037416257 -0.38595945 0.9008409
0.4189334 0.6202888 0.056145187 0.40352863 0.13309018 -0.39121214 0.36135837 0.2561687
0.1683721 0.29238513 0.08245887 -0.1704098 0.27093047 0.3283091 0.3029941 1.5138239
-0.37114844 0.19588237 0.37152445 -0.4786167 -0.006464525 -0.2926071 0.41863352 0.18270276
0.6427531 0.14783742 0.2604319 -0.29569718 0.04624555 0.28702626 0.5022105 -1.4608544
-0.28123403 0.13218676 0.93159926 0.09638402 0.13271387 -0.2262992 0.039000966 0.10573673
-0.19782466 -0.58734727 0.13966465 0.3317144 -0.14854413 0.31724352 -0.90988827 0.60556597
-0.6554594 0.6424528 0.522229 0.3102115 0.37707698 0.4332577 0.021245707 -0.2727706
0.4805138 0.3715162 -0.14494994 0.11402891 -0.020170243 -0.06659185 -0.3794705 0.4222633
0.31759894 0.39720485 0.44766536 -0.11652113 -0.08118885 -0.3492294 0.38185588 0.5746061
-0.21729729 -0.07378916 0.5927515 -0.329572 0.05754261 0.6355729 0.46845043 1.2065974
2.4554691 -0.07650117 -1.8128953 0.9409674 -1.2266487 0.052732103 -1.3505257 -1.4650503
-0.95180076 -0.14375922 0.6646437 -0.71889424 1.5484105 -1.1128532 1.6127403 -0.22686034
-0.36724746 -1.9437739 0.26799414 0.34329164 -1.6913894 -0.8497771 0.03532401 -0.4798319
0.9771023 0.52386546 0.03666309 -1.5625159 -1.1448509 0.17481142 0.016215716 -0.5898776

fc3.weight f4 [4, 32]
00000000: 6b4b ebbe ce76 cdbe 63c9 b3be 092b 35be
00000010: bebf abbe 0836 4ebe 5cd3 a5be 230b 0940
00000020: 3714 2440 2c82 4140 342d 01be 0ddd 81be
00000030: b219 c8be 3423 d43f b67f f7be 3388 09bf
00000040: 9607 6640 7585 0cbf 4474 56bf 76ce f8be
00000050: 8542 21bf d383 d93f 024b 9fbe e651 dbbd
00000060: d0fb 36be ac0b 90be be93 c03c 6405 e2bd
00000070: 8cd0 11bf ed18 39be bb3f 2b40 3abf c3be
00000080: 2dc9 cfbe 85f0 08bf 849f 9fbe 2a3b 07be
00000090: b884 27bf 9f49 85bf 3a8d c7bd 2736 2a40
000000a0: 33f6 0840 1c23 2a40 1e64 cbbe 9a95 19bf
000000b0: dff0 10bf fa38 f53f f2b2 abbe a400 e4be
000000c0: f976 6d40 7f5b 1cbf 8523 e9be 2cb4 15bf
000000d0: b1ca c8bd e705 db3f 6546 16bf 887f f5be
000000e0: 9916 90bd cd82 04bf 52c8 cf3d 3d59 063d
000000f0: f064 17bf ec30 4ebe 8374 3640 d6eb 893a
00000100: 47cc 0fbf ee70 ecbe 2beb 94be 2cab 8abf
00000110: 124f febe 9982 c53d c8b8 32bf f93f 1340
00000120: 421c 3940 33f7 2840 0e28 fabe a075 90be
00000130: 06e8 0cbf 0f22 683d f0e7 82be a083 bebe
00000140: 95cf e53f c577 84be 96b3 90bf a8bd 62be
00000150: c039 9d3b d37f 1040 f766 debe 9c10 12bf
00000160: ba3d 40bf 4906 84be 8846 3e40 0df1 c63d
00000170: a379 25bf 6e3c 2cbf 3ac6 893f 6ec9 36be
00000180: 5ad5 bfbe 7892 edbe 8908 08bf a75e 80be
00000190: b273 febd ce5b 67bf d9d0 02bf cb88 813f
000001a0: 0bc2 2140 11fd 6f40 ef8a d7be 8d9c 08bf
000001b0: 679c 04bf f250 f53f bb0e e6be 3c93 abbd
000001c0: 7ad0 5a40 2cb8 13be 40a2 6fbf 5934 f3be
000001d0: 2ed2 e1be b7a0 df3f 63eb aabe 3ffd b0be
000001e0: 568f f5be ce94 12bf 2aaa 393e 8055 883d
000001f0: 180e b9be 1b19 4bbe 2c62 4f40 ee51 23bf
-0.45955977 -0.40129703 -0.35114583 -0.17692198 -0.33544725 -0.20137799 -0.32387817 2.1413047
2.5637338 3.02357 -0.126149 -0.2536396 -0.39082104 1.6573243 -0.48339623 -0.5372345
3.594213 -0.5489114 -0.8377116 -0.48595017 -0.62992126 1.6993355 -0.31111914 -0.1070898
-0.17869496 -0.28133905 0.023507949 -0.110361844 -0.5695884 -0.18075915 2.6757648 -0.38231832
-0.40583172 -0.53492004 -0.31176388 -0.13206163 -0.6543689 -1.0413092 -0.09743734 2.6595552
2.1400268 2.658393 -0.3972482 -0.599939 -0.5661754 1.9158013 -0.33534962 -0.4453174
3.7103865 -0.6107711 -0.45534912 -0.58478045 -0.09804285 1.7111176 -0.58701164 -0.4794886
-0.0703556 -0.51762086 0.1014563 0.032799948 -0.59138393 -0.2013585 2.8508613 0.0010522555
-0.5617108 -0.4617991 -0.2908567 -1.0833488 -0.496697 0.0964405 -0.69813204 2.3007796
2.8923497 2.6400878 -0.48858684 -0.2821474 -0.5504154 0.056673106 -0.2556758 -0.37209797
1.7953974 -0.25872627 -1.1304805 -0.2214266 0.004798144 2.2578018 -0.4343793 -0.57056594
-0.7509419 -0.25786045 2.973055 0.097139455 -0.6463873 -0.6727971 1.0763619 -0.17850277
-0.37467462 -0.4640081 -0.53138024 -0.25072214 -0.12424411 -0.9037446 -0.51099926 1.0119871
2.5274684 3.749821 -0.42098185 -0.5336388 -0.5180115 1.9165328 -0.44933113 -0.08377692
3.4189744 -0.14425725 -0.9360695 -0.47500876 -0.44105667 1.7470921 -0.3338271 -0.3456821
-0.4796092 -0.5725831 0.18131319 0.06656933 -0.36143565 -0.19833796 3.240367 -0.6379689
