dqn/exercise/models/checkpoint726_189.52042703432977.pth (torch, 7111 bytes, 3 tensors)

fc1.weight f4 [32, 8]
0	0xbd9d2b90	-0.076743245
1	0xbbef3b49	-0.0073007685
2	0x3d855db6	0.065120146
3	0x3d6c298e	0.057656817
4	0x4053997f	3.3062437
5	0xbf14d52a	-0.5813776
6	0x3e8d5848	0.27606416
7	0x3f1086bd	0.56455594
8	0x3c853e02	0.01626492
9	0x3f2a6629	0.66562134
10	0x3efd18aa	0.4943288
11	0xbf78c316	-0.9717268
12	0xbea3b70c	-0.3197559
13	0xbf9042d6	-1.1270397
14	0xbedbf8f8	-0.42963386
15	0xbe30a0d2	-0.17248848
16	0x3c692f22	0.014232429
17	0x3f3521a6	0.7075447
18	0xbea81672	-0.32829624
19	0xbee11826	-0.43963736
20	0x3fa3d1a4	1.2798352
21	0x3f4d709a	0.8024994
22	0x3dbf1e75	0.09331981
23	0x3d61714f	0.0550397
24	0x3e0d1422	0.13777211
25	0x39d07347	0.0003975874
26	0x401ca0fc	2.4473257
27	0x3f7c95f2	0.986663
28	0xbef9a7c3	-0.48760805
29	0xbecea933	-0.40363464
30	0xbf96e81b	-1.1789583
31	0x3ea1aebc	0.31578624
32	0xbed53212	-0.41639763
33	0xbecd95e6	-0.40153426
34	0xbe762cab	-0.24040477
35	0xbe98af50	-0.29821253
36	0x3e00c78d	0.12576123
37	0x3d986b32	0.07442321
38	0x3eb7ec88	0.35922647
39	0x3e6f1313	0.2334712
40	0x3e8e2bd8	0.27767825
41	0xbf5daeba	-0.86594737
42	0x3eb570bf	0.3543758
43	0x3faa0246	1.3281944
44	0xbecad8dc	-0.39618576
45	0xbf1491ce	-0.5803498
46	0x3e9effde	0.31054586
47	0x3ef9ab18	0.48763347
48	0xbe0c55d2	-0.13704613
49	0xbee0fa48	-0.4394095
50	0xbde126b4	-0.1099371
51	0xb96dd1fb	-0.00022680305
52	0x3f1ee2cc	0.62064815
53	0x3e3aca65	0.1824127
54	0x3efaa791	0.48955968
55	0xbe825635	-0.25456396
56	0x3f447efe	0.76756275
57	0xbfc1d253	-1.5142311
58	0x3e956b63	0.29183492
59	0xbfa504a0	-1.2892036
60	0x3bf08ede	0.00734125
61	0x3f1ac60d	0.6045845
62	0x3e2e081a	0.16995278
63	0x3cde40e6	0.027130555
64	0x3ded9385	0.11600403
65	0x3ea48f84	0.32140744
66	0x3f04e9a9	0.5191904
67	0x3d6c81c3	0.057740938
68	0x3f6e86f3	0.93174666
69	0x3f86d28b	1.0533003
70	0xbdcdf2cb	-0.10056075
71	0x3defd427	0.11710387
72	0x3ea8ef39	0.32995012
73	0x3f5ba217	0.85794204
74	0x3e7e73a2	0.24848798
75	0x40185c2b	2.3806255
76	0xbee18be1	-0.44052032
77	0xbdff19d7	-0.124561004
78	0x3e754b58	0.23954523
79	0xbf2d1c5d	-0.67621404
80	0x3d8f6248	0.070011675
81	0x3edf2918	0.4358604
82	0x3f29b1fd	0.66287214
83	0xc02b0d0a	-2.6726708
84	0xbf6502a2	-0.8945714
85	0xbead9393	-0.33901653
86	0x3f0f2edb	0.5593087
87	0x3e2305dc	0.15920204
88	0x3e3889c1	0.18021299
89	0xbf30265f	-0.6880855
90	0x3ffa79f7	1.9568471
91	0xba124452	-0.00055796385
92	0xbeedc935	-0.4644257
93	0x3f05873a	0.52159464
94	0xbce7b397	-0.028283877
95	0x3d0af99e	0.03392946
96	0xbe9eb684	-0.30998623
97	0x3e0507e9	0.12991299
98	0xbef756b1	-0.48308328
99	0x3f5dd2f6	0.86650026
100	0x3f920531	1.1407834
101	0x3f45fd06	0.7733921
102	0xbd9b0a3d	-0.07570312
103	0xbf40b396	-0.75274026
104	0xbf0b0ae0	-0.5431347
105	0xbea1e377	-0.31618854
106	0xbe9ca5f1	-0.30595353
107	0xbebb11dc	-0.36537063
108	0x3ea5f789	0.32415417
109	0x3c5a534b	0.013325523
110	0xbcfebfda	-0.031097341
111	0x3e810f63	0.25207052
112	0xbe4e1364	-0.20124584
113	0x3f39891b	0.7247483
114	0x3e5824aa	0.21107736
115	0xbf8c8396	-1.0977657
116	0xbf814b71	-1.0101148
117	0x3f7d089a	0.9884125
118	0xbf480442	-0.78131497
119	0x3ebf279f	0.37334916
120	0x3ea3046e	0.31839317
121	0xbe2ddc04	-0.1697846
122	0xbde8d7a4	-0.11369255
123	0xbd12e11d	-0.035859216
124	0xbf119a53	-0.56876105
125	0xbfa018c2	-1.2507555
126	0xbe64a2cb	-0.22327726
127	0x3e086825	0.13320978
128	0x3de0568c	0.109540075
129	0xbee6c234	-0.4507004
130	0xbcd5bb14	-0.026090182
131	0x3f79c6d4	0.9756901
132	0xbdbbcf1d	-0.09170363
133	0xbf20d8fa	-0.6283108
134	0x3ec929d9	0.3928974
135	0x3e2f7982	0.17136195
136	0xbf002c0f	-0.5006723
137	0x3e514318	0.2043575
138	0x3edaa739	0.42705706
139	0x3d221bd4	0.03957732
140	0x3e26a0ed	0.16272326
141	0x3f6dfcb5	0.92963725
142	0x3ef4fe26	0.4785015
143	0xbf01e077	-0.5073313
144	0xbee15317	-0.44008705
145	0x3a903489	0.0011001985
146	0x3d70888f	0.058723982
147	0x3e11c7f7	0.14236437
148	0xbe7b25e4	-0.24526173
149	0xbf5d8616	-0.86532724
150	0xbea7da92	-0.32783943
151	0x3e9d1c00	0.30685425
152	0xbe48296f	-0.19547056
153	0xbe9223bf	-0.28542897
154	0xbeb2db10	-0.34932756
155	0xbf908865	-1.1291624
156	0xbf0d006d	-0.55078775
157	0xbf6662ca	-0.8999449
158	0x3e303bed	0.1721036
159	0xbe4403af	-0.1914203
160	0xbe5e06c3	-0.21682267
161	0xbeaae1af	-0.33375308
162	0xbf739a59	-0.9515739
163	0xbea96c22	-0.3309031
164	0x3f6fd3f2	0.9368278
165	0x3f3001b3	0.6875259
166	0xbda91b27	-0.08257132
167	0x3d6c53b8	0.057697028
168	0xbee8372e	-0.453546
169	0xbfd3c5f8	-1.654479
170	0x3f4d1afd	0.80119306
171	0xbf71fa62	-0.9452268
172	0x3f0b606b	0.54444
173	0x3f07ac6e	0.5299748
174	0xbf038209	-0.5137029
175	0xbeb77786	-0.35833377
176	0x3ccbf275	0.024895886
177	0xbe6821ee	-0.22669193
178	0x3e4db382	0.20088008
179	0x3f70a766	0.9400543
180	0xbe937a5d	-0.28804293
181	0xbf011b7d	-0.5043257
182	0x3e7c8a10	0.24662042
183	0x3f0cf67c	0.55063605
184	0x3f73ef35	0.95286876
185	0xbe5ded45	-0.21672542
186	0x3f17945f	0.5921077
187	0x3f61389e	0.87977016
188	0xbef31233	-0.47474822
189	0xbefe1d80	-0.49631882
190	0x3ea23bf0	0.31686354
191	0xbd253640	-0.04033494
192	0x3ebebd5f	0.37253854
193	0x3dace7d0	0.08442652
194	0xbeb429cb	-0.35188136
195	0xbfc6f038	-1.5542059
196	0x3fa88e60	1.3168449
197	0x3dcc3498	0.09970969
198	0x3e45fa4d	0.19333763
199	0x3e6d34fc	0.23164743
200	0x3d271615	0.040792543
201	0x3dc47e02	0.095943466
202	0xc03db02c	-2.9638777
203	0x3ebf10ed	0.373176
204	0xbf2bb7ec	-0.6707752
205	0x3e6b9dc4	0.23009402
206	0x3e2d7a81	0.16941263
207	0x3ebabe24	0.3647319
208	0x3f648da0	0.892786
209	0xbe92dd69	-0.28684548
210	0x3f33229a	0.6997467
211	0x3eff51a0	0.49866962
212	0xbf125222	-0.57156575
213	0xbf0b0fa8	-0.54320765
214	0xbd4f5583	-0.05061866
215	0x3db70c79	0.08937926
216	0xbd9b8ee8	-0.075956166
217	0xbee7c339	-0.4526613
218	0x3f5cecba	0.86298716
219	0xbf8fd91f	-1.1238135
220	0xbdb389b4	-0.08766499
221	0x3ef7fa6c	0.48433244
222	0x3f3f26e7	0.74668735
223	0xbc71eb00	-0.014765501
224	0xbf7350ec	-0.9504535
225	0xbe804434	-0.25052035
226	0xbf18c203	-0.5967104
227	0xbe98727a	-0.2977484
228	0x3ee7c634	0.45268404
229	0xbcace6a6	-0.021106075
230	0x3d97f7b5	0.07420293
231	0x3eafb15c	0.34315002
232	0x3f18420a	0.5947577
233	0x3e07f168	0.13275683
234	0x3e652633	0.22377853
235	0xbf442aa7	-0.7662758
236	0xbe617097	-0.22015606
237	0xbf802a3e	-1.0012891
238	0xbe3f9844	-0.18710428
239	0x3e1c9dba	0.15294543
240	0x3f48d744	0.7845347
241	0xbcd38c1e	-0.025823649
242	0x3d1e46c8	0.03864172
243	0xbedfbb6b	-0.43697676
244	0xbe89a0fc	-0.26880634
245	0xbf8c3d2b	-1.0956167
246	0x3e70c935	0.23514254
247	0xbe31202d	-0.1729743
248	0xbfadc238	-1.3574896
249	0xbeeacc0b	-0.45858797
250	0xbf93985c	-1.1530871
251	0x3ded8b1c	0.11598799
252	0x3fc758e8	1.5574007
253	0x3e38f3d7	0.18061768
254	0xbd84d006	-0.0648499
255	0x3c0181e1	0.007904501

fc2.weight f4 [32, 32]
0	0xbf31c8d0	-0.6944704
1	0x3f4bbc57	0.7958426
2	0x3f22a72b	0.6353633
3	0xbee2da69	-0.4430726
4	0x3ddb80d6	0.10717933
5	0x3ea0b34f	0.31386802
6	0x3ebcd5d5	0.3688189
7	0xbee38eea	-0.44444972
8	0x3f54e345	0.83159286
9	0x3cde60db	0.027145794
10	0xbec25866	-0.37958068
11	0x3e6f5341	0.23371603
12	0x3f0a0db5	0.53927165
13	0x3e070da4	0.13188797
14	0xbf1fd7b4	-0.6243851
15	0x3ef47bd8	0.47750735
16	0x3dda0e19	0.1064722
17	0x3f1b24cb	0.60603017
18	0xbd86edca	-0.065883234
19	0xbe09bb87	-0.13450442
20	0x3f2da12c	0.67824054
21	0xbf3de00f	-0.7417001
22	0x3e1045e7	0.14089166
23	0x3e8f4472	0.27981907
24	0x3d82a036	0.06378214
25	0xbcbf2339	-0.023332225
26	0x3ec9b1ec	0.39393556
27	0x3ccb49b8	0.024815425
28	0x3e8fa405	0.28054824
29	0x3f236754	0.6382954
30	0x3f182630	0.5943327
31	0x3fdb0d13	1.7113365
32	0xbe827850	-0.25482416
33	0x3f02b3cb	0.5105559
34	0x3e510311	0.20411326
35	0x3da99643	0.08280613
36	0x3d46bde9	0.048520956
37	0x3e45fd3c	0.19334882
38	0x3e5f3a37	0.21799551
39	0xbf08f317	-0.53495926
40	0x3eebb6ca	0.46037894
41	0x3e8f38ea	0.2797311
42	0xbe97c597	-0.29642937
43	0xba13915d	-0.0005629266
44	0xbe001fba	-0.12512103
45	0xbd013a43	-0.031549703
46	0xbfba48eb	-1.4553503
47	0x3f3e3611	0.7430125
48	0x3eac62b4	0.33669055
49	0xbd67c607	-0.056585338
50	0xbcd56c2a	-0.026052553
51	0x3e62c71e	0.2214627
52	0x3eea48bf	0.45758626
53	0xbf3b9196	-0.7326902
54	0xbd200c11	-0.039074007
55	0x3db1cdfc	0.086818665
56	0x3e133f80	0.14379692
57	0x3e17a4a8	0.14808905
58	0x3f036f67	0.5134186
59	0xbe11c3c5	-0.14234836
60	0x3d91e814	0.071243435
61	0x3ec4f65c	0.38469207
62	0x3f203059	0.6257377
63	0x3fa95e6a	1.3231938
64	0xbf120db7	-0.5705218
65	0x3f612b24	0.8795645
66	0x3e999dc2	0.30003172
67	0xbe3b0d11	-0.18266703
68	0x3e1c784a	0.15280262
69	0x3e885fe9	0.26635674
70	0x3e5e759e	0.21724555
71	0xbf0d6ec6	-0.5524715
72	0x3f2d3b85	0.67668945
73	0xbea3d8b2	-0.32001263
74	0xbe22acbb	-0.15886204
75	0x3dbf30c5	0.09335474
76	0x3dd0814f	0.10180914
77	0x3dabc5d1	0.0838734
78	0xbee1b172	-0.44080693
79	0x3f0cd769	0.5501619
80	0x3e727885	0.23678787
81	0x3ed5cdc7	0.41758558
82	0x3e2e9341	0.1704836
83	0x3ecdd831	0.40204003
84	0x3e9ea666	0.30986327
85	0xbf244df7	-0.64181465
86	0x3e828453	0.2549158
87	0x3e7afb57	0.24509941
88	0xbe1f43a5	-0.15553148
89	0x3cfa0231	0.030518623
90	0x3f11a848	0.568974
91	0xbdea168a	-0.1143008
92	0xbbc12dcd	-0.0058953525
93	0x3ee8001e	0.4531259
94	0x3ed2bbf1	0.41159013
95	0x3fb5399b	1.4158205
96	0xbdc4861a	-0.0959589
97	0xbf7f2e15	-0.9967969
98	0x3ebd8451	0.37015012
99	0x3d0aafdd	0.033859123
100	0x3e7ae21b	0.24500315
101	0x3f05d515	0.5227826
102	0x3e89dbd5	0.2692553
103	0xbf2f4557	-0.6846518
104	0x3e76681b	0.2406315
105	0x3f01cccd	0.50703126
106	0xbf882876	-1.0637348
107	0x3e65d1af	0.22443269
108	0x3f181b64	0.59416795
109	0x3d01a316	0.03164967
110	0xbfa8ee9f	-1.3197821
111	0xbf4d1340	-0.801075
112	0x3ed5f3d5	0.41787592
113	0x3f02fc3f	0.51166147
114	0xbfe45959	-1.7839767
115	0x3e0d1eb2	0.1378124
116	0xbdc55bc3	-0.09636643
117	0xbf3181e7	-0.6933884
118	0x3e5fec2d	0.21867438
119	0x3edc37b5	0.4301125
120	0xbeb6aeb5	-0.35680166
121	0x3e04edfc	0.12981409
122	0x3f5774ba	0.84162486
123	0x3ddfa3d9	0.10919923
124	0x3e13bb45	0.14426906
125	0xbf2bdd9b	-0.6713502
126	0x3e928762	0.28618914
127	0x3f8dfd3b	1.1092905
128	0xbe9f086f	-0.31061122
129	0x3f289866	0.6585754
130	0x3f5edf82	0.87059796
131	0xbeade379	-0.3396261
132	0xbde2b9c4	-0.11070588
133	0x3e410635	0.18850024
134	0x3e884b75	0.2662007
135	0xbf3dc35d	-0.74126226
136	0x3f322fd7	0.6960425
137	0xbdb00f4c	-0.08596668
138	0xbf05bd27	-0.5224175
139	0xbdebaed2	-0.11507954
140	0x3f27230c	0.6528785
141	0xbddfb9b9	-0.10924096
142	0xbf037498	-0.5134978
143	0x3f39c0f0	0.72560024
144	0x3eba84dd	0.36429492
145	0x3f38b2d8	0.72147894
146	0xbe5ebf53	-0.21752672
147	0x3deb7e8a	0.11498745
148	0x3eaaa8b8	0.33331847
149	0xbf561e73	-0.8364021
150	0x3e76d86b	0.24105994
151	0x3ddb1a66	0.106983945
152	0x3e3f4037	0.1867684
153	0x3e746a4d	0.23868676
154	0xbc9c6d59	-0.01909511
155	0xbe91db32	-0.28487545
156	0x3e294eac	0.16533917
157	0x3e861801	0.2619019
158	0x3e907097	0.282109
159	0x3fca23ea	1.579221
160	0xbeb072e6	-0.3446266
161	0x3ec460ac	0.38355005
162	0x3ef94eda	0.4869297
163	0xbdf3df17	-0.119077854
164	0x3d01e7b6	0.031715117
165	0xbecfa3e9	-0.4055474
166	0x3ec12493	0.37723216
167	0xbd36789a	-0.04454861
168	0x3f161c91	0.5863734
169	0x3d5ea183	0.05435325
170	0x3ebbb184	0.3665887
171	0xbf38f7a0	-0.72252846
172	0xbe859198	-0.26087642
173	0x3eaef1b8	0.34168792
174	0x3f06ceca	0.52659285
175	0xbfb2b63f	-1.3961867
176	0xbe857dfc	-0.2607268
177	0x3d498d84	0.049207225
178	0x3f66f602	0.9021913
179	0x3de16f8d	0.11007605
180	0x3d4b4f2a	0.049636044
181	0xbf2d90db	-0.67799157
182	0x3dd1a4d0	0.102365136
183	0x3d5b73ec	0.05357735
184	0xbe238b36	-0.15971074
185	0xbf212222	-0.6294271
186	0xbacbadaa	-0.0015539427
187	0x3ea8897a	0.32917386
188	0xbc2df04b	-0.010616372
189	0x3e825c50	0.25461054
190	0xbf065894	-0.5247891
191	0x3f13aa90	0.5768213
192	0xbf2544b3	-0.6455795
193	0x3f056b1c	0.5211656
194	0x3f21326b	0.62967557
195	0xbdd3bc9b	-0.10338708
196	0x3ebbfce0	0.36716366
197	0x3ea5dded	0.32395878
198	0x3e11a107	0.14221583
199	0xbf0d5820	-0.55212593
200	0x3ef511c7	0.47865126
201	0x3ec34621	0.38139442
202	0xbe7644c0	-0.24049664
203	0x3e7ed6c3	0.24886613
204	0xbdd4367a	-0.10361953
205	0xbe0ab95b	-0.1354727
206	0xbedb7cbe	-0.42868608
207	0x3e4e0090	0.20117402
208	0x3e958aba	0.29207402
209	0x3f02e82f	0.51135534
210	0x3ba27b9d	0.0049585835
211	0xbea0b96c	-0.31391466
212	0x3ddff6b1	0.109357245
213	0xbf34dff4	-0.70654225
214	0x3e955887	0.29169104
215	0x3efd50ec	0.494758
216	0xbdc85b46	-0.09783034
217	0xbd27f771	-0.041007463
218	0x3f339713	0.70152396
219	0xbe9cd54a	-0.30631477
220	0x3c8c9ee5	0.01716561
221	0x3f15e022	0.58545125
222	0x3eee9d2b	0.46604285
223	0x3fa4d737	1.2878178
224	0x4029a298	2.650549
225	0xbe690b7a	-0.22758284
226	0xbfdcbc51	-1.724497
227	0x3f73b3fd	0.95196515
228	0xbfa6b828	-1.302495
229	0x3d39d580	0.045369625
230	0xbfa0f4a7	-1.2574662
231	0xbfc69aa8	-1.5515947
232	0xbf8097a5	-1.0046278
233	0x3e2092fe	0.15681073
234	0x3ec74c62	0.38925463
235	0xbf4ecb60	-0.80779076
236	0x4021eaee	2.529964
237	0xbf8a5703	-1.0807804
238	0x3fcc2641	1.5949174
239	0xbdb1e4a4	-0.08686188
240	0xbeea6674	-0.4578129
241	0xbffeddaf	-1.9911402
242	0x3e7d1926	0.24716625
243	0x3eb93c5c	0.36178863
244	0xbfd7ae35	-1.6850039
245	0xbeb8bbd2	-0.36080796
246	0xbd00bc0a	-0.031429328
247	0xbf7c5207	-0.98562664
248	0x3f92eb61	1.1478082
249	0x3f64c641	0.8936501
250	0x3d77941c	0.060443982
251	0xc00d3688	-2.2064533
252	0xbf9a1439	-1.2037421
253	0x3e821b3f	0.25411412
254	0xbd20988b	-0.039207976
255	0xbf217c5f	-0.630804

fc3.weight f4 [4, 32]
0	0xbefce6ae	-0.49394745
1	0xbf127e16	-0.5722364
2	0xbecf1828	-0.40448117
3	0xbe820679	-0.25395563
4	0xbef41e50	-0.47679377
5	0xbcdc3d39	-0.026884662
6	0xbee994b5	-0.45621267
7	0x402101f0	2.5157433
8	0x4023582a	2.552256
9	0x4033dc02	2.8103032
10	0xbd08fe5e	-0.03344571
11	0xbe7c9436	-0.24665913
12	0xbebc7a3e	-0.36812013
13	0x4007b440	2.1203766
14	0xbefba226	-0.49147147
15	0xbf27bc06	-0.65521276
16	0x407941df	3.8946455
17	0xbf37ba7b	-0.7176892
18	0xbf97c327	-1.1856431
19	0xbef0923f	-0.46986577
20	0xbf372d70	-0.7155371
21	0x40056c63	2.0847404
22	0xbecf758a	-0.40519363
23	0xbd3b0d80	-0.04566717
24	0xbe723163	-0.23651652
25	0xbe700fb5	-0.23443492
26	0x3eb4f2c0	0.35341454
27	0xbde20564	-0.110361844
28	0xbf2b0b7f	-0.66814417
29	0xbe8cd14a	-0.27503425
30	0x404bca0a	3.1842065
31	0xbee563bd	-0.44802657
32	0xbeb1942b	-0.34683356
33	0xbedbe7e5	-0.4295036
34	0xbedbfa07	-0.42964193
35	0x3dfecdd0	0.12441599
36	0xbf2a6918	-0.6656661
37	0xbf9dc889	-1.2326823
38	0xbe6d6803	-0.23184209
39	0x4038ce90	2.8876076
40	0x401972f5	2.3976414
41	0x403ef32a	2.9835916
42	0xbec349e8	-0.38142323
43	0xbf4241ed	-0.75881845
44	0xbf10257a	-0.56307185
45	0x40124d73	2.2859771
46	0xbebb33b6	-0.3656289
47	0xbea6c3e4	-0.32571328
48	0x4066b3c2	3.6047215
49	0xbf23a8cb	-0.6392943
50	0xbf3d8f45	-0.74046737
51	0xbf1e7094	-0.6189053
52	0xbe065b13	-0.1312068
53	0x3fe2bffa	1.7714837
54	0xbf13099a	-0.57436526
55	0xbef06149	-0.46949223
56	0xbe0b7be1	-0.13621475
57	0xbf1f778d	-0.62291795
58	0x3f1dabac	0.61590075
59	0x3d06593d	0.032799948
60	0xbf0ad045	-0.54224044
61	0x3caab93b	0.020840278
62	0x404a3e06	3.1600356
63	0xbcbaa95b	-0.022785833
64	0xbf1d5764	-0.6146147
65	0xbf05c983	-0.5226061
66	0xbe904819	-0.28180006
67	0xbfbbb0ce	-1.4663332
68	0xbf0676d1	-0.5252505
69	0xbd216a65	-0.039408106
70	0xbf33b8d5	-0.70203906
71	0x402a0ff4	2.6572237
72	0x403fc852	2.9966016
73	0x40223ee4	2.5350885
74	0xbf025d32	-0.50923455
75	0xbe93582f	-0.28778216
76	0xbf1298f7	-0.57264656
77	0x3f178dba	0.5920063
78	0xbe886c9c	-0.26645362
79	0xbed10685	-0.40825287
80	0x3feee22b	1.8662771
81	0xbe90ccd3	-0.28281268
82	0xbf91bba6	-1.1385391
83	0xbe67c81d	-0.22634931
84	0x3cc92542	0.024553899
85	0x400ec6fd	2.2308953
86	0xbef09061	-0.46985152
87	0xbf47e89a	-0.78089297
88	0xbf4e0be5	-0.804869
89	0xbe892214	-0.26783812
90	0x40445f19	3.0683043
91	0x3dc6f10d	0.097139455
92	0xbf28739b	-0.658014
93	0xbf402645	-0.75058395
94	0x3fcaa99c	1.5833011
95	0xbe0c4eb4	-0.13701898
96	0xbeb5d03c	-0.35510433
97	0xbeee5686	-0.46550387
98	0xbef44f9e	-0.47716993
99	0xbe9501f6	-0.2910306
100	0xbdfb903e	-0.122833714
101	0xbf61d44c	-0.88214564
102	0xbefe5026	-0.49670523
103	0x3f9c49ab	1.2209982
104	0x40220b68	2.5319462
105	0x407c454a	3.941729
106	0xbec8f61a	-0.3925026
107	0xbf028fe4	-0.5100081
108	0xbef9b282	-0.48769003
109	0x400f69b1	2.240826
110	0xbedecb60	-0.43514538
111	0xbdbe5535	-0.09293596
112	0x40614b6e	3.5202289
113	0xbe04a3eb	-0.12953155
114	0xbf9a0caa	-1.2035115
115	0xbee4d9e8	-0.446975
116	0xbee2a117	-0.44263527
117	0x4000a724	2.0102015
118	0xbea4b2f3	-0.32167777
119	0xbeb3c213	-0.35109004
120	0xbf0daffc	-0.55346656
121	0xbf0167b8	-0.5054889
122	0x3ea2912e	0.31751388
123	0x3d885580	0.06656933
124	0xbeb3e8ec	-0.35138643
125	0xbe83983e	-0.2570209
126	0x405e3292	3.4718366
127	0xbf22185d	-0.63318425
