dqn/exercise/models/checkpoint412_-28.424452789945654.pth (torch, 7111 bytes, 3 tensors)

fc1.weight f4 [32, 8]
000000 70 47 9c 3e 09 5e c5 ba c6 db 28 bf 40 d0 83 3d
       0.30523252 -0.0015057932 -0.6596035 0.06436205
000010 e0 df 1b 40 40 d6 e4 be 07 fe cc 3e 5e fe f4 3e
       2.4355392 -0.4469471 0.40037557 0.47850317
000020 b5 5f 44 bd 05 59 8e 3e 59 9a c2 bd 52 df 49 be
       -0.047942836 0.27802292 -0.09502096 -0.19714096
000030 61 d6 4b bf d3 cf a0 bf 8a ad a0 be 1b 45 9a be
       -0.7962399 -1.2563423 -0.313824 -0.30130848
000040 4c a2 56 3e a0 f3 8d 3e 11 03 43 be cb ca 03 bf
       0.20960349 0.27724934 -0.19044138 -0.5148131
000050 9b 67 3e 3f 96 f1 81 3f 67 33 20 bd 3f 5e 90 3e
       0.7437684 1.0151851 -0.03911152 0.28196904
000060 b5 cd 23 3f 3c 3e 11 3c b0 85 9f 3f 24 71 7f 3e
       0.6398576 0.0088649355 1.2462673 0.24945503
000070 9a 77 84 bf b9 cd 17 bf 22 13 45 be 83 bc 3f 3e
       -1.0349 -0.5929828 -0.1924558 0.18724255
000080 a1 52 d4 be 3a 3d b1 bf 6c 65 81 be 6f 3b 89 bf
       -0.4146929 -1.384681 -0.2527269 -1.0721263
000090 5c c2 23 be a3 86 53 3e 41 39 94 3e 94 eb 97 3e
       -0.15992111 0.20656829 0.2894993 0.2967192
0000a0 2c 23 33 3f 16 8c 8a bf c2 e3 de 3e 11 33 dc be
       0.69975543 -1.0824001 0.4353314 -0.4300771
0000b0 d4 fa 47 bf f9 7a 26 bf aa ba 89 3e 1f 86 a6 3e
       -0.7811711 -0.6503139 0.26900226 0.325242
0000c0 66 d3 0a 3b 4b 14 7e bf d0 ce 80 bd a4 98 3b bf
       0.0021183132 -0.99249715 -0.06289446 -0.73279786
0000d0 cf 20 00 3f fd e1 9d 3e 62 59 e7 3e ab 79 9c be
       0.5005006 0.30836478 0.4518538 -0.30561575
0000e0 30 05 07 3f d4 1b dd bf b7 97 bd 3b a1 8b 8c bf
       0.5274229 -1.7274117 0.005785908 -1.0980111
0000f0 f0 2c 1a 3e 69 e8 51 3e b4 81 85 3d 16 ef b9 3d
       0.15056205 0.20498814 0.065188795 0.09078805
000100 ab ed 28 3f 7e 68 87 3d 13 04 15 3e cd b1 5c be
       0.6598765 0.06611727 0.14552335 -0.215522
000110 2e 3c 34 3f 6b f2 97 3f 05 78 69 3d e8 eb 18 bd
       0.70404327 1.1870855 0.056999225 -0.037334353
000120 fd 0e ad 3e 37 2c 59 3f 6a 38 64 3e f0 38 ab 3f
       0.33800498 0.8483309 0.22287145 1.3376751
000130 2d d8 8e 3c 58 db 13 bf cf db ca 3d d1 61 27 bf
       0.017437065 -0.57756567 0.099052064 -0.6538363
000140 e4 6a 7d bd 89 cc 06 3f bc 75 2b 3f 5b 19 f6 bf
       -0.061869517 0.52655846 0.66976523 -1.9226488
000150 72 85 13 bf 40 29 13 bf cb 45 e2 3e 38 25 31 bd
       -0.57625496 -0.5748482 0.44193873 -0.043248385
000160 6e 03 5f 3f 03 46 4f bf a7 42 77 3f ea ba 2a be
       0.8711461 -0.80966204 0.9658608 -0.16672865
000170 8b 37 c7 3e a1 f2 ae 3e 2f a1 af bd a1 ac a2 3d
       0.38909563 0.34169486 -0.08575665 0.079430826
000180 7f 5f 2b bd da 3c 90 be 1d 0d b4 be 16 79 4c be
       -0.04183912 -0.28171426 -0.35166255 -0.19968066
000190 ff fc 59 3f 2a fc 80 3f 78 2f f3 3c d3 4f 92 be
       0.85151666 1.0076954 0.02968572 -0.28576526
0001a0 87 64 06 bf 1c 29 7f bf 86 f8 67 be d6 8b 89 bf
       -0.5249714 -0.996721 -0.22653398 -1.07458
0001b0 20 3d 32 3e 9c 1a 0c 3e ad 2c 91 bc 66 f4 91 3e
       0.1740613 0.13682026 -0.017721498 0.28506774
0001c0 95 be ce bd f6 ca 64 3f e5 02 33 3f d3 52 97 bf
       -0.100949444 0.89372194 0.6992629 -1.1822151
0001d0 1a db 9b be a0 85 05 3f 84 55 1a bf 78 05 3c 3e
       -0.304406 0.5215702 -0.60286736 0.18361461
0001e0 22 eb 3c be 25 00 a3 be 6f 46 5a be df 2d 4a 3e
       -0.18449071 -0.31836048 -0.21315931 0.19744061
0001f0 a5 63 2e bf ca 23 95 bf 62 48 6b be 92 ab 56 be
       -0.68120795 -1.1651547 -0.2297683 -0.20963886
000200 04 82 12 3f ec 51 46 bf fb 65 73 3e 9d b4 8e be
       0.5722964 -0.7746875 0.23769371 -0.27872172
000210 05 78 1f bf b9 6d 19 bf fc 5a ba 3e 8f 8a 7a 3e
       -0.6229251 -0.5993305 0.3639754 0.24466918
000220 86 3f e2 be 21 42 e3 3d db cf 85 3e cc 03 f8 3c
       -0.4418909 0.110965975 0.26135144 0.030275248
000230 09 61 2c 3f ba 0e ad 3f 74 ec 8d 3e 4e 7a 0b bf
       0.67335564 1.3520119 0.27719462 -0.544835
000240 94 17 d7 be dc ba 83 3d dc 20 92 3c 2a 38 b9 bc
       -0.42010176 0.06432125 0.017837934 -0.022609789
000250 95 fd d2 be aa f3 98 bf ce ee de be 48 ec 4c 3e
       -0.41209093 -1.194936 -0.4354157 0.20012009
000260 1f b7 27 be 46 d3 60 bf b0 cb 92 3d 7e 74 71 bf
       -0.16378449 -0.8782238 0.071677566 -0.9431838
000270 4b 5d 6d be 09 21 1d bf 2b 08 be 3c cd 8f d3 bd
       -0.2318012 -0.6137853 0.023197254 -0.10330162
000280 67 c7 34 3d 64 ff 88 bf 54 b2 ae be e1 bf 87 bf
       0.044135477 -1.0702939 -0.3412043 -1.0605432
000290 3c c0 99 3e 84 81 a3 3e e5 1c c2 bc 3f 9f 3b 3e
       0.30029476 0.3193475 -0.023695419 0.18322466
0002a0 3f 85 9d 3e 98 a3 89 bf e4 05 c7 3e ca ef 5e bf
       0.3076572 -1.075305 0.38871682 -0.8708464
0002b0 90 30 24 3f 09 4b 3c 3e 1d cc 1e be 81 5f f7 3d
       0.641366 0.18387999 -0.1550755 0.12078763
0002c0 92 23 b8 3e f1 07 7e bf 4c 54 05 3f f5 7f b5 be
       0.35964638 -0.9923087 0.5208175 -0.35449186
0002d0 c5 50 01 bf a3 26 10 bf e8 a7 82 3e 4c 90 d7 3e
       -0.5051387 -0.56308955 0.25518727 0.42102277
0002e0 65 63 69 3f e1 3d 3f bf 8e 43 1b 3e 2e c2 77 be
       0.9116729 -0.74703795 0.15162489 -0.24195167
0002f0 5d 32 0b bf d1 37 ec bd c2 5d dc 3e f7 f5 6e 3e
       -0.54373723 -0.11534084 0.43040282 0.23336016
000300 ff b3 b0 3e 4e 3e f2 bd 8f e2 4b bf 95 bc ca bf
       0.34512326 -0.1182829 -0.79642576 -1.5838801
000310 f9 97 a1 3f 27 d5 53 bd 59 e8 d8 3d 15 bc 15 3e
       1.2624503 -0.05171695 0.10591192 0.14622529
000320 4a c4 b2 3d c9 08 94 3e 3e 02 00 c0 e2 c7 55 be
       0.087288454 0.28912953 -2.0001369 -0.2087703
000330 41 c9 bc 3e 9c e5 e4 3e 68 6e 99 bd 2a f0 5f 3e
       0.36872295 0.44706428 -0.074917614 0.21868959
000340 71 52 23 3f 93 1f a3 be 74 d0 d6 3e e4 a6 48 3d
       0.6379767 -0.31860027 0.41955912 0.048987284
000350 ec 76 0f bf c8 57 1b bf 2f d3 01 3d a2 0f 78 3e
       -0.56040835 -0.6068082 0.03169554 0.24224713
000360 4a 65 b1 3b 97 20 a2 bf 2e 66 57 3e dc f5 98 bf
       0.005413686 -1.2666196 0.21035072 -1.195003
000370 ba 6e 55 3e 7b 51 84 3e bf b6 9e 3e cc 34 a3 bc
       0.2084302 0.25843415 0.309988 -0.019922636
000380 56 a4 5a bf ba 35 51 bf 7a 6d df be 52 56 3f bf
       -0.85407007 -0.81722605 -0.4363821 -0.7474109
000390 5d 5b 14 3d a3 3e e2 3c 4d a4 a2 3d ad fc ca 3e
       0.036219943 0.027617758 0.07941494 0.396459
0003a0 69 cf 3f 3f e0 33 0e 3e 0c 60 ad 3d 35 6d 59 be
       0.7492586 0.13886976 0.08465585 -0.21233065
0003b0 1f ad 09 bf 93 0d 8b bf 32 cb 6e be a5 2d 01 3d
       -0.53779787 -1.0863518 -0.233197 0.03153767
0003c0 a3 88 46 3f 49 74 26 3d c3 aa ed bd 5c 31 6a be
       0.7755224 0.040638242 -0.11604836 -0.22870392
0003d0 0f 84 18 bf 02 f7 89 bf 46 3e 64 3d 8d 7a 54 be
       -0.59576505 -1.0778506 0.05572345 -0.20749874
0003e0 3b 5d 9c bf 4a f6 4f bf d2 98 43 bf 41 8a 22 3d
       -1.2215952 -0.8123518 -0.7640506 0.03968263
0003f0 91 4a 80 3f ae d5 35 3e e0 0b 4a be 41 2e 72 be
       1.0022756 0.17757294 -0.19731092 -0.23650457

fc2.weight f4 [32, 32]
000000 f0 ad c6 be 8c fc 53 3f 80 c7 f0 3e d2 64 94 3e
       -0.3880458 0.8280723 0.47027206 0.2898317
000010 04 2b f6 3e 0a d2 27 3f 59 a4 1f 3f 76 ff 48 3f
       0.48079693 0.6555487 0.6236015 0.785148
000020 23 4f 71 3f 93 01 88 3e 23 57 54 3a dc 0f 17 3f
       0.9426138 0.265637 0.00081001426 0.59008574
000030 5c 17 59 3f 51 a9 1d 3f 87 d4 02 bf e1 3d 28 3f
       0.8480127 0.6158648 -0.5110554 0.6571942
000040 58 84 c2 3e e4 bd 5e 3f 8d a4 06 3f cf de 92 3e
       0.37991595 0.870085 0.52594835 0.28685614
000050 0a dc 62 3f bc e2 bc 3e 15 82 e8 3e 75 9f 1c 3f
       0.88617 0.36891735 0.45411745 0.6118081
000060 24 87 77 3e 26 63 99 3e 64 90 e5 3e 99 fa 0a 3f
       0.24172646 0.29958457 0.44836724 0.5428863
000070 3a 1a 0c 3f 76 f3 31 3f 48 ad 1a 3f f6 d2 ab 3f
       0.5472752 0.69512117 0.60420656 1.3423755
000080 0e 27 34 be f3 2d 4d 3f 21 66 0b bd 0b 3d e1 3e
       -0.17593023 0.8014824 -0.034032945 0.43991885
000090 d6 47 95 3e 9f c8 e4 3e 9b ae 8c 3e 03 29 be 3e
       0.2915637 0.44684312 0.27476963 0.37140664
0000a0 55 de dc 3e 1a 5d 40 3e be e1 82 3e 97 71 14 3e
       0.43138376 0.18785515 0.25562853 0.14496456
0000b0 c1 b0 25 3e 19 75 af 3e fa fb 40 bf f8 74 69 3f
       0.16180708 0.34269026 -0.75384486 0.91194105
0000c0 42 a7 fd 3e 04 32 87 3e ac 83 31 3f fc 4e fd 3e
       0.4954167 0.26405346 0.6934154 0.49474323
0000d0 4c 07 0f 3f 0f 5b 60 3e 49 d2 35 3e f8 38 a8 3e
       0.5587051 0.21909736 0.17755999 0.32855964
0000e0 44 0b 26 3e ef 90 99 3d a3 b6 18 3f 03 ec 4c 3e
       0.16215235 0.07498347 0.5965368 0.20011906
0000f0 3c 93 90 3e e2 cd 05 3f d8 f8 37 3f 8b 4a 87 3f
       0.2823733 0.5226728 0.7186408 1.0569624
000100 bb cd 95 be ea ea 50 3f 2d e0 72 3d 8c 73 aa 3e
       -0.29258522 0.8160845 0.059295822 0.3329128
000110 53 f2 00 3f 5b 20 11 3f 8d 1d e2 3e 36 ea ea 3e
       0.5036976 0.56689996 0.4416317 0.45881814
000120 01 6f 43 3f 80 ce 2a be 8f 18 fc 3d f1 54 8b 3e
       0.76341254 -0.16680336 0.12309372 0.27213243
000130 bb 13 02 3f 58 d1 01 3f 15 2c f4 be eb b3 44 3f
       0.50811356 0.5071006 -0.47689882 0.76837033
000140 4e e6 ed 3e 51 a1 0d 3f 8e 18 53 3f 40 ed 18 3f
       0.4646477 0.55324274 0.8245934 0.59737015
000150 dc e6 e7 3e 7d 26 af 3e 91 45 09 3f ba 0b 0b 3f
       0.4529332 0.34209052 0.53621775 0.5431477
000160 a3 87 97 bc 82 ce 0c 3e c5 8f 1a 3f ef cc 94 3e
       -0.018497294 0.13750651 0.60375625 0.29062602
000170 be 39 86 3e a5 c6 1d 3f 29 00 ec 3e a2 70 9a 3f
       0.2621593 0.6163123 0.46093872 1.2065623
000180 d8 f5 61 be 47 58 91 3d 72 ee dc 3e f0 29 ed 3e
       -0.22066438 0.07096916 0.4315067 0.46321058
000190 53 63 7f 3e ce 8b e4 3e 85 57 26 3e aa 29 a1 3e
       0.24940233 0.44637913 0.16244324 0.314771
0001a0 7a e1 df 3e 76 08 09 bf 72 4c 05 bf 04 c8 b3 3e
       0.43726712 -0.53528535 -0.5206977 0.35113537
0001b0 6f 17 37 3f ec 6c c9 3e 5d 34 3f be 0c d5 a0 be
       0.7152013 0.39340913 -0.18672319 -0.31412542
0001c0 1e 74 3a 3e 18 bf 48 3f f4 37 1c bf 25 9b 8e 3e
       0.18208358 0.78416586 -0.6102288 0.2785274
0001d0 5c 6b 90 3e aa d9 96 3d 66 e9 37 3e 18 a8 81 3e
       0.2820691 0.07365735 0.17960128 0.25323558
0001e0 fb 65 f6 3c 9a d5 66 3e 93 78 e2 3e 8b 0d b2 3e
       0.030077925 0.2254242 0.44232616 0.34775957
0001f0 72 69 92 3e e8 fb b3 bd 5a ab 87 3d 13 4b 7a 3f
       0.28596073 -0.08788282 0.066244796 0.97770804
000200 2e ae 84 be 5a 74 2d 3f a7 89 2e 3f da 01 76 3e
       -0.2591414 0.67755663 0.6817879 0.24024144
000210 8f 0f f2 3d d7 75 ee 3e a1 a4 94 3e ae ed d2 3e
       0.11819374 0.4657428 0.29031852 0.4119696
000220 9e 28 38 3f 4b 0d 14 3e 94 38 21 be 85 8f 0e 3f
       0.71936977 0.14458196 -0.15744239 0.55687743
000230 66 be 60 3f 0b c0 73 3e a3 48 93 be af cd 57 3f
       0.87790525 0.23803727 -0.28766355 0.84298223
000240 c8 6f 05 3f 98 25 7b 3f ab 86 84 3e f2 ec 06 3f
       0.5212369 0.9810424 0.25883994 0.527053
000250 67 80 06 3f 85 5d 81 3e a9 bd f3 3e 37 0f ca 3e
       0.52539676 0.25266662 0.47605637 0.39464733
000260 f6 e5 8c 3e 30 02 1f 3f 10 68 86 3e 8c d3 c6 3d
       0.27519196 0.6211271 0.26251268 0.09708318
000270 0e f6 8d 3e e5 20 b8 3e 42 b9 c3 3e 3b 1f 8f 3f
       0.27726787 0.35962597 0.38227278 1.1181406
000280 3f e4 6c be 14 e4 73 3e 08 75 12 3e 3d f5 11 be
       -0.23133944 0.23817474 0.14302456 -0.14253707
000290 cb 3b ca bd 29 e0 c0 be 3d 96 83 3e 65 00 81 3e
       -0.09874686 -0.3767102 0.2570056 0.25195614
0002a0 ef c3 18 3f bf 0d 39 3d 71 cd a3 3d cb 4d 61 3e
       0.5967397 0.045179125 0.07998169 0.22002332
0002b0 0e 4e 0d 3e 84 93 b4 3c 3c e9 7a 3e b4 5c 41 bf
       0.13799307 0.022042997 0.24503034 -0.7553208
0002c0 46 bf bc be 43 0b 6a 3e 6a ae 85 3f 0c ee 84 be
       -0.3686468 0.22855859 1.0443852 -0.25962865
0002d0 c4 83 87 3d 3e 66 a9 3d d9 37 2c bc 37 de 9f 3d
       0.06616929 0.08271454 -0.010511362 0.07806056
0002e0 3b 5f aa bd 3c 05 c3 be 92 dc 3f be 36 67 4c 3e
       -0.08318945 -0.3808993 -0.18736485 0.19961247
0002f0 99 2f 8d be e7 83 23 3f 66 06 45 be 40 94 1d 3f
       -0.27575377 0.6387314 -0.19240722 0.61554337
000300 89 6c c0 be 28 61 11 3f f4 10 cb 3e 3b 2b 32 3f
       -0.37582806 0.56788874 0.39661372 0.69597214
000310 f7 65 16 3f 47 ec 04 3f d4 db 8b 3e ef aa 06 3f
       0.58749336 0.5192303 0.27316153 0.52604574
000320 c7 0c 09 3f e4 ba f9 3e 7c a4 58 bd ee f4 29 3e
       0.5353512 0.487754 -0.05289124 0.1659734
000330 5d 2a 61 3e 60 72 87 3e 78 d3 e7 be 13 96 ef 3e
       0.21988817 0.2645445 -0.45278525 0.46794185
000340 74 2c cf 3e 06 0b 1b 3f f1 72 3d 3f f3 f6 0e 3e
       0.40463603 0.60563695 0.7400351 0.13961391
000350 07 59 ae 3e f1 4c ff 3d 31 ed de 3e a5 fc 22 3f
       0.34052297 0.12465847 0.43540338 0.63666755
000360 cb dd 27 bd d1 ab 9b 3d fd 7b 26 3f b8 53 b4 3c
       -0.040983003 0.07601131 0.6503294 0.022012576
000370 33 5c 46 3e b9 e1 31 3f 2d cf db 3e 04 10 88 3f
       0.19371109 0.6948505 0.429315 1.0629888
000380 d2 1f ec 3f 48 94 b6 bd 97 a4 cd bf 0a 04 a2 3e
       1.8447211 -0.08915001 -1.6065854 0.31643707
000390 bb ad 99 bf f2 ab 40 bc 8a 3c 55 bf 8c ce b5 bf
       -1.2006143 -0.011759745 -0.832955 -1.4203658
0003a0 37 ef 7a bf b3 f0 95 be dc 93 52 3f 74 75 6e bf
       -0.9802126 -0.292852 0.82256866 -0.9314797
0003b0 fd 54 f6 3e 54 85 aa bf c6 5f c7 3f 85 89 9d be
       0.48111716 -1.3321939 1.5576103 -0.30768982
0003c0 cc 08 b6 be 84 6d 1d c0 9a f6 d7 3d 60 78 64 3e
       -0.35553586 -2.4598093 0.105450824 0.22311544
0003d0 43 34 d1 bf db 0c 93 bf 35 cc 98 bc 9a 68 63 be
       -1.6344074 -1.1488298 -0.018652061 -0.22207871
0003e0 44 3e 89 3f ed cf 83 bd 44 b3 90 bd 61 6b 8f bf
       1.0722127 -0.06436143 -0.07065442 -1.1204644
0003f0 76 45 95 bf 31 15 ed 3d 73 75 23 be 7b a5 ae be
       -1.1661823 0.115763076 -0.15962772 -0.34110627

fc3.weight f4 [4, 32]
000000 d0 be 12 bf 86 ad f0 be 1f e1 ec be 2a cf a8 be
       -0.57322407 -0.47007388 -0.46265504 -0.32970554
000010 02 d7 c5 be 86 9f 05 3e a2 13 e7 be 20 6d d6 3f
       -0.386406 0.13049135 -0.45132166 1.6752052
000020 f4 09 1e 40 aa 0d 28 40 c3 c2 88 be b6 cf b8 be
       2.4693575 2.625834 -0.2671109 -0.3609597
000030 03 34 01 bf 8a 5e 73 3f 81 d2 18 bf 5b 9a 14 bf
       -0.5046999 0.9506613 -0.59696203 -0.5804803
000040 57 87 43 40 30 5a 0d bf ec a5 90 be 8b a9 1a bf
       3.0551355 -0.5521574 -0.28251588 -0.6041495
000050 f7 78 07 bf 0c ff c3 3f ef 1a c4 be 28 e0 83 be
       -0.5291895 1.5312209 -0.383018 -0.25756955
000060 09 bb 9d be 92 cd d5 be dd 3b 9e 3c 64 05 e2 bd
       -0.3080676 -0.417584 0.019315654 -0.110361844
000070 14 d9 26 bf 45 47 9d be 0a 5d 05 40 70 65 f5 be
       -0.65174985 -0.30718437 2.0838037 -0.47928953
000080 77 f4 ec be 06 de 0e bf 7c f8 b0 be c6 8c 2f be
       -0.46280262 -0.5580753 -0.3456458 -0.17143545
000090 78 81 3b bf ef 8b c8 be 54 c9 1f be 1e 31 2a 40
       -0.7324443 -0.3916926 -0.15604144 2.6592479
0000a0 ef 95 02 40 32 88 fc 3f 58 b2 de be 13 69 1d bf
       2.0404012 1.9729064 -0.4349544 -0.61488456
0000b0 2c d2 1c bf 90 d4 bc 3f 0e 44 ba be ac af 0b bf
       -0.61258197 1.4752369 -0.36380047 -0.5456493
0000c0 33 75 37 40 a8 63 2d bf 1a e4 c2 be ac 5b 15 bf
       2.8665283 -0.6773019 -0.38064653 -0.58343005
0000d0 ec 3d 83 be 79 68 de 3f 8d 65 1e bf 75 e9 d7 be
       -0.2563318 1.7375633 -0.61873704 -0.421703
0000e0 1f 3a 10 be 2b e5 01 bf 8f 6b 0d 3d 3d 59 06 3d
       -0.14084671 -0.5074031 0.034526404 0.032799948
0000f0 45 77 2b bf 88 41 9f be 44 e3 f9 3f 0e 83 9b bd
       -0.66978866 -0.31104684 1.9522481 -0.07593356
000100 8e c5 18 bf 23 bf fc be c3 6d a9 be 3b 18 37 bf
       -0.59676445 -0.49364576 -0.33091554 -0.7152135
000110 ad 02 07 bf 90 83 97 bc b7 26 24 bf 3d da d6 3f
       -0.5273846 -0.018495351 -0.64121574 1.6785351
000120 77 16 1f 40 01 fa 20 40 a8 44 07 bf 24 70 a2 be
       2.4857461 2.515259 -0.52839136 -0.31726182
000130 37 af 1a bf 0f cf 73 bf 82 ef 9f be e8 b1 d8 be
       -0.60423607 -0.9523782 -0.31237417 -0.42323232
000140 24 f2 ea 3f a6 dd a0 be 66 da 45 bf f7 97 9a be
       1.8355145 -0.31419104 -0.77286375 -0.30194065
000150 ff ca b7 bd 58 f3 eb 3f 01 bf eb be 9f 8c 02 bf
       -0.08974265 1.8433638 -0.46044162 -0.5099582
000160 6a f5 36 bf dc e6 99 be ca e1 2a 40 0d f1 c6 3d
       -0.7146822 -0.30058944 2.670031 0.097139455
000170 eb ed 2d bf 9b 4b 20 bf 3d e5 c4 3e 5f e3 73 be
       -0.6794116 -0.62615365 0.38456145 -0.23817204
000180 0f 04 e4 be e6 73 0b bf 93 db 10 bf 5c d9 85 be
       -0.44534346 -0.5447372 -0.56585044 -0.26142395
000190 7b 56 48 be 01 97 47 bf e8 07 0f bf 32 3f 13 3f
       -0.1956424 -0.7796479 -0.5587144 0.57518303
0001a0 ad c2 16 40 57 cb 41 40 91 ec ed be b4 da 14 bf
       2.355632 3.0280359 -0.46469548 -0.58146214
0001b0 7c 9b 11 bf be 6c 87 3f 91 73 f9 be 7f 1a 38 be
       -0.56877875 1.058006 -0.48720983 -0.17978857
0001c0 c7 cc 3f 40 04 4a 62 be f8 a8 31 bf ec fc 09 bf
       2.9968736 -0.22098547 -0.6939845 -0.53901553
0001d0 56 75 00 bf 54 7c c8 3f 28 ac cf be 9f 27 d0 be
       -0.5017904 1.5662942 -0.40561032 -0.40655228
0001e0 4a cd 06 bf 8b c0 1f bf 28 72 82 3e 80 55 88 3d
       -0.52656996 -0.6240317 0.2547772 0.06656933
0001f0 72 c8 d7 be 99 91 94 be c2 c1 38 40 91 52 25 bf
       -0.42145115 -0.29017332 2.886826 -0.6457911
