dqn/exercise/models/checkpoint722_184.53259380219316.pth (torch, 7111 bytes, 3 tensors)

fc1.weight f4 [32, 8]
000000 e5 58 a7 bd c9 75 d0 ba 8b 65 8d 3d e6 aa 69 3d
       -0.08171252 -0.0015904243 0.069041334 0.057047747
000010 ed 5d 53 40 3a fa 16 bf e2 1b 8f 3e b9 50 0f 3f
       3.3026078 -0.58975565 0.2795096 0.5598255
000020 02 3f 28 3c a8 96 27 3f 29 86 f7 3e 0d 7c 75 bf
       0.0102689285 0.6546426 0.48344544 -0.9589241
000030 cf 79 ab be af 4d 92 bf 1a ed d8 be 5a ee 35 be
       -0.3349137 -1.1429957 -0.42368394 -0.17766705
000040 e6 b3 91 3c c2 fa 33 3f 4b e1 a5 be 7c 2c e3 be
       0.017785978 0.703045 -0.32398447 -0.44369876
000050 db 3e a4 3f 85 0e 4f 3f 07 74 b5 3d 9f ae 7a 3d
       1.2831682 0.8088153 0.08860021 0.061201688
000060 6c ea 0c 3e 65 08 7d bb 12 62 1b 40 59 03 7b 3f
       0.137613 -0.003860974 2.4278607 0.98051983
000070 f8 17 fe be a3 c9 d6 be f0 64 95 bf 84 2a 9e 3e
       -0.49627662 -0.41950712 -1.1671429 0.30891812
000080 be 08 d3 be 21 6b cd be 0a 6c 7b be 17 d5 9c be
       -0.41217607 -0.40120795 -0.24552932 -0.30631325
000090 2a 50 05 3e 97 91 a9 3d 11 b4 b4 3e a2 fc 73 3e
       0.13018861 0.08279722 0.3529363 0.2382684
0000a0 66 87 91 3e 42 5a 5c bf d1 89 b3 3e 23 54 aa 3f
       0.28423613 -0.8607522 0.35066083 1.3306926
0000b0 0d a5 cf be 72 78 13 bf 7d 78 99 3e 89 3c f3 3e
       -0.4055561 -0.5760566 0.29974738 0.47507122
0000c0 2a 4c 03 be 70 29 d8 be 97 1c e9 bd 53 76 55 bc
       -0.12822023 -0.42219114 -0.11382406 -0.013028699
0000d0 c2 a9 20 3f 78 b6 48 3e 2f dc f8 3e 2f 24 82 be
       0.6275903 0.19600856 0.48605487 -0.2541823
0000e0 0d d7 41 3f 8e 8d c1 bf 60 bc 94 3e 2f 00 a4 bf
       0.75718766 -1.5121324 0.2904997 -1.2812556
0000f0 bf 14 cb 3b 13 a9 18 3f 80 11 35 3e f7 bd e9 3c
       0.0061975415 0.59632987 0.17682457 0.028532965
000100 ab ec 05 3e 90 4d a0 3e 5d 55 05 3f 27 f1 5d 3d
       0.13078563 0.31309175 0.5208338 0.05418506
000110 a4 ca 6e 3f 7d 03 88 3f 3e 3e e9 bd f2 6f e8 3d
       0.93277955 1.0626065 -0.11388825 0.11349477
000120 03 43 a1 3e 91 a1 5b 3f 07 ab 7c 3e cf 5b 18 40
       0.31496438 0.85793406 0.24674617 2.3806036
000130 b1 8e e2 be 05 67 07 be 14 27 76 3e 5d 1c 2d bf
       -0.4424949 -0.13222893 0.24038345 -0.67621404
000140 72 ad 88 3d 69 90 e0 3e 33 d9 28 3f 2a e6 2a c0
       0.06673707 0.43860176 0.6595642 -2.670298
000150 d4 b3 61 bf 14 12 ad be 85 4c 0f 3f ab b7 20 3e
       -0.8816502 -0.33802855 0.55976135 0.15695064
000160 d5 a0 56 3e 17 8a 32 bf 70 97 f7 3f fe 02 b9 3c
       0.2095979 -0.6974196 1.934309 0.022584435
000170 5c fa e1 be 05 91 03 3f 98 5c 03 bd d5 86 26 3d
       -0.44136322 0.5139316 -0.032070726 0.04065593
000180 f9 dc a5 be 88 d9 0c 3e 81 dc ef be c3 29 5e 3f
       -0.3239515 0.13754857 -0.4684792 0.86782473
000190 de aa 90 3f 24 46 43 3f 0a ed 90 bd 0c 58 42 bf
       1.1302145 0.762789 -0.070764616 -0.759156
0001a0 6f 3a 09 bf 7a f7 a1 be 05 7a 9f be 6d 3e bd be
       -0.5360479 -0.31634122 -0.3114778 -0.3696169
0001b0 89 89 a8 3e aa 42 c0 3c 03 de 0f bd 95 b8 84 3e
       0.3291743 0.023469288 -0.035123836 0.25922075
0001c0 62 24 42 be 3e 88 3b 3f e1 11 5e 3e b5 1c 8c bf
       -0.18959191 0.73254764 0.21686508 -1.0946261
0001d0 98 08 84 bf 42 a8 76 3f a8 02 46 bf 3c c0 bd 3e
       -1.0315123 0.9635049 -0.77347803 0.37060726
0001e0 83 56 aa 3e 41 88 38 be 96 20 de bd 17 56 fb bc
       0.33269128 -0.18020727 -0.10846059 -0.0306807
0001f0 e0 92 13 bf ae 2d a0 bf a2 77 72 be a7 1d f6 3d
       -0.5764599 -1.251394 -0.23678449 0.120173745
000200 bf 4d f9 3d 61 3b e2 be 69 33 f5 bc 9b 75 7c 3f
       0.12173032 -0.44185928 -0.02993174 0.9861695
000210 a0 42 c1 bd 1f ad 1f bf 20 4c c4 3e 94 7e 29 3e
       -0.09436536 -0.62373537 0.3833933 0.16552192
000220 fb c2 00 bf 99 20 53 3e 09 2a d9 3e 8b eb 02 3d
       -0.50297517 0.20617904 0.42414883 0.031962913
000230 9d 43 28 3e 8a 50 6f 3f bd 52 f6 3e f1 b6 00 bf
       0.16432042 0.9348227 0.4811 -0.50279146
000240 75 03 dd be 67 b5 76 3c 0e 87 32 3d e5 db 0d 3e
       -0.431667 0.015057898 0.04358583 0.13853414
000250 07 5b 80 be ce 4b 5e bf ea 45 a9 be bc 4e 9b 3e
       -0.25069448 -0.8683442 -0.33061153 0.30333507
000260 19 05 47 be 9a c5 8a be ab ab ad be 49 ec 90 bf
       -0.19435538 -0.27103883 -0.33920035 -1.1322109
000270 02 c4 0e bf 2c 70 65 bf 4c 9d 35 3e 29 1a 44 be
       -0.55767834 -0.89624286 0.17735785 -0.19150604
000280 31 51 52 be 59 8c af be c6 b8 71 bf 3f 67 ab be
       -0.20538785 -0.34286764 -0.94422567 -0.33477208
000290 d0 9e 6f 3f a3 4e 32 3f ea cb b5 bd 35 76 72 3d
       0.93601704 0.6965124 -0.08876784 0.059194762
0002a0 b5 54 e3 be 33 c1 d2 bf cc 1e 4c 3f ee 94 70 bf
       -0.44400564 -1.646521 0.7973449 -0.9397725
0002b0 29 03 0a 3f 7a f3 04 3f fc 56 01 bf 5e 56 b5 be
       0.5391107 0.51934016 -0.5052335 -0.35417455
0002c0 ae d4 e4 3c 19 f2 62 be 30 d6 44 3e 56 ef 6f 3f
       0.027933445 -0.22162665 0.19222331 0.9372457
0002d0 ab 19 97 be 45 de ff be b1 6a 73 3e de 62 0c 3f
       -0.2951177 -0.49974266 0.23771168 0.5483836
0002e0 09 96 76 3f 6d e2 73 be d2 82 13 3f d1 b6 62 3f
       0.96322685 -0.23816843 0.5762149 0.88560206
0002f0 53 a9 f3 be ef 69 fa be a0 3f 9d 3e 09 da 03 bd
       -0.47590122 -0.48908946 0.30712605 -0.032190356
000300 3f 38 bb 3e e6 a6 ac 3d 5e 6c b3 be 21 4b c7 bf
       0.3656635 0.08430271 -0.35043615 -1.5569803
000310 fc 2b a8 3f b8 03 b6 3d ad 4c 48 3e 96 cb 68 3e
       1.3138423 0.08887428 0.195605 0.22733912
000320 db d6 dc 3c b3 e3 cd 3d 17 80 3d c0 98 bd c0 3e
       0.02695792 0.10053196 -2.960943 0.3764465
000330 32 4f 2b bf cc b6 62 3e 2c f1 2c 3e 50 a9 b5 3e
       -0.6691772 0.22140044 0.16888875 0.35480738
000340 1e 7c 66 3f d6 50 9c be b5 34 31 3f ae 6e fe 3e
       0.9003314 -0.30530423 0.6922105 0.49693817
000350 03 1b 14 bf 0a 95 08 bf 1e eb 49 bd 97 08 bf 3d
       -0.57853717 -0.53352416 -0.04929649 0.0932781
000360 4f 93 aa bd 4a a7 e7 be 6f 0e 5b 3f d3 dd 90 bf
       -0.08328878 -0.4524482 0.855689 -1.1317695
000370 c4 f5 93 bd c4 26 01 3f 48 fd 3d 3f 28 fa c1 bb
       -0.072246104 0.50449777 0.742146 -0.0059197135
000380 ff c3 72 bf dd 9d 7b be 2b ed 19 bf 2b 88 9a be
       -0.94830316 -0.24571939 -0.60127515 -0.30182013
000390 94 8b e9 3e 18 23 5e bc 8c b7 8f 3d 14 fc b1 3e
       0.45614302 -0.013558172 0.07017431 0.34762633
0003a0 4b 2c 17 3f 48 87 05 3e 3b 40 67 3e bc e8 42 bf
       0.5905196 0.13039887 0.22583096 -0.76136374
0003b0 ab a6 64 be 7f 36 80 bf c9 f1 41 be d9 bf 1e 3e
       -0.22329204 -1.0016631 -0.1893989 0.15502872
0003c0 44 89 48 3f fb 47 10 bd 48 fe 06 3d 8f 35 d9 be
       0.7833445 -0.035224896 0.032957345 -0.42423674
0003d0 5e eb 8b be ca 4b 8b bf 94 84 74 3e 62 20 33 be
       -0.27328008 -1.0882504 0.238787 -0.17492822
0003e0 cc 9a ad bf 6e d7 ed be ec 35 93 bf 1c 03 db 3d
       -1.3562865 -0.46453422 -1.1500831 0.106939524
0003f0 03 80 c7 3f f8 ea 41 3e 75 45 82 bd b3 04 d2 3b
       1.5585941 0.1893729 -0.06360904 0.0064092516

fc2.weight f4 [32, 32]
000000 4e f3 31 bf 73 a6 4a 3f 7c 53 23 3f 84 8c e1 be
       -0.6951188 0.7916023 0.6379926 -0.44052517
000010 6e a7 db 3d d7 b1 9f 3e ac 9b bd 3e 03 ab de be
       0.10725294 0.3119037 0.3703283 -0.43489847
000020 b4 0f 56 3f 91 62 f1 3c 95 29 c3 be d0 ba 71 3e
       0.8361771 0.029465945 -0.38117662 0.2360642
000030 6b b1 0c 3f ce 05 0a 3e 0e c4 1e bf 85 c1 f3 3e
       0.5495822 0.13478777 -0.62017906 0.4760858
000040 fd a7 d3 3d b0 3a 1d 3f 34 62 88 bd c7 dd 04 be
       0.103347756 0.61417675 -0.06659356 -0.12975226
000050 7c 51 2e 3f 57 55 39 bf c9 4e 0d 3e 95 b1 91 3e
       0.68093085 -0.72395843 0.13799585 0.28455797
000060 10 03 82 3d 2a 73 a4 bc 46 e0 c8 3e 46 df d1 3c
       0.063482404 -0.020074446 0.39233607 0.02561916
000070 ce bc 90 3e ad c1 21 3f ed e3 16 3f 1f 83 db 3f
       0.28269047 0.6318615 0.5894154 1.714939
000080 7f fb 83 be 4e 88 01 3f 0f dd 53 3e 37 8b 9b 3d
       -0.25777814 0.5059861 0.20689796 0.075949125
000090 50 ae 42 3d 9b 2f 44 3e a4 90 60 3e e9 07 06 bf
       0.04752952 0.19158785 0.21930176 -0.5235582
0000a0 fe 5f ee 3e 86 5b 8a 3e 78 3c 95 be 58 af 59 3b
       0.4655761 0.27022952 -0.29147696 0.0033216085
0000b0 dd bc e7 bd f9 03 04 bd d2 1a b9 bf 98 d4 3d 3f
       -0.1131532 -0.03223035 -1.446131 0.7415252
0000c0 22 1b ab 3e d7 8e 2f bd 94 cb f0 bc 53 fb 66 3e
       0.33419138 -0.042860832 -0.029393949 0.2255681
0000d0 78 2b eb 3e d6 f7 36 bf 72 2c 2d bd 91 53 c1 3d
       0.45931602 -0.7147192 -0.042278714 0.09439767
0000e0 e4 40 13 3e c7 86 15 3e 39 bb 03 3f 6a 7d 0d be
       0.14380223 0.14602195 0.51457554 -0.13817373
0000f0 34 4d 90 3d 40 28 c1 3e e0 79 1f 3f c8 79 a9 3f
       0.07045975 0.3772602 0.6229534 1.324029
000100 de ca 12 bf f6 30 61 3f 5b c1 99 3e 06 4f 2f be
       -0.573408 0.87965333 0.3003033 -0.17119989
000110 36 7d 1a 3e cf 69 88 3e 2c d3 5e 3e d1 36 09 bf
       0.15086827 0.26643226 0.21760243 -0.5359927
000120 10 ca 2e 3f da f5 a0 be 8f be 22 be 26 0e bf 3d
       0.6827707 -0.3143757 -0.15893005 0.093288705
000130 93 6f ec 3d a9 58 a9 3d 8c bd df be ba 2f 0e 3f
       0.115447186 0.08268864 -0.436993 0.55541575
000140 93 5d 70 3e 6a ea d8 3e 6d 40 32 3e 24 3c d1 3e
       0.23473196 0.42366344 0.17407389 0.40866196
000150 02 76 9f 3e cf 7a 1f bf 8c d9 81 3e 20 dc 81 3e
       0.3114472 -0.62296766 0.25361288 0.25363255
000160 2b b7 20 be 5e 8d 0b 3d a1 ce 12 3f 5b 2e ea bd
       -0.15694873 0.034070365 0.5734654 -0.11434623
000170 64 fd 0d bc 77 1c e8 3e d2 0e d2 3e 85 e8 b4 3f
       -0.00866637 0.45334217 0.41026932 1.4133459
000180 60 38 bc bd 2f 52 79 bf ff 0f c0 3e a8 13 60 3d
       -0.0919044 -0.9739103 0.37512204 0.054706246
000190 aa 4d 7e 3e d2 ce 04 3f 4d 2b 8a 3e 39 c1 2e bf
       0.24834314 0.5187808 0.2698616 -0.68263584
0001a0 f4 30 7c 3e 59 ae f9 3e d5 a0 87 bf b3 ec 69 3e
       0.24628049 0.4876583 -1.0595957 0.228442
0001b0 dc c7 19 3f 79 16 22 3d a3 9b a4 bf a5 f5 4f bf
       0.60070586 0.039572213 -1.2859997 -0.812342
0001c0 57 f0 d2 3e fd 88 04 3f a7 d0 e3 bf 5e a8 10 3e
       0.4119899 0.5177153 -1.7798051 0.14126727
0001d0 83 3b bd bd 8e 9a 2e bf 54 d9 5e 3e de eb d4 3e
       -0.092398666 -0.6820458 0.21762592 0.41586202
0001e0 2a 9b b4 be a7 15 09 3e 84 66 52 3f 4c f8 e1 3d
       -0.3527463 0.13387166 0.82187676 0.11033687
0001f0 85 eb 1b 3e a3 46 2c bf b4 c7 87 3e 7f ba 8e 3f
       0.15226562 -0.67295283 0.2651955 1.1150664
000200 b7 94 9e be 63 91 28 3f ac 4c 5f 3f 4e 4c ad be
       -0.30972835 0.6584684 0.87226367 -0.33847278
000210 d2 a6 d9 bd 04 43 45 3e 36 7a 89 3e 4c b5 3b bf
       -0.106275216 0.19263846 0.26851052 -0.7332351
000220 90 b3 32 3f fd 2d 9f bd a4 ad 04 bf a1 ac e6 bd
       0.6980524 -0.077724434 -0.51827455 -0.11263395
000230 5f 79 29 3f e3 af ce bd 19 48 01 bf 14 48 3b 3f
       0.6620082 -0.100921415 -0.5050064 0.7315686
000240 df 06 bb 3e bc 72 3a 3f d1 89 55 be 0e 06 04 3e
       0.3652868 0.7283132 -0.20853354 0.12892935
000250 27 de ab 3e 2c e0 51 bf af 0d 7a 3e ed c3 ea 3d
       0.33567926 -0.81982684 0.24419282 0.11463151
000260 a1 66 3f 3e 8d b7 78 3e bb 1b 48 bc ed 83 90 be
       0.18691494 0.24288769 -0.012213643 -0.2822565
000270 78 7c 31 3e 2e d5 86 3e 59 25 8f 3e ff ef ca 3f
       0.17332637 0.26334518 0.27958182 1.5854491
000280 4a c2 b4 be 0e b3 c2 3e 5a bc f4 3e 44 03 e2 bd
       -0.3530448 0.38027233 0.4779995 -0.11035779
000290 31 63 b7 3c b1 c2 d1 be 85 0c be 3e df 0a 0b bd
       0.022386165 -0.4096885 0.37118927 -0.033945914
0002a0 37 e4 16 3f 85 bc 81 3d fa 6d b0 3e 14 8c 3b bf
       0.5894198 0.06334785 0.34458905 -0.7326062
0002b0 86 7a 81 be f1 1b aa 3e 02 44 04 3f 67 54 b1 bf
       -0.2528879 0.33224443 0.5166627 -1.3853883
0002c0 5c 8f 89 be ed 2e 1e 3d 70 9c 67 3f 8a 2b e6 3d
       -0.26867187 0.03861897 0.9047308 0.11238773
0002d0 2a ac 4b 3d e8 c7 2d bf 09 99 c9 3d bf c4 65 3d
       0.049724735 -0.6788316 0.09843642 0.056095835
0002e0 3b 0e 30 be 21 2c 21 bf 50 5b 89 3a 89 c6 a1 3e
       -0.17192928 -0.6295796 0.0010479484 0.31596783
0002f0 4b 74 b9 bc f6 9c 81 3e 56 a6 09 bf bb 2e 11 3f
       -0.02263846 0.25315064 -0.53769433 0.5671193
000300 de 55 25 bf cc a4 03 3f 91 f4 21 3f 7c 58 c4 bd
       -0.6458415 0.51423335 0.63263804 -0.095871896
000310 d8 96 bb 3e fb 0b a5 3e 96 e3 11 3e 24 08 0b bf
       0.36638522 0.32235703 0.14246973 -0.54309297
000320 6c ee f7 3e 18 31 c2 3e 6c 1e 79 be b6 f2 80 3e
       0.4842409 0.3792808 -0.24328011 0.25185174
000330 34 08 c0 bd 76 8c 08 be e8 f7 d7 be 81 80 4b 3e
       -0.093765646 -0.13334832 -0.42181325 0.19873239
000340 45 99 93 3e 7e a4 04 3f 9a fc 7a 3b dc 8d a0 be
       0.28827873 0.51813495 0.0038297535 -0.3135823
000350 ff f4 e5 3d 1b d5 30 bf e9 0c 94 3e 4a c9 ff 3e
       0.1122837 -0.69075173 0.289161 0.4995826
000360 41 ef c7 bd 84 01 1e bd 7a e6 33 3f c0 ec 9c be
       -0.09762431 -0.038575664 0.70273554 -0.30649376
000370 44 03 94 3c 5e 0d 14 3f df f3 ea 3e e8 2a a5 3f
       0.018067963 0.57832897 0.45889184 1.2903719
000380 ae 44 29 40 e4 62 65 be 76 02 de bf b0 b1 72 3f
       2.6448169 -0.22401005 -1.7344501 0.9480238
000390 a7 ef a5 bf c2 9d 3a 3d 5a 84 a2 bf 9c 4a ca bf
       -1.2963761 0.045560606 -1.269664 -1.5804019
0003a0 b4 2f 83 bf f5 bb 19 3e 3b 5b cb 3e a2 15 4e bf
       -1.0248933 0.15013106 0.3971804 -0.8050176
0003b0 12 39 20 40 d5 87 8a bf 00 a8 cb 3f 2a 79 b7 bd
       2.5034833 -1.0822703 1.5910645 -0.08958657
0003c0 f1 0c e6 be 29 d8 ff bf 40 b3 7b 3e 44 d3 b9 3e
       -0.44931749 -1.9987842 0.24580097 0.36293995
0003d0 c6 a2 d9 bf 41 88 c4 be e8 23 fa bc 2e ed 7a bf
       -1.70028 -0.38385203 -0.0305347 -0.9801816
0003e0 dd 3d 92 3f 5d de 64 3f f9 8f 60 3d 51 7b 0b c0
       1.1425129 0.894018 0.054824803 -2.1794016
0003f0 3d f0 99 bf bd f0 82 3e a5 83 fa bc 28 6f 22 bf
       -1.202644 0.25574294 -0.030580351 -0.6345086

fc3.weight f4 [4, 32]
000000 c2 09 fc be 50 6f 0f bf 95 d2 cd be a8 05 7d be
       -0.49226195 -0.56029224 -0.40199724 -0.24709189
000010 df 47 f1 be 14 68 0c bd 4d 8d e7 be 2e e8 20 40
       -0.47125146 -0.034278944 -0.4522499 2.5141711
000020 3f 0c 22 40 53 0b 33 40 71 61 0c bd 9d fb 78 be
       2.5319974 2.7975662 -0.034272615 -0.24314733
000030 68 0d bc be 58 97 05 40 46 40 f9 be 52 2b 27 bf
       -0.36728978 2.0873623 -0.4868185 -0.65300477
000040 e2 de 78 40 aa 8a 36 bf ee 05 97 bf 24 ce ee be
       3.8886037 -0.71305335 -1.1798685 -0.46641648
000050 b2 be 36 bf ad 0f 05 40 6d 85 cd be 49 aa 2d bd
       -0.7138473 2.0790818 -0.40140858 -0.042398725
000060 96 1a 71 be 9a f6 6b be 28 70 ad 3e 64 05 e2 bd
       -0.23545298 -0.2304329 0.3387463 -0.110361844
000070 d9 55 2a bf 0b 8b 8b be 62 2c 4b 40 b1 8f e4 be
       -0.66537243 -0.2725452 3.174584 -0.44640878
000080 92 16 b6 be d7 f0 e3 be 36 39 e2 be 61 06 e6 3d
       -0.35564095 -0.44519684 -0.44184273 0.112316854
000090 6a 01 2b bf 18 e1 9b bf 11 c5 77 be c1 dd 37 40
       -0.6679903 -1.2178068 -0.24196269 2.8729098
0000a0 29 0e 19 40 69 d3 3e 40 1e 7d c9 be 0d 14 44 bf
       2.3914893 2.9816535 -0.3935327 -0.76593095
0000b0 b1 ea 12 bf 68 6a 12 40 59 ec c0 be c1 0c a7 be
       -0.5738936 2.2877445 -0.3768032 -0.32626918
0000c0 ec a6 66 40 89 fa 23 bf 75 af 3e bf ee df 20 bf
       3.603938 -0.6405416 -0.74486476 -0.6284169
0000d0 d0 67 0d be a5 0f e1 3f 68 f3 14 bf 7e b2 f1 be
       -0.13809133 1.7582899 -0.5818391 -0.4720649
0000e0 63 08 16 be f0 7f 22 bf 70 f2 1c 3f 3d 59 06 3d
       -0.14651637 -0.6347647 0.6130743 0.032799948
0000f0 c4 5f 0d bf d7 52 b4 3c 9b a3 49 40 af 58 0e bd
       -0.5522425 0.022012157 3.1506107 -0.034752544
000100 dc e7 1e bf ca ab 06 bf 7b 81 93 be 43 f7 bb bf
       -0.6207254 -0.5260588 -0.28809723 -1.4684833
000110 65 11 08 bf d8 a1 32 bd 58 6e 35 bf 9f b0 2a 40
       -0.5315154 -0.043611377 -0.70871496 2.66703
000120 d7 72 3f 40 ec 14 22 40 99 17 04 bf 32 b6 96 be
       2.9913843 2.532527 -0.5159851 -0.2943588
000130 69 0d 14 bf 4e 40 12 3f 64 ab 8b be 48 31 d4 be
       -0.5783296 0.5712937 -0.27279198 -0.4144385
000140 f8 fa ee 3f 3d b8 93 be 56 2a 91 bf 8e 26 6e be
       1.867034 -0.288515 -1.1341045 -0.23256895
000150 1e c4 9f 3c be b9 0e 40 2c af f3 be e6 05 49 bf
       0.019502696 2.2300868 -0.47594583 -0.78524625
000160 a3 fe 4d bf 4f 12 8c be b7 e8 43 40 0d f1 c6 3d
       -0.8046667 -0.27357718 3.0610788 0.097139455
000170 5e f9 29 bf a0 18 42 bf 13 4f c9 3f 02 e6 13 be
       -0.6639613 -0.75818825 1.5727257 -0.1444321
000180 61 b8 b1 be 87 d5 e8 be ba a0 ee be 98 d3 90 be
       -0.34710982 -0.45475408 -0.46607 -0.28286433
000190 9f bd e9 bd 4e dd 5e bf 2e de f7 be 1a 0b 9c 3f
       -0.114131205 -0.87056434 -0.48411697 1.2190888
0001a0 fe 5b 21 40 a3 b2 7b 40 26 a1 c3 be 50 84 ff be
       2.5212398 3.9327781 -0.38208884 -0.49905634
0001b0 ca 11 f5 be 27 ae 0f 40 1d 64 da be 19 6a ad bd
       -0.47865134 2.2450044 -0.42654505 -0.08467502
0001c0 6e ac 61 40 32 41 f9 bd 2c 4b 97 bf 7c f5 df be
       3.5261493 -0.12170638 -1.1819816 -0.43741977
0001d0 16 11 dd be 4e e1 00 40 15 9f 9f be 9d b5 af be
       -0.43177098 2.0137515 -0.31176057 -0.34318247
0001e0 4a 37 09 bf 25 f0 fd be ff 62 a2 3e 80 55 88 3d
       -0.5359999 -0.49597278 0.31716153 0.06656933
0001f0 dc 86 af be a2 3a 7d be c2 35 5d 40 f2 9b 1e bf
       -0.34282577 -0.24729398 3.456406 -0.61956704
