dqn/exercise/models/checkpoint496_62.13197523746434.pth (torch, 7111 bytes, 3 tensors)

fc1.weight f4 [32, 8]
0	0x3dafd8a6	0.08586244
1	0xbbabac75	-0.0052390643
2	0xbe2a6e3d	-0.16643615
3	0x3dde0b87	0.108420424
4	0x403d1f83	2.9550483
5	0xbee717b9	-0.45135286
6	0x3e9e0b47	0.3086798
7	0x3eed3718	0.46331096
8	0xbdc1a404	-0.094551116
9	0x3eb042dc	0.3442601
10	0xbd7777f4	-0.06041713
11	0xbf250b33	-0.64470214
12	0xbf1ecead	-0.6203411
13	0xbfb7c93e	-1.4358289
14	0xbe768cfb	-0.24077217
15	0xbe92384e	-0.28558582
16	0x3ec7ad9f	0.3899965
17	0x3ef53561	0.47892287
18	0xbd85599c	-0.06511232
19	0xbeceaf4c	-0.40368116
20	0x3f87453e	1.0568006
21	0x3f4a4a67	0.7901978
22	0x3d1e092f	0.038582977
23	0x3e581c8d	0.21104641
24	0x3e0761a4	0.1322084
25	0xbb82e2a7	-0.003994304
26	0x3fec9a26	1.8484542
27	0x3efb1c38	0.49044967
28	0xbf7c483b	-0.98547715
29	0xbf30096e	-0.6876439
30	0xbe82de97	-0.25560448
31	0x3dd725e0	0.10505271
32	0xbef7c973	-0.4839588
33	0xbf996f49	-1.1987087
34	0xbdb61ae9	-0.088918515
35	0xbf20eb34	-0.6285889
36	0xbde85f9a	-0.113463596
37	0x3e4c5a18	0.19956243
38	0x3eb9d20d	0.3629307
39	0x3e906c6c	0.2820772
40	0x3ee82959	0.45344046
41	0xbf81f56d	-1.0153023
42	0x3f002868	0.50061655
43	0x3e12e6a6	0.14345798
44	0xbf3fcf98	-0.7492614
45	0xbf228dd7	-0.6349768
46	0x3e9832e8	0.29726338
47	0x3e99e773	0.30059394
48	0xbd9dc6df	-0.07703947
49	0xbf524766	-0.82140195
50	0x3cf36991	0.029713424
51	0xbec82105	-0.39087692
52	0x3f132b92	0.5748836
53	0x3e7f8d89	0.24956335
54	0x3ef98261	0.48732284
55	0xbe8a1110	-0.26966143
56	0x3f022f7f	0.50853723
57	0xbfaa72f6	-1.3316333
58	0xbde4c33d	-0.11170051
59	0xbf7f0f77	-0.9963297
60	0x3e99b7ef	0.30023143
61	0x3e88e1ad	0.26734677
62	0x3dbcd054	0.09219423
63	0xb9b5e8e6	-0.00034696533
64	0x3f21d1cc	0.6321075
65	0x3e3fb248	0.18720353
66	0x3e9477dc	0.28997695
67	0xbd9c0c80	-0.07619572
68	0x3f29e69d	0.6636751
69	0x3f855ade	1.0418355
70	0x3db1d764	0.086836606
71	0x3e0d372d	0.13790579
72	0x3eb739c8	0.3578627
73	0x3f60dc39	0.87836033
74	0x3e98c944	0.29841053
75	0x3fdb66e0	1.714077
76	0x3e5dd3cb	0.21662824
77	0xbebb8657	-0.3662593
78	0x3e248f9e	0.1607041
79	0xbf2d1c5d	-0.67621404
80	0xbaab35b7	-0.0013062273
81	0x3f013b9a	0.5048157
82	0x3f17eea4	0.5934851
83	0xc008d6a5	-2.1381009
84	0xbf2bd00d	-0.67114335
85	0xbef9135e	-0.48647588
86	0x3ebb4ac3	0.36580476
87	0xbdfbe01e	-0.12298606
88	0x3f205a3a	0.62637675
89	0xbf4e9498	-0.80695486
90	0x3f8fb6e0	1.1227684
91	0xbe147778	-0.14498699
92	0x3f0311a9	0.5119882
93	0x3f0c5f44	0.54832864
94	0xbe240212	-0.16016415
95	0x3dafe42e	0.08588444
96	0xbd93f557	-0.07224529
97	0xbe66543d	-0.22493072
98	0xbe165fc2	-0.14684966
99	0x3e45cb35	0.19315799
100	0x3f605fed	0.8764637
101	0x3f629b61	0.8851834
102	0xbebc11c2	-0.36732298
103	0xbefd57f7	-0.49481174
104	0xbf1be840	-0.6090126
105	0xbf46d07c	-0.7766187
106	0xbc9f7df0	-0.019469231
107	0xbf2ca6ad	-0.6744183
108	0x3e24e46a	0.16102758
109	0x3dd54bba	0.10414834
110	0x3c5bc7f9	0.013414376
111	0x3e97e4a4	0.29666626
112	0xbd968366	-0.07349281
113	0x3f67c1e6	0.9053024
114	0x3f161e4f	0.5864
115	0xbf8525a1	-1.0402108
116	0xbf168ae7	-0.588057
117	0x3f10e080	0.5659256
118	0xbf345a9b	-0.7045075
119	0x3e949abd	0.29024306
120	0xbe8a32e1	-0.26991943
121	0xbf144f71	-0.5793372
122	0xbea4fa34	-0.3222214
123	0x3c9afb33	0.01891861
124	0xbf286280	-0.657753
125	0xbfa289a4	-1.2698255
126	0xbe3c0234	-0.18360215
127	0xbe5eef54	-0.21770984
128	0x3eda9c1a	0.4269722
129	0xbf335330	-0.7004881
130	0x3e402110	0.18762612
131	0x3db29f7e	0.08721827
132	0xbf0c2766	-0.5474762
133	0xbf2749b6	-0.6534685
134	0x3eb86ccd	0.36020508
135	0x3e4c852c	0.19972676
136	0xbf114ff9	-0.56762654
137	0x3e347ffc	0.17626947
138	0x3eced1d1	0.40394452
139	0x3d2212fc	0.039568886
140	0x3eb0aaa1	0.3450518
141	0x3f8c9448	1.0982752
142	0x3e6eed60	0.23332739
143	0xbf33b8b9	-0.7020374
144	0xbf0b3083	-0.543709
145	0x3d8c8189	0.06860644
146	0x3cbe4df8	0.023230538
147	0x39bd6132	0.00036121305
148	0xbe840303	-0.25783548
149	0xbf8b64b4	-1.0890107
150	0xbed1f338	-0.41005874
151	0x3e337976	0.17526802
152	0xbe87fc7a	-0.26559812
153	0xbf0fab45	-0.5612071
154	0x3ae9fb45	0.0017851373
155	0xbf952833	-1.1652893
156	0xbec84097	-0.39111778
157	0xbf3ebaaa	-0.74503577
158	0x3d5ac7e0	0.053413272
159	0xbe0bf44b	-0.13667409
160	0xbc9cd266	-0.019143295
161	0xbf2e7280	-0.68143463
162	0xbeb52035	-0.35376135
163	0xbf252066	-0.6450256
164	0x3eeb6252	0.4597345
165	0x3edebb41	0.43502238
166	0xbd3060df	-0.043061133
167	0x3dd9d20b	0.10635766
168	0x3e59a870	0.2125566
169	0xbf721c1c	-0.9457414
170	0x3f100b83	0.56267565
171	0xbf503251	-0.81326777
172	0x3f249338	0.6428714
173	0x3e9148b1	0.28375772
174	0xbebe4a54	-0.37166083
175	0xbcbcaeff	-0.023032663
176	0x3da21a89	0.079152174
177	0xbf641000	-0.89086914
178	0x3f21bcf2	0.6317893
179	0x3e2ae7a3	0.16689925
180	0xbf09a322	-0.53764546
181	0xbf19ad0b	-0.6002967
182	0x3e852797	0.26006767
183	0x3ed489ab	0.41511282
184	0x3f576c8f	0.8415002
185	0xbeddb18a	-0.43299514
186	0x3eccd7e6	0.40008467
187	0x3d13ae41	0.036054853
188	0xbeee339b	-0.46523747
189	0xbdbf8ff4	-0.09353629
190	0x3ef42d8e	0.47691005
191	0x3e06500f	0.13116477
192	0x3ea3a7a6	0.31963843
193	0xbd05bd48	-0.032651216
194	0xbf18aab4	-0.5963547
195	0xbfbda157	-1.4814862
196	0x3fbc9eeb	1.4735998
197	0xbc69249c	-0.01422992
198	0x3db817b8	0.08988899
199	0x3d6f2b0e	0.05839067
200	0xbc66fc63	-0.01409826
201	0x3ea72e28	0.32652402
202	0xc022ee08	-2.5457783
203	0x3dbe2dd5	0.092860855
204	0x3e309f45	0.17248257
205	0x3f05fad6	0.5233587
206	0x3d118faf	0.035537418
207	0x3e0d1dae	0.13780853
208	0x3f04fd36	0.5194887
209	0xbe9d2e16	-0.30699223
210	0x3f1e6d48	0.618855
211	0x3ea6ab18	0.3255241
212	0xbef351f5	-0.47523466
213	0xbede6fd3	-0.4344469
214	0x3db974d1	0.09055484
215	0x3e69d85e	0.22836444
216	0xbdedee0c	-0.116176695
217	0xbf5c92df	-0.8616161
218	0x3f09c0c5	0.5380977
219	0xbf912965	-1.1340758
220	0x3e53dbc0	0.20689297
221	0x3ed21c4a	0.41037208
222	0x3eca9938	0.39570022
223	0xbce74e19	-0.028235482
224	0xbf7f7911	-0.9979411
225	0xbee9733c	-0.4559573
226	0xbeccabab	-0.39974722
227	0xbf06e75b	-0.5269677
228	0x3dc4c01f	0.09606957
229	0xbd506428	-0.050876766
230	0x3d92fdc3	0.071773075
231	0x3ec8d8fa	0.3922804
232	0x3f5c5490	0.8606653
233	0x3e1c73c3	0.15278535
234	0x3dd03f53	0.10168328
235	0xbeedfa28	-0.46479917
236	0xbe58ddf9	-0.21178426
237	0xbf880cb0	-1.0628872
238	0xbeb131c8	-0.34608293
239	0xbe18e6b1	-0.14931752
240	0x3f677a5d	0.90421087
241	0x3baac066	0.005210924
242	0xbdffadfc	-0.12484357
243	0xbeba651b	-0.36405262
244	0xbec0b4a2	-0.37637812
245	0xbf9408a1	-1.1565133
246	0x3ce07de6	0.027403783
247	0xbeac2a0a	-0.33625823
248	0xbfabe2f0	-1.3428631
249	0xbf361a94	-0.71134305
250	0xbf3155e1	-0.69271666
251	0x3db94ee2	0.09048249
252	0x3f89708d	1.0737473
253	0x3d232585	0.039830703
254	0xbe55c624	-0.20876366
255	0xbd902bb6	-0.07039587

fc2.weight f4 [32, 32]
0	0xbf0c1abb	-0.5472829
1	0x3f6997b0	0.9124708
2	0x3f0c585e	0.5482234
3	0x3d8b9884	0.068161994
4	0x3eaa1f82	0.33227164
5	0x3f12579c	0.5716493
6	0x3eebd747	0.4606268
7	0x3eb3f0cd	0.35144654
8	0x3f6c9914	0.9242108
9	0x3e41d57d	0.18929096
10	0xbcaccc1b	-0.021093419
11	0x3f0a0ee7	0.5392899
12	0x3f4dee1d	0.8044146
13	0x3ec81949	0.3908179
14	0xbf049fb0	-0.51806164
15	0x3f3a88ac	0.72864795
16	0x3e9c5766	0.3053543
17	0x3f2c511f	0.6731128
18	0x3ec7e648	0.39042878
19	0x3e922022	0.2854014
20	0x3f0601f4	0.5234673
21	0x3e7dac37	0.24772726
22	0x3ec81b5d	0.39083377
23	0x3f06094e	0.5235795
24	0x3dfb6e7b	0.12276932
25	0x3df6ecaa	0.12056859
26	0x3ea973ed	0.33096257
27	0x3eb3c62f	0.3511214
28	0x3eef38cb	0.46723017
29	0x3f2cdbad	0.675227
30	0x3f21b3fe	0.6316527
31	0x3fb8b7da	1.4431107
32	0xbe6baeb5	-0.23015864
33	0x3f501c82	0.812935
34	0x3d773e32	0.06036205
35	0x3ea10d8a	0.31455642
36	0x3e13d9ea	0.14438596
37	0x3eb74123	0.35791883
38	0x3e0e905c	0.13922256
39	0x3b9cbc4b	0.0047831885
40	0x3eed824f	0.4638848
41	0x3d3714c8	0.044697553
42	0x3e1b55f4	0.15169507
43	0x3de330a8	0.11093265
44	0x3e044596	0.1291717
45	0x3e1f230b	0.15540712
46	0xbf5bce4c	-0.8586166
47	0x3f7fd1d8	0.9992957
48	0x3ed3e99c	0.41389167
49	0x3d78cb38	0.06074068
50	0x3f0ab571	0.5418311
51	0x3f0e354c	0.55550075
52	0x3e82db37	0.25557873
53	0x3e09e1a6	0.13464984
54	0x3dd816d5	0.1055123
55	0x3e68381e	0.22677657
56	0x3de38397	0.11109083
57	0x3c3df4a7	0.011593974
58	0x3efbf521	0.49210456
59	0x3cbca403	0.023027426
60	0x3e4edf80	0.20202446
61	0x3ef5a6aa	0.47978717
62	0x3f38d0ac	0.7219341
63	0x3f90f06b	1.132337
64	0xbee44d88	-0.44590402
65	0x3f7a2b5d	0.9772242
66	0x3e0895d5	0.13338406
67	0x3e3cec25	0.18449457
68	0x3ea04a02	0.31306463
69	0x3ef8c4e4	0.48587716
70	0x3e8b7ff5	0.2724606
71	0x3de534e7	0.11191731
72	0x3f3a152e	0.7268857
73	0xbe2f1e77	-0.17101465
74	0x3df49f80	0.11944485
75	0x3e8982fa	0.2685774
76	0x3edf59b8	0.43623137
77	0x3e9b2cac	0.3030752
78	0xbeca5b91	-0.39522985
79	0x3f5c207c	0.8598707
80	0x3ec40996	0.38288563
81	0x3ec7d57e	0.3903007
82	0x3f3f2683	0.7466814
83	0x3f28b093	0.6589443
84	0x3e33e435	0.17567523
85	0x3e95b520	0.2923975
86	0x3eec5de7	0.46165392
87	0x3ee53ee3	0.4477454
88	0xbdf4e653	-0.11957993
89	0x3d396015	0.045257647
90	0x3f0bf209	0.5466619
91	0x3dad6c9f	0.084679835
92	0x3deada59	0.11467428
93	0x3f230363	0.6367704
94	0x3ef7054a	0.48246223
95	0x3f9c99f9	1.2234489
96	0xbe0e864a	-0.13918415
97	0x3dc96df3	0.09835424
98	0x3eeb24bd	0.45926467
99	0x3ed8b9ce	0.42329258
100	0x3e2f7b29	0.17136826
101	0x3eef64f9	0.46756724
102	0x3bdf6372	0.0068172747
103	0xbe4d218f	-0.20032333
104	0x3efda82b	0.49542364
105	0xbe0a8196	-0.13525996
106	0xbf2d8e3c	-0.6779516
107	0x3eafe29f	0.34352586
108	0x3f2d7ad9	0.67765576
109	0x3e2bdf73	0.16784458
110	0xbebd9f6c	-0.37035692
111	0xbe82fdbc	-0.2558421
112	0x3e638b6e	0.22221157
113	0x3f17b5bc	0.5926168
114	0xbf497207	-0.78689617
115	0x3e5d8d53	0.21635942
116	0xbdd189fb	-0.10231396
117	0xbc7eb4f7	-0.015546075
118	0x3e77a9fa	0.24185935
119	0x3ea4fd69	0.32224587
120	0xbe8d2731	-0.27568963
121	0x3a96423a	0.0011463829
122	0x3ecd55f8	0.4010465
123	0x3e3b2736	0.18276677
124	0x3e656681	0.22402383
125	0xbf0aea4b	-0.5426375
126	0xbe5b945a	-0.2144331
127	0x3f80a9ae	1.0051782
128	0xbe9617c6	-0.29315013
129	0x3f36f4e4	0.71467423
130	0x3f47a8b3	0.7799179
131	0x3ce647ea	0.028110463
132	0x3cdbeb4f	0.026845602
133	0x3eb9370a	0.36174804
134	0x3e66ccfb	0.22539131
135	0x3d969b29	0.07353813
136	0x3f36ca6c	0.7140262
137	0x3e03e182	0.12878993
138	0xbe46409e	-0.19360587
139	0x3eee5879	0.46551874
140	0x3f68c63e	0.90927494
141	0x3dab0f7e	0.08352564
142	0xbeae28a8	-0.34015393
143	0x3f6eecd4	0.9333012
144	0x3eddfa93	0.43355235
145	0x3f528d10	0.82246494
146	0x3e0431e6	0.1290966
147	0x3f19c043	0.60058993
148	0x3e50e334	0.20399171
149	0x3defdcef	0.117120616
150	0x3ec8aa97	0.3919265
151	0x3e909fc6	0.28246897
152	0x3e686395	0.22694238
153	0x3eda16af	0.4259543
154	0x3dcfe29c	0.10150644
155	0xbcb63151	-0.022240313
156	0x3e96508a	0.2935832
157	0x3e9e3719	0.3090141
158	0x3ebe1028	0.371217
159	0x3fab49f2	1.3381941
160	0xbed5538f	-0.41665313
161	0x3e6fa240	0.23401737
162	0x3e636352	0.22205856
163	0xbeed368c	-0.46330678
164	0xbd98c411	-0.07459272
165	0xbe8d2e93	-0.27574596
166	0x3ea8a7af	0.32940432
167	0x3e556d54	0.20842487
168	0x3f0f507f	0.559822
169	0x3da47985	0.080309905
170	0x3e871fa1	0.26391318
171	0x3e14f687	0.14547168
172	0x3df26370	0.118353724
173	0x3e4e28f1	0.20132805
174	0x3f067a51	0.5253039
175	0xbf9a7434	-1.2066712
176	0xbea131dc	-0.31483352
177	0x3e3426f3	0.17592983
178	0x3f72b734	0.94810796
179	0x3c9eef2c	0.019401155
180	0x3dcf36db	0.10117885
181	0x3dc43782	0.095809
182	0x3c7aa3eb	0.01529787
183	0x3deae3f9	0.114692636
184	0xbe641887	-0.22274981
185	0xbef62a82	-0.48079306
186	0x3d63eb24	0.05564417
187	0x3e901e14	0.28147948
188	0xbe7860ce	-0.24255678
189	0x3eb0c348	0.34523988
190	0xbf3d6939	-0.7398868
191	0x3f1e55a1	0.6184941
192	0xbf13745a	-0.57599413
193	0x3f2afff0	0.6679678
194	0x3efb075e	0.49029058
195	0x3ef586d4	0.47954428
196	0x3ee3f4f3	0.4452282
197	0x3f037b7b	0.5136029
198	0x3d959ba3	0.07305076
199	0x3cc0f858	0.02355592
200	0x3f08ef3f	0.5349006
201	0x3ed0e92b	0.40802893
202	0xbd6d0b5d	-0.057872165
203	0x3e106aff	0.14103316
204	0x3e0485c4	0.12941653
205	0x3c5de99b	0.013544465
206	0xbed719c8	-0.42011857
207	0x3efa266d	0.48857442
208	0x3ecbab0f	0.39778945
209	0x3ecdfeae	0.40233368
210	0x3f15fe63	0.5859129
211	0x3c7fae79	0.015605562
212	0xbd2841cf	-0.041078385
213	0xbc364bde	-0.011126487
214	0x3eef52ac	0.4674276
215	0x3f22f23e	0.6365088
216	0xbe4dd270	-0.20099807
217	0xbd8feda9	-0.07027752
218	0x3f20cdb9	0.6281391
219	0xbe4ab8e4	-0.19797093
220	0x3db24d61	0.08706165
221	0x3f2d59dc	0.6771524
222	0x3ef56841	0.47931102
223	0x3f87e80c	1.061769
224	0x40161e85	2.3456128
225	0xbcaa4a6c	-0.02078744
226	0xbfd79c6a	-1.6844609
227	0x3f22e387	0.6362843
228	0xbf9c373c	-1.2204356
229	0xbbbefdfa	-0.005828616
230	0xbf771572	-0.965171
231	0xbfc4a02a	-1.5361378
232	0xbf602951	-0.87563044
233	0xbe81c2da	-0.25343972
234	0x3f4ca95b	0.79945916
235	0xbf450cc2	-0.7697259
236	0x3f7f7857	0.99793
237	0xbf955b60	-1.166851
238	0x3fd158eb	1.6355261
239	0xbe79bf5a	-0.24389401
240	0xbebb94dd	-0.3663701
241	0xbff976a4	-1.9489331
242	0x3e708a7b	0.23490326
243	0x3e7e81f2	0.24854258
244	0xbfd2b198	-1.6460447
245	0xbf8b7e81	-1.0897981
246	0xbc440d36	-0.01196604
247	0xbea1386f	-0.31488368
248	0x3f8a6b77	1.0814046
249	0x3e8f90df	0.28040215
250	0xbcd62038	-0.02613841
251	0xbf9be0da	-1.2177994
252	0xbf951ed0	-1.1650028
253	0x3df970d6	0.12179725
254	0xbe1a642f	-0.1507728
255	0xbefb6837	-0.49102947

fc3.weight f4 [4, 32]
0	0xbf0030ea	-0.50074637
1	0xbedb4513	-0.42826137
2	0xbed1daec	-0.40987337
3	0xbe6d2b34	-0.23161012
4	0xbeaaf143	-0.33387193
5	0xbc46ea72	-0.012140857
6	0xbec8cf38	-0.39220595
7	0x3ffbe16d	1.967817
8	0x40209137	2.5088632
9	0x403b139c	2.9230719
10	0xbe4b8cbe	-0.19877908
11	0xbe9e19c6	-0.3087904
12	0xbee21d4c	-0.44162977
13	0x3faff28f	1.3745898
14	0xbf094026	-0.5361351
15	0xbf02de96	-0.5112089
16	0x405d5a02	3.4586186
17	0xbf00553e	-0.5013007
18	0xbf2d2df8	-0.6764827
19	0xbf07ce7c	-0.53049445
20	0xbf021476	-0.5081247
21	0x3fcdb698	1.6071348
22	0xbeaaaa42	-0.3333302
23	0xbe295913	-0.16537885
24	0xbe7b3394	-0.24531394
25	0xbeb1dccd	-0.3473877
26	0xbdc4dd31	-0.096125014
27	0xbde20564	-0.110361844
28	0xbf184ab6	-0.59489
29	0xbe61ba25	-0.22043665
30	0x401bb708	2.4330463
31	0xbedef7f6	-0.43548554
32	0xbeda8e42	-0.4268666
33	0xbf062336	-0.5239748
34	0xbe9a190e	-0.3009724
35	0xbdd21b74	-0.102591425
36	0xbf36008b	-0.7109458
37	0xbf658140	-0.89650345
38	0xbd9c9b77	-0.0764684
39	0x402e147c	2.7200003
40	0x40031b94	2.0485582
41	0x401d8a02	2.4615483
42	0xbec73d2b	-0.38913855
43	0xbf154184	-0.58303094
44	0xbf12a18b	-0.57277745
45	0x3fe98de8	1.8246431
46	0xbeab25bf	-0.33427235
47	0xbf0c1b85	-0.5472949
48	0x4066300d	3.5966828
49	0xbf2f33e7	-0.6843857
50	0xbee1e8ec	-0.44123018
51	0xbf13f6e7	-0.5779862
52	0xbe76d412	-0.24104336
53	0x3fe70f02	1.8051455
54	0xbf1b15f0	-0.6058035
55	0xbecff939	-0.4061983
56	0xbd8d8965	-0.069109716
57	0xbef1f07d	-0.4725379
58	0xbdb21567	-0.086954884
59	0x3d06593d	0.032799948
60	0xbf22116b	-0.6330783
61	0xbe807015	-0.25085512
62	0x4022aeb5	2.5419133
63	0xbcec2673	-0.028826928
64	0xbf10e9bd	-0.56606656
65	0xbee4b0f9	-0.4466627
66	0xbe958e85	-0.29210296
67	0xbf548e10	-0.8302927
68	0xbf0242b9	-0.5088306
69	0x3b936543	0.0044981553
70	0xbf2558f5	-0.6458886
71	0x4002f91e	2.046455
72	0x40344914	2.8169603
73	0x402fb5ba	2.7454667
74	0xbefe77b4	-0.497007
75	0xbe92d326	-0.28676718
76	0xbf1183da	-0.56841815
77	0xbeea7336	-0.45791024
78	0xbe899b94	-0.2687651
79	0xbec9efcf	-0.39440772
80	0x3fdc171a	1.719455
81	0xbe8f288b	-0.2796062
82	0xbf829b5d	-1.0203663
83	0xbe7f6c67	-0.24943696
84	0xbcf8994c	-0.030346535
85	0x4008f2fd	2.1398308
86	0xbee2c619	-0.44291762
87	0xbf004ddb	-0.501188
88	0xbf33fe73	-0.70310134
89	0xbe893d58	-0.26804614
90	0x40347c63	2.820092
91	0x3dc6f10d	0.097139455
92	0xbf281016	-0.65649545
93	0xbf22bc3a	-0.6356846
94	0x3f4dd643	0.8040506
95	0xbe40a8de	-0.18814418
96	0xbec91a9b	-0.3927811
97	0xbf059240	-0.52176285
98	0xbf0f7124	-0.56032014
99	0xbe6df25a	-0.23236981
100	0xbe0db3b3	-0.13838081
101	0xbf60170d	-0.8753517
102	0xbf0cfa42	-0.55069363
103	0x3f4c31a3	0.7976324
104	0x401e2878	2.47122
105	0x405c2a8e	3.4400973
106	0xbedd1a5a	-0.43184167
107	0xbf0fb523	-0.5613577
108	0xbf0805ce	-0.5313386
109	0x3fcaddb1	1.5848905
110	0xbeed4416	-0.46341008
111	0xbdcb81db	-0.09936877
112	0x40573c33	3.3630493
113	0xbe2aeb87	-0.16691409
114	0xbf5cea59	-0.86295086
115	0xbefe4968	-0.4966538
116	0xbef1408b	-0.47119555
117	0x3fd647e8	1.6740694
118	0xbeb54777	-0.35406086
119	0xbebb9acc	-0.36641538
120	0xbf019ecf	-0.5063295
121	0xbf1993a0	-0.5999088
122	0x3e58ee8f	0.21184753
123	0x3d885580	0.06656933
124	0xbec07478	-0.3758886
125	0xbe5401c0	-0.20703793
126	0x404a7e84	3.163972
127	0xbf2921d8	-0.66067266
