dqn/exercise/models/checkpoint403_-44.37670814908542.pth (torch, 7111 bytes, 3 tensors)

fc1.weight f4 [32, 8]
000000 fd de aa 3e a0 90 2b 3a 5f 56 36 bf f0 30 36 3d
       0.33373252 0.0006544683 -0.7122554 0.044480264
000010 e3 2e 17 40 3b 5a d7 be 32 ab ce 3e 52 42 fc 3e
       2.3622367 -0.42061028 0.40364987 0.49269348
000020 c2 38 47 bd 24 e6 82 3e 48 55 f3 bd 10 6b 2d be
       -0.048638113 0.25566208 -0.118815005 -0.16935372
000030 d9 fd 4d bf d9 8e 9d bf de c4 ac be 52 1a 81 be
       -0.80465466 -1.2309219 -0.33743948 -0.25215393
000040 bc 4c 55 3e 6d c9 73 3e 07 73 32 be db 9b f6 be
       0.20830053 0.23807307 -0.17426692 -0.48165783
000050 10 2e 38 3f 4e 6b 82 3f c3 f2 09 bd 53 6d 94 3e
       0.71945286 1.0188997 -0.03367878 0.28989658
000060 ab ae 2d 3f ab 32 03 39 5c 4f 9a 3f 9f d3 33 3e
       0.6784465 0.00012512009 1.2055469 0.17561196
000070 c4 51 81 bf 44 f3 12 bf d3 93 64 be ba 38 58 3e
       -1.0103078 -0.57402444 -0.22322015 0.2111539
000080 80 e0 cd be 17 18 b5 bf 76 f5 8b be 8a 66 8c bf
       -0.40210342 -1.4147977 -0.2733571 -1.0968792
000090 60 30 30 be d3 b7 4f 3e 06 4c 92 3e 9c c3 90 3e
       -0.17205954 0.20284967 0.28573626 0.28274238
0000a0 55 79 35 3f 06 5b 8c bf 38 0b d8 3e e5 ba e6 be
       0.70888263 -1.0965278 0.4219606 -0.45064464
0000b0 3f 30 45 bf 27 0b 2b bf 05 67 8a 3e 4d cd a6 3e
       -0.7702674 -0.6681389 0.27031723 0.32578507
0000c0 73 83 54 3c 93 1d 82 bf b7 d5 89 bd 63 68 40 bf
       0.012970793 -1.0165275 -0.06730216 -0.7515928
0000d0 7e 3e f8 3e fc c7 9d 3e 26 f6 e7 3e 2f 08 9f be
       0.48485178 0.30816638 0.45304984 -0.3106093
0000e0 c5 4d 0a 3f 34 49 e2 bf 19 db 44 3c 8c 40 8f bf
       0.54024917 -1.767859 0.012015128 -1.1191573
0000f0 e5 66 09 3e 65 30 56 3e c9 cd 65 3d 32 6b be 3d
       0.13418157 0.20916899 0.056104455 0.0929779
000100 f2 a9 25 3f 28 61 64 3d 1b 14 10 3e 70 2d 49 be
       0.6471244 0.055756718 0.1407017 -0.1964624
000110 a0 2f 36 3f 26 4a 99 3f cf a8 4f 3d 54 bc 76 bd
       0.7116642 1.1975753 0.050698098 -0.060238197
000120 5e a3 aa 3e 75 7a 57 3f 32 80 5f 3e 5b df a5 3f
       0.33327764 0.8417123 0.21826246 1.2958788
000130 4c 30 f1 3a 34 69 0f bf b3 26 a6 3d bf 5a 23 bf
       0.0018401234 -0.560199 0.0811285 -0.6381034
000140 92 2a 29 bd 3a 60 06 3f 4e b8 2c 3f 85 cf f3 bf
       -0.041300364 0.5249058 0.67468727 -1.9047705
000150 45 02 10 bf ac 99 12 bf 68 9c e4 3e e4 b2 72 bc
       -0.56253463 -0.57265735 0.44650578 -0.014813159
000160 40 29 6a 3f 79 37 50 bf 0c 61 76 3f 80 c9 27 be
       0.9146919 -0.81334645 0.9624183 -0.1638546
000170 94 67 b9 3e 3c 4d a4 3e 68 d3 c2 bd 10 53 84 3d
       0.36211836 0.32090175 -0.09512979 0.064611554
000180 3d c6 b3 bc 8f 7c 82 be e9 e2 b7 be 53 ae 5b be
       -0.021945113 -0.25485656 -0.35915306 -0.21453218
000190 f4 ac 53 3f 65 43 7e 3f 1f 4b 1d 3d a7 f5 8e be
       0.8268578 0.99321586 0.03840172 -0.27921793
0001a0 c8 5e 03 bf 91 14 85 bf 87 90 81 be f8 fc 8b bf
       -0.513165 -1.0396901 -0.25305578 -1.0936575
0001b0 3e e9 24 3e 0b a1 05 3e 63 63 9d bc f8 a6 8f 3e
       0.161046 0.13049714 -0.01921243 0.28057075
0001c0 72 29 d8 bd 54 ce 62 3f 50 00 32 3f f6 0a 9a bf
       -0.1055478 0.8859608 0.69531727 -1.2034595
0001d0 00 02 89 be d4 c6 f8 3e 6e 7c 13 bf 57 f3 16 3e
       -0.26759338 0.48589194 -0.5761174 0.14741264
0001e0 c7 6d 23 be 15 91 99 be 8f bc 59 be db 56 3c 3e
       -0.15959845 -0.299935 -0.21263336 0.18392508
0001f0 64 b7 31 bf ba 6e 93 bf 6a 82 7d be 33 90 19 be
       -0.69420457 -1.1518166 -0.2475678 -0.14996414
000200 89 80 12 3f a7 98 48 bf 4d 30 68 3e 6d 27 96 be
       0.5722738 -0.7835793 0.22674675 -0.29326954
000210 b2 06 1f bf 9b d2 1d bf 73 c7 ba 3e 66 0c 78 3e
       -0.6211959 -0.61649483 0.36480293 0.2422348
000220 2d 7a d5 be f8 27 e0 3d 54 ec 62 3e b0 6f 0f 3d
       -0.41694775 0.109451234 0.22160465 0.035018623
000230 21 84 31 3f da 76 b1 3f 24 d0 91 3e c2 85 03 bf
       0.6934224 1.3864396 0.2847911 -0.51375973
000240 73 4c c9 be 01 fd 86 3d d3 9e 10 3c 76 bc 9c bc
       -0.3931614 0.065912254 0.008826929 -0.019132834
000250 e8 bf da be 89 15 9b bf 99 46 e1 be 28 b6 50 3e
       -0.42724538 -1.2115947 -0.43999174 0.20381987
000260 c1 66 18 be 8b 38 64 bf c7 ee 7e 3d 91 da 74 bf
       -0.14882948 -0.8914878 0.062239435 -0.95646006
000270 f9 44 6a be dc 7b 1a bf 03 30 40 3d ab d8 65 bd
       -0.22877873 -0.60345244 0.046920788 -0.056114834
000280 ea 1c 63 3d f4 dd 8e bf 6b d4 ac be 5c 14 8a bf
       0.055447496 -1.1161485 -0.33755812 -1.0787463
000290 bd 06 88 3e 17 af a0 3e 9e d9 98 bc e4 ed 43 3e
       0.2656764 0.31383583 -0.018658455 0.19133717
0002a0 08 75 b0 3e 34 48 8e bf 7d 7e c6 3e 50 d3 62 bf
       0.34464288 -1.1115785 0.38768378 -0.8860369
0002b0 ca b1 19 3f 7b 68 3d 3e 1a 47 0e be 08 8d 08 3e
       0.6003691 0.18496887 -0.1389431 0.13335049
0002c0 04 f3 c7 3e 85 e7 7e bf 51 52 00 3f 0f 3a be be
       0.39052594 -0.9957202 0.50125605 -0.3715367
0002d0 62 f2 f8 be 61 46 14 bf d7 18 86 3e 44 b1 d2 3e
       -0.48622423 -0.5791989 0.26190826 0.41150868
0002e0 06 c8 6c 3f c5 b0 45 bf 53 75 0b 3e a3 68 81 be
       0.9249271 -0.77222854 0.13618974 -0.25275144
0002f0 6a c7 06 bf f6 d3 c9 bd b1 d5 dc 3e 81 ae 83 3e
       -0.5264803 -0.098548815 0.43131784 0.25719073
000300 a2 75 b8 3e 8d f6 fd bd 48 3a 4d bf 56 9a cc bf
       0.36027247 -0.124005415 -0.80167055 -1.59846
000310 33 ff 9a 3f 05 bc 15 bd a6 83 d6 3d da 07 42 3e
       1.2109131 -0.036556263 0.10474329 0.18948308
000320 9f 60 45 3d e9 b0 91 3e f5 46 f8 bf a3 9b 6d be
       0.04818785 0.28455284 -1.9396654 -0.23203902
000330 9a ca b6 3e 53 85 c9 3e fb f4 f0 bd 78 2a 6d 3e
       0.35701448 0.3935953 -0.11765476 0.23160732
000340 4b dc 29 3f af af 8e be d7 9a c7 3e ee b4 1b 3d
       0.66351765 -0.2786841 0.3898532 0.038014345
000350 e9 03 0d bf 15 ec 1f bf 96 cc 10 3d 20 7a 7c 3e
       -0.5508409 -0.6246961 0.03535136 0.24655962
000360 06 11 ab 3c 66 c0 a8 bf 94 50 48 3e b5 a5 9a bf
       0.02088214 -1.3183715 0.19561988 -1.208182
000370 14 3f 48 3e db cf 85 3e 23 93 9c 3e 40 69 84 bc
       0.19555312 0.26135144 0.30581006 -0.016163468
000380 5d 8c 52 bf 0e 22 5c bf b8 ec e5 be b1 30 45 bf
       -0.8224543 -0.85989463 -0.44907165 -0.7702742
000390 1f 69 bd 3c 5c ee 34 3d 35 b0 b3 3d da b9 c9 3e
       0.023121415 0.04417263 0.08773843 0.39399606
0003a0 38 5b 39 3f 56 88 04 3e 1c 1d 99 3d 54 75 3c be
       0.72404814 0.12942633 0.07476255 -0.18404132
0003b0 63 0d 0f bf c1 9c 8a bf 5a 75 6f be af 4e 2f 3d
       -0.558798 -1.0829087 -0.2338461 0.042799648
0003c0 89 a5 42 3f 4b 27 22 3d 23 a3 ee bd 7a e2 46 be
       0.76033837 0.039588254 -0.116522096 -0.19422331
0003d0 f9 a6 1a bf 72 03 89 bf 65 2c 82 3d 43 f8 28 be
       -0.6041103 -1.0704176 0.06356124 -0.16500954
0003e0 af 42 99 bf d4 07 54 bf 7b 94 42 bf e6 c1 33 3b
       -1.1973475 -0.82824445 -0.76007813 0.0027428805
0003f0 59 01 77 3f 86 09 31 3e fd ce 40 be e5 71 84 be
       0.9648643 0.17288789 -0.1882896 -0.25868145

fc2.weight f4 [32, 32]
000000 78 8e b5 be 1a ca 4f 3f 39 f3 e7 3e 2d 9e 9a 3e
       -0.35460258 0.8116776 0.45302752 0.30198804
000010 c6 86 01 3f d7 d8 29 3f c7 88 24 3f 47 3a 55 3f
       0.5059627 0.66346496 0.64271206 0.8329205
000020 21 67 6f 3f 1f d2 92 3e 4d 1d e0 3a db 2b 1c 3f
       0.9351674 0.28675935 0.0017098576 0.6100442
000030 fa 52 54 3f ed e2 25 3f 2f 37 f8 be 35 29 24 3f
       0.8293911 0.64799386 -0.48479602 0.64125377
000040 17 db c6 3e 9f 7c 5f 3f fa df 08 3f 8a 52 96 3e
       0.38839027 0.8729953 0.5346676 0.29359847
000050 3c cb 67 3f f6 04 c4 3e 22 af ec 3e 81 46 1f 3f
       0.90544486 0.38285035 0.46227366 0.62216955
000060 74 ff 81 3e 66 bc 93 3e cd 4e eb 3e 02 6f 11 3f
       0.25390208 0.28854674 0.45958558 0.5681001
000070 18 bc 0f 3f f9 51 32 3f 98 a4 19 3f 7e 79 a6 3f
       0.56146383 0.6965633 0.60016775 1.3005826
000080 07 36 21 be 2a 80 4a 3f 69 79 5a bd bb 43 e2 3e
       -0.15743266 0.7910181 -0.053338442 0.441923
000090 02 0a a3 3e 11 aa e7 3e 7a 3f 97 3e 48 bc d4 3e
       0.31843573 0.45246938 0.29540616 0.41549897
0000a0 a4 3c d5 3e 19 ae 64 3e fc 16 82 3e 3f b0 25 3e
       0.41647828 0.22332038 0.2540816 0.16180514
0000b0 d7 3f 15 3e bc 60 bf 3e 61 85 39 bf f5 d9 64 3f
       0.14575134 0.3737849 -0.72469145 0.89395076
0000c0 62 8c 00 3f df 4a 85 3e f3 43 32 3f a3 97 fd 3e
       0.5021421 0.26033685 0.6963493 0.49529752
0000d0 5d 47 14 3f ab ff 6c 3e d0 47 3b 3e 8e d7 ac 3e
       0.5792139 0.23144405 0.18289113 0.33758205
0000e0 1f 65 2c 3e c9 0d 8b 3d 41 d1 19 3f 80 a7 67 3e
       0.1683545 0.06789739 0.6008492 0.2262249
0000f0 7f 4f 99 3e 6c 85 05 3f 71 79 36 3f 66 61 82 3f
       0.29943463 0.5215671 0.71279055 1.0185974
000100 03 9f 85 be bf 3e 4b 3f 70 1a 53 3d af 75 a7 3e
       -0.2609788 0.7939262 0.051538885 0.32706973
000110 c2 57 08 3f c9 c5 11 3f fb 75 ee 3e aa 2b 00 3f
       0.5325891 0.5694242 0.46574387 0.50066626
000120 e8 48 42 3f e9 6c fe bd 7d 8b fc 3d 75 e0 91 3e
       0.75892496 -0.12423117 0.12331293 0.2849156
000130 09 ed fe 3e 99 56 0a 3f fb 54 e1 be 02 48 3f 3f
       0.49790218 0.5403839 -0.44010147 0.7471925
000140 dd 3b f0 3e 1a 9c 0f 3f f2 40 52 3f 0f 04 1b 3f
       0.46920672 0.5609757 0.8213035 0.6055307
000150 81 d3 f3 3e b3 72 b6 3e dc bb 09 3f 15 f0 0b 3f
       0.47622302 0.35634384 0.53802276 0.5466321
000160 d9 ad 86 b9 36 67 12 3e 1b 12 19 3f e2 db a3 3e
       -0.00025687998 0.14297184 0.5979325 0.32003695
000170 4f b3 90 3e dc 2f 1c 3f 4c 35 e9 3e 34 b4 97 3f
       0.28261802 0.6101053 0.45548475 1.1851869
000180 64 83 5a be 49 7c 23 3d 3e fd d7 3e 9c f2 ec 3e
       -0.21339184 0.03991345 0.42185396 0.46278846
000190 00 84 87 3e 7d 96 e4 3e 1b 5c 35 3e dd 4c bb 3e
       0.26467896 0.44646063 0.17710917 0.3658208
0001a0 55 fd de 3e 4f c3 05 bf 18 16 02 bf f2 df b8 3e
       0.43552652 -0.5225114 -0.5081496 0.36108357
0001b0 b3 5d 32 3f f3 19 d6 3e 5a 31 0c be 8a 20 b1 be
       0.69674224 0.41816673 -0.13690701 -0.34595138
0001c0 d1 ea 39 3e ee a2 46 3f 2d 57 1c bf 2d 72 8f 3e
       0.18155982 0.7759236 -0.6107052 0.28016797
0001d0 67 84 99 3e 9d 50 a6 3d be dd 36 3e cd 55 82 3e
       0.29983827 0.081208445 0.17858025 0.25456086
0001e0 1c 92 4f 3d be 2a 66 3e f8 cc e6 3e 3f ef ba 3e
       0.05067645 0.22477242 0.45078254 0.36510655
0001f0 24 8f 95 3e 56 27 69 bd 43 1d a9 3d 44 12 6f 3f
       0.2921077 -0.05692228 0.08257534 0.93387246
000200 e9 15 7a be 41 92 2b 3f 78 a7 28 3f 8d 22 87 3e
       -0.2442242 0.6702004 0.6588054 0.26393548
000210 c7 50 10 3e 24 b7 f4 3e 72 0b 9a 3e ce 55 e8 3e
       0.14093314 0.47795975 0.30086857 0.45377964
000220 3c fc 35 3f 0b 84 2b 3e 14 e5 1d be 9f 98 15 3f
       0.71088004 0.16749589 -0.15419418 0.58436006
000230 ee 38 59 3f e6 d2 85 3e db 80 82 be a4 1b 54 3f
       0.8485249 0.26137465 -0.25488934 0.82854676
000240 3f 74 08 3f e2 47 79 3f b4 db 87 3e e0 86 04 3f
       0.5330238 0.9737531 0.26534808 0.517683
000250 9b 88 09 3f 96 9c 85 3e 15 63 fa 3e 16 24 d4 3e
       0.5372407 0.26096028 0.4890372 0.4143378
000260 bc 80 89 3e bb 7b 17 3f f8 53 90 3e aa be ed 3d
       0.2685603 0.5917317 0.28189063 0.11608632
000270 37 ed 92 3e 3f 48 ba 3e 3c 8e c1 3e c1 0e 86 3f
       0.28696606 0.36383244 0.3780383 1.0473253
000280 36 ae 51 be 7e 08 5a 3e 27 40 15 3e 16 6e 14 be
       -0.20476612 0.21292302 0.14575253 -0.1449512
000290 db 94 b4 bd 88 6c bc be b4 bc 80 3e a1 cd 86 3e
       -0.088174544 -0.36801553 0.2514397 0.26328757
0002a0 87 90 19 3f 77 bd 7e 3d 4f 03 54 3d df 70 63 3e
       0.59986156 0.062192407 0.051760968 0.22211026
0002b0 97 4d 0c 3e e4 36 d9 3c 95 ee 72 3e e7 85 3f bf
       0.13701473 0.026515432 0.23723824 -0.74813694
0002c0 89 be b5 be 22 08 69 3e de 28 85 3f 86 e1 88 be
       -0.3549693 0.22757009 1.0403097 -0.2673456
0002d0 9a 7a 97 3d 2c 7d b4 3d d3 80 bf b9 e2 39 9e 3d
       0.07396431 0.08812937 -0.0003652634 0.07725884
0002e0 38 b3 85 bd 77 bf bd be 19 63 47 be 1c 09 4f 3e
       -0.06528324 -0.3706014 -0.19471397 0.20218319
0002f0 d7 b9 87 be fe 27 21 3f 7c 12 4b be 91 3c 1d 3f
       -0.26508972 0.6295165 -0.1983127 0.6142054
000300 3a 97 ae be 26 bc 0b 3f b9 ca c1 3e c6 d8 30 3f
       -0.34099752 0.54583967 0.37849978 0.6908077
000310 c3 29 1c 3f 42 3c 04 3f e2 95 97 3e fc 89 12 3f
       0.61001223 0.51654446 0.2960654 0.572418
000320 d5 40 06 3f 04 f5 fe 3e af e1 69 bd c9 9b 32 3e
       0.52442676 0.49796307 -0.057099994 0.1744224
000330 2e 2b 54 3e cf 39 9a 3e 0a 9d e0 be 6e 03 e9 3e
       0.20719597 0.3012223 -0.4386981 0.4551043
000340 8a de ce 3e 89 d8 1c 3f 4b 67 41 3f 56 43 26 3e
       0.4040416 0.61267906 0.7554824 0.16236624
000350 f2 23 ba 3e 30 14 0d 3e 3c 06 dd 3e cf 53 21 3f
       0.3635555 0.13777232 0.4316882 0.63018507
000360 10 8f d7 bc d3 a6 93 3d 49 1a 26 3f 6d 79 40 3d
       -0.026313335 0.072095536 0.6488386 0.0469908
000370 ae ce 57 3e 27 2a 31 3f c4 4e d9 3e 67 15 85 3f
       0.21074936 0.69204944 0.42442906 1.0397156
000380 c9 2e e3 3f b8 6f 01 be 90 c0 cb bf 5a d4 8a 3e
       1.7748653 -0.12640274 -1.591814 0.27115136
000390 8d a1 9c bf 49 d4 f0 bc 48 64 4c bf dd 01 b3 bf
       -1.2236801 -0.0293981 -0.7984052 -1.3984944
0003a0 03 26 80 bf 4e 19 a0 be de 0a 4e 3f 42 26 78 bf
       -1.00116 -0.31269306 0.8048533 -0.96933377
0003b0 78 a3 d5 3e 37 f7 aa bf 83 07 c5 3f f0 85 af be
       0.4172628 -1.3356694 1.5392917 -0.34281874
0003c0 80 1e c0 be 17 b8 24 c0 0b 02 8f 3d ad 00 52 3e
       -0.3752327 -2.573736 0.069828115 0.2050807
0003d0 fc 03 c8 bf 5b a6 8b bf b0 67 0f bd 87 d4 78 be
       -1.5626216 -1.0910143 -0.035010993 -0.24299823
0003e0 c4 82 87 3f ba 6a 9c bd 30 94 c9 bd d8 3d 90 bf
       1.0586782 -0.07637544 -0.09842718 -1.1268873
0003f0 6f 43 96 bf f9 38 c8 3d 16 13 3c be 08 75 b0 be
       -1.1739329 0.09776492 -0.18366656 -0.34464288

fc3.weight f4 [4, 32]
000000 cf 97 15 bf f7 c2 f6 be 6e 03 f3 be f7 81 af be
       -0.58434767 -0.4819562 -0.47463554 -0.34278843
000010 63 54 cb be e2 fc 0f 3e 1a a3 ee be fe 18 d4 3f
       -0.3971282 0.14061311 -0.46608812 1.6570127
000020 7c 50 1f 40 b4 b9 25 40 7c 58 90 be ec a4 be be
       2.4892874 2.5894594 -0.28192508 -0.372352
000030 cd 7f 04 bf 57 e3 6d 3f fe f2 1b bf 48 9b 16 bf
       -0.5175751 0.9292502 -0.6091765 -0.5883069
000040 dd 01 3f 40 e3 75 0f bf 1f 09 86 be 80 bd 1d bf
       2.9844887 -0.56039256 -0.26178834 -0.6161728
000050 2b f1 08 bf d4 23 bf 3f 4d 4f c9 be 01 03 8a be
       -0.53492993 1.4932809 -0.39318314 -0.26955417
000060 bb 3a a4 be 95 f4 dc be c0 d7 02 3d 64 05 e2 bd
       -0.32076058 -0.4315535 0.031944036 -0.110361844
000070 b4 df 29 bf 07 37 a3 be 39 8a 01 40 b7 74 fb be
       -0.6635697 -0.3187792 2.0240614 -0.49112484
000080 ca 57 ed be 8f 96 0e bf 29 2d b1 be 02 67 31 be
       -0.4635604 -0.55698484 -0.34604767 -0.1732445
000090 57 8e 3a bf 40 cd c4 be 9c cb 25 be f0 72 29 40
       -0.72873443 -0.38437843 -0.16190952 2.6476402
0000a0 bf 2b 03 40 f7 87 f9 3f 12 a7 df be 2d 54 1d bf
       2.049545 1.9494618 -0.43682152 -0.6145657
0000b0 7e b1 1c bf 60 f0 b7 3f fc 51 ba be 21 19 0a bf
       -0.6120833 1.4370232 -0.36390674 -0.53944594
0000c0 b2 1c 33 40 ad a3 2b bf 50 71 c1 be 75 99 14 bf
       2.7986264 -0.67046624 -0.37781763 -0.58046657
0000d0 64 48 82 be 93 41 df 3f 08 78 1d bf 5b b1 d7 be
       -0.25445855 1.7441887 -0.6151128 -0.421275
0000e0 7c 52 14 be a9 f6 01 bf f2 20 e0 3c 3d 59 06 3d
       -0.1448459 -0.50767 0.02735946 0.032799948
0000f0 0c 37 2b bf 70 c2 a1 be 28 df f1 3f 6f 4d a1 bd
       -0.6688087 -0.31593657 1.8896227 -0.078760974
000100 92 8c 16 bf df 89 fc be 13 06 a8 be 0d 98 32 bf
       -0.58808243 -0.49323937 -0.32817134 -0.6976326
000110 e9 91 03 bf 3e e6 3d bb 74 e0 22 bf 09 70 d0 3f
       -0.51394516 -0.0028976346 -0.6362374 1.628419
000120 77 07 1c 40 7f d3 1d 40 2d 7d 05 bf f5 56 9f be
       2.4379556 2.4660337 -0.5214413 -0.3112103
000130 d4 af 18 bf 7d 2b 7a bf 15 7e 9d be 9f 37 d2 be
       -0.5964329 -0.9772261 -0.30760255 -0.4105806
000140 30 13 ec 3f f4 77 9b be f6 c2 3b bf b0 40 98 be
       1.8443356 -0.30364954 -0.7334436 -0.29736853
000150 a7 eb b1 bd 0d 4c e5 3f 23 e4 e5 be 2a 18 00 bf
       -0.08687525 1.7913834 -0.44900617 -0.5003687
000160 d4 c7 35 bf 8d 54 98 be d2 06 2a 40 0d f1 c6 3d
       -0.7100804 -0.29752007 2.6566663 0.097139455
000170 ba 82 2b bf d4 fb 1c bf b0 17 a4 3e b1 8a 76 be
       -0.6699635 -0.6132176 0.32049322 -0.24076344
000180 55 3c e6 be c0 82 09 bf b2 4c 0f bf 16 d5 88 be
       -0.44967905 -0.53715134 -0.559764 -0.26725072
000190 ee ef 4d be cd d7 43 bf 93 f1 0b bf 3d 81 07 3f
       -0.20111057 -0.7650116 -0.5466549 0.52931577
0001a0 e2 33 15 40 9f 71 3d 40 7d 3e ed be 6f f4 14 bf
       2.3312917 2.96006 -0.46336737 -0.58185476
0001b0 cd e7 11 bf e5 18 84 3f f0 dd f8 be e8 04 44 be
       -0.56994325 1.0320097 -0.48606825 -0.19142497
0001c0 01 ab 39 40 bc d8 6a be 99 08 1e bf 91 a6 0b bf
       2.9010623 -0.2293424 -0.6173187 -0.54551035
0001d0 ec ac 01 bf 9f 19 c4 3f 1c 25 d2 be 69 dc d4 be
       -0.5065448 1.5320319 -0.41043937 -0.4157441
0001e0 69 fb 03 bf 53 49 1f bf 51 9e 6b 3e 80 55 88 3d
       -0.51555496 -0.6222126 0.23009612 0.06656933
0001f0 d5 a0 d9 be c7 4c 97 be 6f 25 36 40 af 15 23 bf
       -0.42505518 -0.29550764 2.8460348 -0.6370496
