dqn/exercise/models/checkpoint727_189.6104173263483.pth (torch, 7111 bytes, 3 tensors)

fc1.weight f4 [32, 8]
00000000: 2002 a0bd 05fc c4bb d375 833d b5a2 663d
00000010: 98a2 5340 ce41 15bf 0d0c 8f3e f237 113f
00000020: 2d3b bc3c 77a3 2a3f 2f55 003f 1479 78bf
00000030: fa84 a4be f354 8fbf 26ee ddbe 4235 3abe
00000040: 0a79 403c bc55 353f 80f4 a7be e410 e2be
00000050: 67b8 a33f 5c12 4e3f 36ba b63d facc 543d
00000060: 0e88 0b3e 09b2 e9ba e71c 1d40 b49a 7c3f
00000070: 7f38 f9be b1a2 cbbe b9ea 96bf 0eed 9f3e
00000080: 4cd0 d3be bfb7 c7be df38 7abe c186 9cbe
00000090: ba27 003e 1b94 993d 4a93 b63e 0758 6f3e
000000a0: 409b 8d3e 14ff 5dbf 7f7a b53e ce01 aa3f
000000b0: 6f5e cbbe d751 14bf 9d9f 9e3e c177 fa3e
000000c0: 8eb3 09be 5683 e3be 23c6 debd 8307 66b9
000000d0: 41f3 1e3f 110e 3a3e 6864 f83e 3d21 85be
000000e0: ed3e 453f 6b18 c2bf 9421 963e 8a3c a4bf
000000f0: 86b7 dc3b 64fc 1a3f ea0d 313e 6ab8 f73c
00000100: d02a e73d ccbc a23e 8f40 053f 77ba 723d
00000110: 72e2 6e3f 09de 863f 8272 e0bd 97c0 e63d
00000120: fdb3 a33e ffba 5a3f ac05 813e 62ca 1840
00000130: 0736 e0be 0b70 ecbd ea43 723e 5d1c 2dbf
00000140: e894 8f3d 8382 df3e 2043 293f 40c8 2ac0
00000150: 378e 64bf 11fd acbe 19e1 0f3f 767e 253e
00000160: 9ddd 393e 6d0e 31bf 8a6f fb3f 7a86 30bc
00000170: f92a f5be e224 023f 3c7d eebc 1dd8 0c3d
00000180: fd96 9fbe 6ae7 083e 33da f8be f75f 5d3f
00000190: 5c03 923f e668 463f 38ba 95bd 69ee 40bf
000001a0: b065 0abf 0558 a0be 4c5b 9ebe 6ba4 bdbe
000001b0: 2ed5 a53e bb8b 663c b4fd 0fbd ca05 813e
000001c0: bcf3 4ebe d690 393f 6bdc 5b3e d265 8cbf
000001d0: 94d9 81bf 2fbc 7c3f e9af 47bf 7bd8 bd3e
000001e0: b173 a83e ebae 34be d29b d7bd 1847 28bd
000001f0: 5e12 14bf adab a0bf c04c 58be 3f91 153e
00000200: fffd ea3d 9b46 e8be 2db3 cbbc 3b3a 7a3f
00000210: 1791 bfbd 9d85 20bf aec3 c83e cd8a 313e
00000220: b143 00bf 0f48 4e3e 104d db3e a0a2 243d
00000230: 43c8 263e f013 6e3f 8c57 f33e 41e1 02bf
00000240: 9254 e0be f3c8 e23b 85e9 7e3d c84f 083e
00000250: 4511 82be 3efc 5dbf b1e3 a7be 447f 9d3e
00000260: 4bff 41be 2443 95be fd91 afbe d081 90bf
00000270: 620e 0fbf 933d 66bf 2338 333e f404 46be
00000280: 8368 5bbe b009 abbe 739c 73bf 89f7 a9be
00000290: 90cb 6f3f 0c94 303f 152f a8bd 31f2 7a3d
000002a0: b454 eabe 952e d4bf d8ce 4d3f 6b82 71bf
000002b0: dd24 0b3f b3f3 073f ac73 03bf c47d b7be
000002c0: 7a07 c73c 6385 65be 8fd0 4f3e 8473 713f
000002d0: a684 96be 4aee 00bf 107a 7b3e d9dc 0c3f
000002e0: c2c4 743f 102b 61be 96e1 173f 582c 623f
000002f0: 74f9 f2be 47f9 fdbe 5e8f 9e3e b246 29bd
00000300: 0cb4 be3e fca2 b33d 16c5 b3be d376 c6bf
00000310: 04c9 a83f 82e0 cd3d e15b 473e dd10 6e3e
00000320: 9298 113d 3d33 cb3d dcb7 3dc0 41b9 bd3e
00000330: 1072 2bbf d8f5 6c3e d69a 303e 599d ba3e
00000340: 55d3 653f e52d 94be 0a55 333f d531 ff3e
00000350: 11b4 12bf a410 0cbf e37e 50bd cc66 c03d
00000360: 33e1 95bd 0565 e7be 9b0b 5c3f 3fda 8fbf
00000370: b281 b2bd fcd4 f63e 9dc1 3f3f 4a32 69bc
00000380: 68cc 72bf 05ca 7fbe 5ba1 18bf 29ea 9abe
00000390: 5054 e73e 41da a4bc 5007 953d a16e af3e
000003a0: 4c81 183f bdb7 033e 4406 673e f702 45bf
000003b0: e1ad 68be 6c86 80bf e7fa 3ebe 9b69 203e
000003c0: 024e 4a3f 4208 efbc a134 253d 0756 e0be
000003d0: 2ec1 8dbe 0696 8cbf 598e 6e3e d693 35be
000003e0: c7b9 adbf b8df e8be 9c8c 93bf b839 e73d
000003f0: 2c6b c73f a693 3b3e 3506 87bd 01ad cb3b
-0.07812905 -0.0060114884 0.064189576 0.056307513 3.306799 -0.58303535 0.27938882 0.5672599
0.022977436 0.6665568 0.5012998 -0.9705975 -0.32132703 -1.11978 -0.43345755 -0.18184379
0.011747608 0.70833945 -0.32803726 -0.44153512 1.279065 0.80496764 0.08922236 0.051953293
0.1362612 -0.0017829548 2.454889 0.9867356 -0.48675916 -0.3977256 -1.1790382 0.31235546
-0.41369855 -0.39007375 -0.24435757 -0.3057156 0.12515154 0.07498952 0.35659248 0.23373424
0.2765751 -0.86717343 0.3544502 1.3281801 -0.39720485 -0.5793738 0.3098115 0.4891949
-0.13447401 -0.4443614 -0.10877635 -0.00021937308 0.62089926 0.18169428 0.48514104 -0.2600192
0.7704914 -1.5163702 0.29322493 -1.2830975 0.006735745 0.6054137 0.17290464 0.030239303
0.11287463 0.31784666 0.52051634 0.059259858 0.9331428 1.053651 -0.10959341 0.11267202
0.31973258 0.85441583 0.2519964 2.3873525 -0.4379122 -0.11544808 0.2365872 -0.67621404
0.070108235 0.4365426 0.6611805 -2.6684723 -0.892795 -0.33786824 0.56202847 0.16161522
0.18150945 -0.69162637 1.9643414 -0.010774249 -0.47884348 0.5083753 -0.02911245 0.03438579
-0.31169882 0.13369527 -0.48603973 0.86474556 1.1407275 0.7750381 -0.07310909 -0.75363785
-0.5406141 -0.31317154 -0.3092903 -0.37039503 0.32389206 0.0140714 -0.03515406 0.2519973
-0.20210165 0.7248663 0.21470802 -1.0968573 -1.0144525 0.98724645 -0.7800279 0.37079224
0.32900766 -0.17644851 -0.10527767 -0.041083425 -0.57840526 -1.2552391 -0.21123028 0.14606188
0.11474227 -0.45366368 -0.024865711 0.977451 -0.093538456 -0.6270388 0.39211792 0.17338105
-0.5010329 0.20144676 0.42832232 0.040194154 0.16287331 0.9299917 0.4752773 -0.5112496
-0.43814522 0.0069209277 0.06223442 0.13311684 -0.254038 -0.86713016 -0.32790902 0.30761158
-0.18945043 -0.29152787 -0.34291068 -1.1289616 -0.5588132 -0.89937705 0.17501883 -0.19337827
-0.21426587 -0.33405828 -0.951606 -0.33196667 0.93669987 0.689759 -0.08212105 0.061266128
-0.45767748 -1.6576716 0.80393744 -0.9433963 0.54353124 0.5310623 -0.51348376 -0.3583814
0.024295557 -0.22414164 0.20294403 0.9431689 -0.29398078 -0.503636 0.24558282 0.55024487
0.9561273 -0.21989083 0.5932859 0.88348913 -0.47455943 -0.49604246 0.30968755 -0.041327186
0.3724674 0.08771321 -0.35111302 -1.5505012 1.3186345 0.10052587 0.19468643 0.2324862
0.035545893 0.09921882 -2.964347 0.370554 -0.6697092 0.23140657 0.17246565 0.36448172
0.8977559 -0.28941265 0.70051634 0.49842706 -0.5730601 -0.5471289 -0.05090226 0.09394607
-0.07318344 -0.4519426 0.8595521 -1.1238478 -0.08716144 0.4820937 0.74904805 -0.014233181
-0.9484315 -0.24979408 -0.5962121 -0.30256775 0.45181513 -0.020123603 0.072767854 0.3426409
0.5957229 0.1286306 0.22560984 -0.7695765 -0.2272258 -1.0041022 -0.18650399 0.15665285
0.7902528 -0.029178742 0.040333394 -0.43815634 -0.27686447 -1.0983284 0.23296489 -0.17732176
-1.357232 -0.45483184 -1.1527286 0.11290306 1.5579581 0.18318042 -0.06592981 0.006215692

fc2.weight f4 [32, 32]
00000000: cd49 32bf a5c5 4b3f 439c 223f 1652 e4be
00000010: a612 d73d d22b a03e 4b19 bc3e f81e e4be
00000020: abec 543f dd9d c33c c414 c2be 5061 6d3e
00000030: 9901 0a3f f468 043e 37d4 1fbf 8f10 f73e
00000040: e402 d73d 538b 1b3f 42c6 85bd 6ab1 09be
00000050: 49cb 2d3f 7e9c 3ebf 7b21 0f3e a734 8f3e
00000060: 56d9 803d 3159 debc dab0 cd3e a486 c03c
00000070: 454b 8e3e 5bc3 243f 53fd 183f 6b05 db3f
00000080: b3f1 83be 144f 023f e7e9 503e 55fc a73d
00000090: cb43 3d3d ef56 443e ee95 5d3e 9e06 09bf
000000a0: 1f3b ec3e b74b 8e3e 190a 98be d3ef 163c
000000b0: 8c0f 00be 8118 0ebd 446e babf 1fa1 3f3f
000000c0: 7f5f ab3e 6aa3 5ebd 5a89 dabc d9cc 633e
000000d0: ddaa ea3e 618e 3bbf 4e0e 27bd 6e66 b13d
000000e0: 968e 113e 1a17 143e 7b71 053f 97bc 12be
000000f0: 1106 8b3d 958b c83e 5b69 213f f950 a93f
00000100: 1275 12bf dfbe 603f dd5d 9a3e f02f 39be
00000110: 6bb8 1b3e f49a 883e dc94 5e3e de2e 0dbf
00000120: 4008 2e3f 03bc a4be 5116 21be a0ca d13d
00000130: 2ace d33d 5c9e a83d 8561 dfbe ff97 0e3f
00000140: 814c 723e 3446 d93e 713e 2f3e bd4e ce3e
00000150: 68a9 9f3e cf28 24bf 3598 823e 910e 7d3e
00000160: e3c9 1fbe cef6 e93c 3a08 143f b9d7 e7bd
00000170: 72fa f3bb 016e eb3e 1af1 d53e b54e b53f
00000180: f40d c7bd 424d 80bf 322b bd3e 058d 073d
00000190: 611d 773e 1cee 033f 0076 893e 8a9c 2fbf
000001a0: 1431 763e 0330 013f 590d 89bf 95dd 623e
000001b0: 790c 183f 3449 f03c 0a08 aabf 2fe3 4cbf
000001c0: 59c6 d23e eff3 023f 60be e4bf daba 073e
000001d0: 0c1b c6bd 79c1 31bf 68f1 583e 08ed d73e
000001e0: 8260 b7be 9d18 003e f65b 573f a8ba d83d
000001f0: d8f9 103e edcb 2bbf 910e 8f3e d7ea 8d3f
00000200: 1e6b a0be 760f 293f 3fe5 5e3f d6df abbe
00000210: f8c7 e9bd eb46 3f3e 5451 873e 9ab9 3dbf
00000220: fba2 323f e5e4 b1bd bdba 05bf a6cf d9bd
00000230: 680b 273f 5428 e8bd 7e3c 02bf 3ed2 3a3f
00000240: a375 b93e 0ff2 393f b603 5ebe dccf ea3d
00000250: bdae aa3e b14b 56bf f1f1 743e 1ccc db3d
00000260: c0d0 3d3e 47ab 703e 1f89 29bc ff6d 92be
00000270: 61d6 243e d5bc 883e ad0f 933e 3eec c93f
00000280: 5ca0 aebe a52c c23e 6016 fc3e 1576 fabd
00000290: f3aa 173d 95ee cdbe 438c c43e 66eb 30bd
000002a0: c211 173f c3ec 553d 6d53 bd3e 4a38 3abf
000002b0: cf77 83be 7913 b13e e330 063f 31de b2bf
000002c0: 8094 83be 52a4 643d fe8f 663f ca08 db3d
000002d0: 837a 603d fa43 2dbf 6468 d73d 94d8 8a3d
000002e0: 6524 1dbe 543a 20bf 5cd5 aeb9 69b3 ab3e
000002f0: 4cc6 d1bb 8375 823e d286 04bf 6cba 143f
00000300: a595 25bf 05a2 053f 1552 213f c021 cebd
00000310: 2646 bb3e d944 a53e d545 113e 7342 0dbf
00000320: afb2 f53e e873 c13e b51b 75be 1376 823e
00000330: 4ee9 d2bd a8f1 0bbe ccfa d9be d955 523e
00000340: f0c1 943e 3a09 043f 363d c73b 4121 a0be
00000350: 4d57 e23d 6fd2 34bf 2cbe 943e ce01 fd3e
00000360: ff17 c9bd 1b0e 33bd e164 353f 96cb 9cbe
00000370: 4414 833c aef8 163f 45cd ef3e 17f4 a43f
00000380: 4dbc 2940 aef8 69be 6374 dcbf 588e 733f
00000390: e9ec a6bf 9e0f 283d a1b3 a0bf 59e6 c6bf
000003a0: 4ba2 80bf 5262 203e 5b2d c73e 5fc1 4ebf
000003b0: 5121 2240 3778 8abf 57c1 cb3f 8fb1 b5bd
000003c0: d696 ecbe de06 ffbf 49da 7b3e 1da2 b73e
000003d0: 1fdd d7bf 2f3b b6be af5d 0ebd 7840 7ebf
000003e0: ab26 933f ea49 633f 56e2 663d ea29 0dc0
000003f0: d843 9abf 4ba4 813e 511f 2fbd 1c7d 21bf
-0.6964386 0.79598457 0.63519686 -0.44593877 0.10501604 0.31283432 0.36738047 -0.44554877
0.83173627 0.023878986 -0.37906468 0.23181653 0.5390869 0.12930661 -0.6243319 0.4825482
0.10498598 0.60759467 -0.06531955 -0.13446584 0.67888314 -0.7445754 0.13977616 0.27969858
0.062914535 -0.02714214 0.4017399 0.023501702 0.277918 0.6436059 0.5976154 1.7111028
-0.2577034 0.50901914 0.20401727 0.082024254 0.04620723 0.19173788 0.21639225 -0.5352572
0.46138856 0.2779214 -0.29695204 0.009212452 -0.1250593 -0.034691337 -1.45649 0.74855226
0.33471295 -0.054355063 -0.026676822 0.22246112 0.45833483 -0.7326413 -0.040785126 0.08662115
0.14214548 0.14461938 0.5212628 -0.14329754 0.067882665 0.39168993 0.63051385 1.3227836
-0.57209885 0.87791246 0.30149737 -0.18084693 0.15207069 0.2668072 0.21736473 -0.5514964
0.6798134 -0.32174692 -0.1573117 0.10243726 0.10342057 0.0823333 -0.4362909 0.5570068
0.23661996 0.42436373 0.17113663 0.40294448 0.31183934 -0.6412477 0.2550675 0.24712588
-0.15604357 0.028560068 0.5782505 -0.11320443 -0.007445627 0.45982364 0.41785508 1.4164644
-0.09719458 -1.0023577 0.36947018 0.03309347 0.24132301 0.515352 0.2684784 -0.68598235
0.2404216 0.50463885 -1.0707198 0.2215484 0.5939403 0.029331781 -1.3283703 -0.80034155
0.41166952 0.51153463 -1.7870598 0.13254872 -0.096731275 -0.6943584 0.21185839 0.42173028
-0.35815817 0.12509389 0.84124696 0.10582477 0.14157808 -0.6710804 0.279408 1.1087292
-0.31331724 0.66039217 0.8706855 -0.3356921 -0.11415094 0.18679397 0.26429236 -0.7411133
0.6977994 -0.08686236 -0.52238065 -0.10635309 0.6525178 -0.11335817 -0.50873554 0.72977054
0.36222562 0.7263498 -0.21681103 0.11465427 0.3333644 -0.83709246 0.23920418 0.1073229
0.18536663 0.23502837 -0.010347634 -0.28599545 0.16097404 0.26706567 0.28722897 1.577522
-0.3410672 0.37924686 0.4923582 -0.122295536 0.037028264 -0.40221086 0.3838826 -0.043193243
0.5901147 0.052227747 0.3697771 -0.7274214 -0.25677344 0.3458517 0.52418345 -1.3974057
-0.25699234 0.05582077 0.90063465 0.10695036 0.054804336 -0.6768185 0.10517958 0.0677959
-0.15345915 -0.62589 -0.0003334683 0.33535317 -0.0064018127 0.2548028 -0.5176822 0.5809696
-0.64681464 0.5220035 0.6301587 -0.10065031 0.36576957 0.3227909 0.14186795 -0.5517952
0.47987887 0.37783742 -0.2393635 0.25480708 -0.102984056 -0.13666403 -0.42574155 0.20540561
0.29054213 0.5157658 0.006080295 -0.3127537 0.110518076 -0.70633596 0.2905134 0.4941544
-0.0981903 -0.043714624 0.70857054 -0.30624074 0.016000874 0.58973205 0.46836296 1.288699
2.652118 -0.2284877 -1.7223018 0.95139074 -1.3041049 0.04103052 -1.2554818 -1.5539047
-1.0049528 0.15662506 0.3890179 -0.8076381 2.5332835 -1.0817937 1.5918378 -0.08871757
-0.4620883 -1.9923971 0.24594988 0.3586587 -1.6864356 -0.35592028 -0.034757312 -0.9931712
1.1496176 0.8878466 0.056368195 -2.2056832 -1.2051954 0.25320658 -0.042754475 -0.63081527

fc3.weight f4 [4, 32]
00000000: e7f6 fbbe 9c05 12bf e158 cfbe 72ce 7ebe
00000010: 0c56 f1be fce4 cfbc 27c8 eabe a741 2140
00000020: 1170 2340 fca5 3340 6efa fcbc 3b72 7abe
00000030: 7586 bbbe 91be 0740 5664 fabe fa4e 26bf
00000040: c77e 7940 5765 36bf 7186 99bf aff8 eebe
00000050: 22b1 35bf cfde 0540 f34b cebe a660 20bd
00000060: da5e 77be 39aa 6dbe b4b5 b43e 6405 e2bd
00000070: 5d9e 2abf 5bbe 8abe c7f1 4b40 71c7 e5be
00000080: 3f57 b3be af89 dcbe 6c93 ddbe fcf9 003e
00000090: 5fe0 2bbf aa20 9ebf 1be4 72be 3fad 3840
000000a0: cbad 1940 dde3 3e40 8c36 c5be bee2 42bf
000000b0: e921 11bf 02c6 1240 e167 bcbe 0cb3 a8be
000000c0: 595c 6640 8dc9 24bf 7d31 3ebf 99ea 1ebf
000000d0: a5c0 08be 3258 e23f 45e0 13bf c022 f3be
000000e0: ebb0 10be f42d 20bf 53bc 1e3f 3d59 063d
000000f0: f9ef 0bbf 4a57 823c 080b 4a40 4c48 c0bc
00000100: 055d 1dbf 46d9 05bf 095a 90be 3fba bbbf
00000110: b690 06bf cf43 30bd 4e8b 33bf 13ff 2940
00000120: 4dcc 3f40 303d 2240 a143 02bf b1b0 93be
00000130: 429f 12bf dbab 183f 80a8 88be 4444 d1be
00000140: 4c0f ef3f af0e 91be f29e 91bf dd3d 68be
00000150: 0ca6 c23c 3cda 0e40 6cc0 f0be 33f2 47bf
00000160: 8edb 4dbf d567 89be 827e 4440 0df1 c63d
00000170: b76f 28bf 401b 40bf ee2c cb3f 6dfa 0bbe
00000180: 1316 b9be 6755 f1be 7d62 f7be 544b 98be
00000190: 9041 04be 0b7c 62bf 57d0 00bf 027a 9c3f
000001a0: 6731 2240 2a66 7c40 c957 ccbe f014 04bf
000001b0: 40f4 fcbe 6c26 0f40 a7f3 e1be 0942 cbbd
000001c0: c403 6140 a0e7 0abe 9176 99bf 7adc e7be
000001d0: 546c e5be 1541 0040 c1ec a7be efb2 b6be
000001e0: 14b0 0fbf e6c8 02bf ec22 a03e 8055 883d
000001f0: 8835 b7be 554c 87be 2d54 5e40 1d7f 23bf
-0.4921181 -0.5703981 -0.40497497 -0.2488344 -0.4713596 -0.025377743 -0.4585583 2.519632
2.553715 2.807006 -0.030881133 -0.24457638 -0.3662602 2.1210063 -0.48904675 -0.6496426
3.8983629 -0.7124838 -1.1994153 -0.46674106 -0.7097341 2.0917242 -0.4029232 -0.03915467
-0.24157277 -0.23209466 0.35294878 -0.110361844 -0.66647893 -0.27098355 3.186632 -0.44878724
-0.350275 -0.43073794 -0.43276536 0.12595361 -0.6713924 -1.2353718 -0.23719828 2.885574
2.4012325 2.9826577 -0.38518178 -0.7612723 -0.5669237 2.2933354 -0.36798003 -0.32949102
3.5993865 -0.6437004 -0.74294263 -0.6207672 -0.13354738 1.7683165 -0.57764083 -0.4748745
-0.14129989 -0.6257012 0.6200611 0.032799948 -0.54663044 0.015910763 3.1569233 -0.023471974
-0.6147006 -0.5228466 -0.2819369 -1.4666213 -0.5256456 -0.043033417 -0.7013444 2.6561935
2.9968445 2.5349846 -0.50884444 -0.28845742 -0.5727426 0.5963723 -0.26691055 -0.40872395
1.8676543 -0.28331515 -1.1376631 -0.22679849 0.023760818 2.23207 -0.47021806 -0.7810394
-0.8041314 -0.2683703 3.0702214 0.097139455 -0.65795463 -0.7504158 1.5873086 -0.13669749
-0.36149654 -0.4713547 -0.48317328 -0.2974497 -0.12915635 -0.88470525 -0.503179 1.2224734
2.5342653 3.9437356 -0.39910725 -0.5159445 -0.49405098 2.23672 -0.44131204 -0.099247046
3.5158548 -0.1356492 -1.1989309 -0.45285398 -0.4480921 2.0039723 -0.32797816 -0.3568339
-0.5612805 -0.51087797 0.31276643 0.06656933 -0.3578303 -0.26425424 3.4738877 -0.63865834
