dqn/exercise/models/checkpoint525_99.1103114924195.pth (torch, 7111 bytes, 3 tensors)

fc1.weight f4 [32, 8]
000000 50 bb 8e 3d 35 0c 88 bb 21 0f d5 bd 1d cb f5 3d
       0.06969321 -0.004151846 -0.10403276 0.120016314
000010 7b 9a 44 40 94 f6 e2 be 41 a2 9d 3e df 7c f8 3e
       3.0719287 -0.4432875 0.30787852 0.4853277
000020 c6 56 00 be 5a d2 b2 3e ea e9 3f bd a9 21 3d bf
       -0.12533101 0.3492611 -0.046853937 -0.73879486
000030 a1 56 fb be 11 52 ba bf 01 41 90 be 3a b5 6b be
       -0.4908953 -1.4556295 -0.28174594 -0.23018351
000040 c6 15 ba 3e 9a 57 04 3f 08 96 90 bd 71 61 c6 be
       0.36344737 0.5169617 -0.07059866 -0.38746217
000050 38 10 94 3f b5 b5 3c 3f 3f 8c 74 3d 61 e0 2c 3e
       1.156745 0.7371476 0.05970406 0.16882469
000060 5e aa 9c 3d 5c 08 48 3b a7 2d f9 3f 71 6e 03 3f
       0.076496825 0.003052256 1.9467057 0.51340395
000070 b8 8f 72 bf e4 2c 3e bf fc a1 7e be 25 32 26 3e
       -0.9475055 -0.7428725 -0.2486648 0.16230066
000080 7b 60 08 bf 36 a1 86 bf 00 92 d8 bd af 21 01 bf
       -0.5327222 -1.0517948 -0.10574722 -0.5044202
000090 c8 b7 3d bd 1d 48 14 3e 63 c7 b7 3e 1e 88 84 3e
       -0.046317846 0.14480634 0.35894307 0.258851
0000a0 78 c7 e0 3e 59 5e 7b bf 96 30 dc 3e ba 0d cc 3e
       0.43902183 -0.9819084 0.43005818 0.39854223
0000b0 0f 59 39 bf c4 d7 2c bf 7e 97 91 3e ad 47 98 3e
       -0.7240152 -0.6751673 0.28435892 0.29742184
0000c0 e3 c3 fa bd 14 48 30 bf e2 bc 20 3d 65 bd 98 be
       -0.12244394 -0.6885998 0.039242633 -0.29831997
0000d0 cb c9 1d 3f de 06 81 3e b6 8f fa 3e c3 a7 89 be
       0.61636037 0.25200552 0.48937768 -0.26885805
0000e0 19 89 05 3f cd 1d 9c bf eb de 30 be 33 51 86 bf
       0.5216232 -1.2196594 -0.17272536 -1.049353
0000f0 30 91 ac 3e f8 c9 8c 3e 2f e3 92 3d b4 64 03 bd
       0.3370452 0.2749784 0.07172238 -0.03207846
000100 f3 5d 19 3f 36 e4 75 3e e4 35 a2 3e 80 d8 89 bd
       0.5990898 0.24012837 0.3168174 -0.06730747
000110 d0 0b 2a 3f 74 07 85 3f e9 28 a0 3d d3 29 ec 3d
       0.66424274 1.03929 0.07820303 0.11531415
000120 d6 d7 cb 3e b0 2c 63 3f 93 47 bb 3e 69 a5 de 3f
       0.39813107 0.8874006 0.36578044 1.7394229
000130 c4 7c 4c 3e 0c 3f 84 be 75 4b 10 3e 5d 1c 2d bf
       0.1996947 -0.2582935 0.14091285 -0.67621404
000140 d9 f0 e1 3c 33 a9 00 3f 3f 1e 13 3f e8 9b 0d c0
       0.027580665 0.5025818 0.57468027 -2.2126408
000150 60 62 31 bf b7 5c e2 be 12 6e c9 3e 57 cc c0 bd
       -0.69290733 -0.4421136 0.3934179 -0.09413975
000160 44 3c 13 3f d7 69 4d bf 50 ff 96 3f 71 07 c5 bd
       0.57513833 -0.80239624 1.1796665 -0.0962056
000170 4d a9 00 3f ad 5d 0b 3f ae 1e 0b be a5 bb a3 3d
       0.5025833 0.5443981 -0.13585922 0.07994775
000180 7a 36 e8 bd c5 11 49 be 70 3f 7d be 74 69 7c 3e
       -0.113385156 -0.19635685 -0.2473123 0.24649602
000190 28 c8 70 3f 24 58 5d 3f 37 9e 84 be 6f b2 ef be
       0.94055414 0.86462617 -0.25901958 -0.46815822
0001a0 77 c6 1f bf 4d a9 30 bf e4 50 a8 bd 45 e1 0f bf
       -0.6241221 -0.6900833 -0.08218554 -0.5620311
0001b0 3f f7 5d 3e a4 e9 4e 3d b2 40 09 3c 8f 24 92 3e
       0.21676348 0.050515786 0.008377241 0.28543517
0001c0 95 01 69 bd 75 d1 64 3f 41 53 06 3f 29 a1 84 bf
       -0.056886274 0.89382106 0.52470785 -1.0361682
0001d0 ea 8b 33 bf de c6 15 3f 3a ca 35 bf bd af 9e 3e
       -0.70135367 0.5850657 -0.710117 0.30993453
0001e0 74 9c 47 be 93 20 19 bf ea 82 a1 be b0 c3 e7 bc
       -0.19493276 -0.5981533 -0.31545192 -0.028291553
0001f0 85 c0 21 bf 89 6a a5 bf 04 98 5b be 63 8c 36 be
       -0.63184386 -1.2923137 -0.21444708 -0.17826991
000200 18 a6 cf 3e 5e fa 2f bf 24 e4 b0 3d f5 b2 a4 3e
       0.40556407 -0.68741405 0.08637264 0.32167783
000210 9d f5 ea be cb 14 32 bf 4c 8f b3 3e 60 9c 44 3e
       -0.45890513 -0.6956298 0.35070264 0.19200277
000220 a9 70 15 bf 59 07 40 3e 23 03 c9 3e 65 7e ff 3c
       -0.5837503 0.18752803 0.39260206 0.0311882
000230 e2 2c 86 3e 87 53 85 3f 96 31 92 3e 7f fa 32 bf
       0.26206118 1.0416116 0.28553456 -0.69913477
000240 41 0f 0a bf e2 15 7b 3d ec 75 0d 3d 63 54 3c 3d
       -0.53929526 0.061300166 0.034536287 0.045978915
000250 45 f1 4a be 1a d8 87 bf 34 71 c1 be 5d 2d 44 3e
       -0.198186 -1.0612824 -0.3778168 0.1915793
000260 9b a4 90 be ff be f9 be b7 e7 c0 bd 28 9d a2 bf
       -0.28250584 -0.4877853 -0.09419196 -1.270421
000270 ba 81 c4 be e0 28 3a bf a5 f5 b4 3d 73 c4 f7 bd
       -0.38380224 -0.7271862 0.088359155 -0.120980166
000280 16 87 c5 bd 8d 4d 22 bf b5 63 e2 be 11 08 0f bf
       -0.09644906 -0.63399583 -0.44216695 -0.55871683
000290 6d d3 06 3f cb aa ec 3e db 8d 58 bd fd aa 63 3d
       0.5266636 0.46224055 -0.05286966 0.05558299
0002a0 37 d2 0d 3e f0 bb 70 bf dc 86 14 3f 1d eb 4e bf
       0.13849722 -0.9403677 0.5801828 -0.80827504
0002b0 8f b7 1e 3f 4f be 9b 3e 34 11 b7 be db 37 3e 3b
       0.6199884 0.3041863 -0.35755312 0.0029024992
0002c0 d4 0c 8d 3d 08 0a 42 bf 6c 1e 20 3f 06 3f 9e 3e
       0.068872124 -0.75796556 0.6254642 0.30907458
0002d0 5b 27 08 bf 90 ae 22 bf 51 55 7e 3e 47 29 d6 3e
       -0.5318505 -0.6354761 0.24837233 0.41828367
0002e0 1f a8 6a 3f 3e 63 d5 be 67 b7 ff 3e ee 64 75 3e
       0.9166278 -0.41677278 0.49944612 0.23964283
0002f0 be 2c d1 be 10 15 2f bd bf 8f e8 3e 57 06 c5 3d
       -0.40854448 -0.042744696 0.4542217 0.0962035
000300 ba 2d a3 3e e8 94 99 bc 68 cd 14 bf c9 4e be bf
       0.31870824 -0.018747762 -0.58125925 -1.4867793
000310 93 83 ba 3f ac 95 74 bb 3d c0 da 3d 2d d5 c2 3d
       1.4571403 -0.0037320657 0.10681198 0.09513316
000320 aa 67 2b bd 18 ee a1 3e e6 f0 29 c0 60 47 64 3e
       -0.04184691 0.31626964 -2.6553283 0.22292852
000330 a0 c3 82 3d 87 f3 dd 3e 79 3d 3a 3d b4 4f 16 3e
       0.06384969 0.4334986 0.04546878 0.14678842
000340 d2 35 16 3f 0c 4c 9a be 8b 2a 2c 3f 66 2d e1 3e
       0.58675873 -0.30136144 0.67252415 0.4397995
000350 7a 14 e2 be 07 7a bb be c0 9f b2 3d 4f 3f 5c 3e
       -0.44156247 -0.36616537 0.08721876 0.21508525
000360 48 00 27 be 4c f6 4c bf 0c 66 16 3f 36 b9 8d bf
       -0.16308701 -0.8006332 0.5874946 -1.1072147
000370 55 b2 44 3e 25 37 fb 3e 65 7c d2 3e cc ed 19 bd
       0.19208653 0.4906551 0.4111053 -0.037580296
000380 56 70 83 bf 40 da d0 be 79 b1 f2 be c7 92 ef be
       -1.0268657 -0.40791512 -0.47401026 -0.4679167
000390 be b6 15 3e 53 4b 98 bd ca da 88 3d 25 93 c3 3e
       0.14620492 -0.07436242 0.06682356 0.381982
0003a0 a9 5f 5c 3f 35 2f 17 3e 88 4a 0e 3e e6 f6 03 bf
       0.86083466 0.14764102 0.13895619 -0.5154861
0003b0 36 f7 e4 bd 66 33 84 bf ff 67 b3 be 3b 30 04 be
       -0.11179964 -1.0328186 -0.3504028 -0.12909023
0003c0 b8 b9 6b 3f eb d5 80 3c 56 fe be bd 0d 16 bb be
       0.9208026 0.015727004 -0.093258545 -0.3654026
0003d0 a4 62 a0 be c4 b8 8d bf 4c 37 13 3d 9f 75 a1 be
       -0.31325257 -1.1072011 0.035941407 -0.3153505
0003e0 7e c4 b4 bf 46 19 3b bf c8 2b 44 bf a7 38 1a 3d
       -1.4122465 -0.7308544 -0.76629305 0.037651684
0003f0 f1 f5 8b 3f b6 7b 4b bb c1 c6 f5 bd b0 4b 47 bc
       1.093443 -0.003104908 -0.120008 -0.012164041

fc2.weight f4 [32, 32]
000000 b8 88 12 bf cc 81 6c 3f ce 35 0d 3f 18 0b cd bc
       -0.57239866 0.92385554 0.55160224 -0.025029704
000010 07 19 a0 3e 53 49 0d 3f 54 d8 e7 3e cd d6 7c 3e
       0.31269094 0.5519001 0.45282233 0.24691315
000020 a3 08 65 3f 89 6a 3a 3e 89 c3 66 bd e3 62 e7 3e
       0.89466304 0.18204702 -0.05633882 0.45192632
000030 ec 03 3f 3f 71 15 ba 3e e7 a6 04 bf a6 fb 37 3f
       0.7461536 0.36344483 -0.5181717 0.7186836
000040 f9 e1 93 3e 1c 69 20 3f d4 bf b2 3e 9a 2f 6b 3e
       0.2888334 0.62660384 0.34911978 0.22967377
000050 5a 3d f6 3e e6 c6 93 3d 32 e6 bc 3e 6d 89 02 3f
       0.48093683 0.07215671 0.36894375 0.50990945
000060 c7 75 d5 3d 56 0f d6 3d ed 73 a2 3e 6d 2f 9c 3e
       0.10422855 0.10452144 0.3172907 0.30504933
000070 8a 84 eb 3e 9c af 2c 3f 3f db 21 3f ab d0 c4 3f
       0.45999557 0.6745546 0.6322517 1.537618
000080 92 4e 74 be 4a 06 4d 3f ff 0f 9d 3d d2 ec 7e 3e
       -0.23858097 0.8008772 0.07669067 0.24895027
000090 8d 7c 03 3e 74 91 ad 3e 9e dc 0b 3e a2 5f b4 bd
       0.12840481 0.33900034 0.13658378 -0.08807303
0000a0 c8 e5 e5 3e cf 22 af 3d c6 45 af 3d 6f 43 8b 3c
       0.44901872 0.08551561 0.0855823 0.016999928
0000b0 76 12 71 3d bd 09 0a 3e 7e a9 62 bf 8c da 7a 3f
       0.058855496 0.13480277 -0.88539875 0.97989726
0000c0 fb 0c cc 3e 06 42 52 bc 02 1a f1 3e a0 7b 07 3f
       0.39853653 -0.012833124 0.47090155 0.5292301
0000d0 b9 ac 64 3e 52 54 26 bd a9 dd af 3d 51 fc 57 3e
       0.22331513 -0.040607758 0.085872 0.21092345
0000e0 b6 a8 db 3d b3 ed e6 3c 0b 4b f5 3e fa b3 6c bc
       0.107255384 0.028189516 0.47908816 -0.014447207
0000f0 59 52 4a 3e a6 2b f9 3e 38 5d 37 3f 70 bf 98 3f
       0.19757976 0.48666114 0.71626616 1.1933422
000100 85 c9 f1 be 67 64 7e 3f 6c 96 18 3e 72 7b ef 3d
       -0.4722406 0.9937195 0.14901131 0.11693467
000110 8b d8 92 3e 09 6f eb 3e 1d 44 84 3e 11 7d 10 3d
       0.28680834 0.4598315 0.25833216 0.035275523
000120 ff 91 35 3f e0 e9 2d be 77 37 b8 3d 8e 23 45 3e
       0.709259 -0.16983747 0.08994954 0.19251844
000130 4a e9 b8 3e c1 73 8c 3e 2b ba bf be ed 7f 53 3f
       0.36115485 0.27432063 -0.37446722 0.82617074
000140 f5 56 b7 3e dd a2 c2 3e 59 05 31 3f c8 6c 27 3f
       0.3580853 0.3801488 0.69148785 0.6540036
000150 5d 71 18 3e 21 d9 11 3e 1a 3f de 3e 85 ca d9 3e
       0.14886995 0.14242984 0.43407518 0.42537323
000160 d1 72 01 be d7 44 46 3d 1a ec 07 3f 5e 49 3f 3d
       -0.12641455 0.048405495 0.5309464 0.046700828
000170 8c 30 d4 3d aa d9 23 3f 3c a3 f4 3e a3 f5 a2 3f
       0.10360822 0.64004004 0.47780788 1.2731212
000180 fd ae 03 be b5 82 62 3d 63 75 dc 3e 42 0c db 3e
       -0.12859721 0.055300433 0.4305831 0.4278279
000190 ff c5 29 3e cf 0a fb 3e 54 4e c5 3c ee fc 8c be
       0.16579436 0.49031684 0.024085201 -0.2753672
0001a0 03 04 f4 3e 00 ab f2 3c 6c 61 43 bf d3 15 9a 3e
       0.4765931 0.029622555 -0.7632053 0.30094776
0001b0 01 c7 1f 3f b2 41 f7 3d 09 26 0d bf 6f a6 86 be
       0.6241303 0.12073077 -0.5513616 -0.26298854
0001c0 9a 75 7c 3e 9d 1c f9 3e 86 61 67 bf 07 63 3b 3e
       0.24654236 0.48654643 -0.90383184 0.18299495
0001d0 ef e5 2b be ac ac 25 be 19 37 80 3e d6 cf b7 3e
       -0.16786931 -0.1617915 0.25042036 0.35900754
0001e0 45 36 aa be 4d 1d 9e 3a e0 87 e5 3e 88 0c 05 3e
       -0.3324453 0.0012063176 0.44830227 0.12993062
0001f0 18 c5 42 3e de 8b f9 be de 79 ee bd a8 71 83 3f
       0.19020498 -0.48739523 -0.11644338 1.026906
000200 ec 11 93 be 77 cb 38 3f 8a 04 48 3f 3e 36 ad bd
       -0.2872461 0.7218546 0.78131926 -0.084576115
000210 4c 7c e1 3c 74 fa b4 3e 24 f8 74 3e 49 ba 08 bd
       0.02752509 0.3534733 0.23922783 -0.03338078
000220 bc 26 2e 3f 3e c5 fe 3d de 65 6e be 9d e9 a9 3e
       0.68027854 0.12439965 -0.23281047 0.33186045
000230 60 e3 5e 3f 3e 56 9f 3d 33 ae b6 be de 6c 6e 3f
       0.87065697 0.07780121 -0.35679778 0.9313487
000240 12 78 dd 3e 9e 73 3b 3f eb 99 dc 3d 17 6f 08 3f
       0.4325567 0.7322329 0.10771545 0.5329451
000250 e8 47 21 3e df 65 a8 bd 83 e9 c4 3e e4 f8 8d 3e
       0.15750086 -0.08222555 0.38459405 0.2772895
000260 71 63 57 3e 11 23 c3 3e 85 7a b8 3d 9b be 87 bd
       0.21034028 0.3811269 0.09007744 -0.06628152
000270 37 60 9d 3e 31 de a3 3e cc 8b b8 3e cd 4b b9 3f
       0.3073747 0.32005456 0.36044157 1.4476258
000280 51 ed d0 be 13 fe 60 3e 75 64 95 3e f6 44 04 bf
       -0.40806058 0.21971922 0.29178205 -0.51667726
000290 b0 25 45 bd 0a 5e 9b be 6b 37 b5 3e cd 1d 50 3e
       -0.048131645 -0.30345184 0.35393843 0.20323868
0002a0 27 61 1c 3f 26 d6 e1 3d 76 8e 8b 3e 16 86 8c 3b
       0.6108574 0.11027174 0.27257127 0.004288445
0002b0 d1 50 6b 3d 78 71 7c 3e aa d3 0d 3f fa 86 aa bf
       0.05745012 0.2465266 0.554011 -1.3322442
0002c0 b8 39 ae be b5 43 0e 3e bf 4d 6e 3f 81 b2 3a 3d
       -0.3402841 0.13893016 0.9308738 0.04558039
0002d0 4f 25 fc 3d 12 b5 31 bd 18 3a 95 3c 01 12 b6 3d
       0.123118035 -0.043385573 0.018216178 0.08890153
0002e0 33 ef 55 be a4 96 04 bf 77 0f 64 3d ce e8 95 3e
       -0.20892029 -0.5179236 0.05567881 0.29279178
0002f0 38 91 49 be 52 16 b5 3e 83 50 46 bf e2 e8 18 3f
       -0.19684303 0.35368592 -0.774666 0.5973035
000300 a0 3f 1d bf d9 ab 2d 3f e3 57 ff 3e 0e fc da 3e
       -0.6142521 0.67840344 0.4987174 0.42770427
000310 a3 d1 d7 3e 18 5e fe 3e 5e ed 86 3d 47 a3 ab bd
       0.42152128 0.49681163 0.06588243 -0.08380752
000320 68 5d 04 3f d5 89 cf 3e 56 a2 a9 bd bf 68 f7 3d
       0.51705027 0.40534845 -0.08282916 0.120805256
000330 cc f4 57 3d 31 58 c6 bc 2a f0 d0 be cd d3 f7 3e
       0.05272369 -0.024211975 -0.4080823 0.4840378
000340 5b c5 c2 3e db bf c0 3e 0d ec 07 3f 8d 46 22 bd
       0.38041195 0.37646374 0.5309456 -0.039618064
000350 73 28 bc bd ca 89 22 be e9 f0 e4 3e 4c 93 20 3f
       -0.091874026 -0.15872875 0.4471505 0.6272476
000360 f5 d2 66 be 05 0a 9e bd a0 6c 20 3f a7 61 79 be
       -0.22541411 -0.07716755 0.6266575 -0.24353658
000370 8c 5f 95 3d 3c 90 28 3f ed 8f fa 3e b7 18 8f 3f
       0.07293615 0.65845084 0.48937932 1.1179417
000380 95 69 1a 40 21 05 4e bd 76 a8 dd bf 3a 79 42 3f
       2.4126942 -0.05029786 -1.7317035 0.7596623
000390 e3 4e 98 bf e5 85 fc 3c 39 40 96 bf 9c d1 c5 bf
       -1.1899074 0.030825565 -1.1738349 -1.5454593
0003a0 32 67 66 bf c3 78 64 be 6c 45 42 3f 57 2f 40 bf
       -0.90001214 -0.22311692 0.7588718 -0.75072235
0003b0 af 3d 87 3f db 98 8f bf 07 15 d0 3f 00 64 85 be
       1.0565699 -1.1218523 1.6256417 -0.26052856
0003c0 1c 33 b5 be 56 fd f7 bf cb 1c 75 3e ea 15 8b 3e
       -0.35390556 -1.9374187 0.23936765 0.27165157
0003d0 26 7c d3 bf 8c 64 80 bf 9e b1 ae 3c 43 8a b7 be
       -1.6522262 -1.0030684 0.021324929 -0.35847673
0003e0 6d ab 85 3f 37 c6 ba 3e af 29 30 3c 55 b0 ad bf
       1.044294 0.3647935 0.010752126 -1.3569437
0003f0 14 7b 92 bf 6b 3a 09 3e 67 3f ca bd 70 60 0a bf
       -1.144381 0.13401191 -0.09875374 -0.540534

fc3.weight f4 [4, 32]
000000 7f 32 fb be 7d 88 d7 be a3 a8 cb be 7e d7 5a be
       -0.49061963 -0.4209632 -0.39777097 -0.21371266
000010 bc b0 ab be 96 4a 0c be 31 10 c1 be 5f 1d 03 40
       -0.33533275 -0.13700327 -0.37707666 2.0486677
000020 3a b1 22 40 66 6f 3f 40 41 32 3a be 88 2d 98 be
       2.542067 2.9911742 -0.18183233 -0.29722238
000030 5c 24 dc be 4c c5 c0 3f 4b c6 05 bf 5e ee 04 bf
       -0.4299649 1.506021 -0.52255696 -0.5192622
000040 fd 13 60 40 f6 a3 03 bf f8 01 42 bf a0 bc 04 bf
       3.50122 -0.5142206 -0.75784254 -0.5185032
000050 3a cc 0a bf f3 ae cf 3f cf 2b a9 be c8 9c 16 be
       -0.54217875 1.6225265 -0.33041236 -0.14708245
000060 00 b4 6c be 5f ae a8 be 28 77 a5 bd 64 05 e2 bd
       -0.2311554 -0.32945535 -0.08079368 -0.110361844
000070 36 bc 16 bf a0 e2 57 be 6e 14 22 40 17 7f d9 be
       -0.5888094 -0.21082544 2.532497 -0.42479774
000080 fe 6f d9 be e0 fe 05 bf 88 52 98 be 4a d5 cc bd
       -0.42468256 -0.52342033 -0.29750466 -0.10001619
000090 af b7 33 bf c5 fa 7c bf 6a ce 8b bd 49 4d 2b 40
       -0.70202154 -0.98820144 -0.0682648 2.676592
0000a0 ea df 03 40 86 11 22 40 55 77 c4 be f5 74 15 bf
       2.0605416 2.5323195 -0.38372293 -0.5838159
0000b0 56 89 11 bf 36 21 f5 3f b0 1e ab be 38 4d 0a bf
       -0.56850183 1.915076 -0.3342185 -0.54024076
0000c0 e1 73 6a 40 08 29 2f bf 31 b8 d9 be 32 83 16 bf
       3.6633227 -0.68421984 -0.4252334 -0.5879394
0000d0 76 28 5b be 95 ae e3 3f 4d ce 1a bf da 8b d9 be
       -0.21402153 1.7787653 -0.6047104 -0.4248951
0000e0 93 cd 66 bd bf 45 f7 be ee e3 70 bd 3d 59 06 3d
       -0.056348395 -0.482954 -0.05881112 0.032799948
0000f0 24 3a 20 bf ce d9 74 be ec 6d 2a 40 4f 4c 81 bc
       -0.62588716 -0.23911211 2.662959 -0.015783457
000100 6f bc 13 bf 2a 83 ee be c8 9c 9c be 70 8f 6a bf
       -0.577094 -0.46584445 -0.30588365 -0.9162512
000110 70 be 03 bf d3 51 51 3d b6 ae 2f bf 12 2a 08 40
       -0.5146246 0.051103424 -0.6862596 2.1275678
000120 ce 7d 35 40 93 15 2d 40 9f cb 01 bf ff f1 97 be
       2.8358035 2.7044418 -0.50701326 -0.29676816
000130 31 dd 12 bf cd e7 85 be 49 51 8c be e3 63 c9 be
       -0.5736876 -0.26153412 -0.27405766 -0.3933402
000140 50 9f e0 3f 28 31 8e be 44 ed 8a bf a3 a6 7c be
       1.7548618 -0.27771878 -1.0853658 -0.24672942
000150 f6 17 bd bc 56 09 0d 40 d3 86 e6 be b1 c9 06 bf
       -0.023082715 2.2036948 -0.45024738 -0.52651507
000160 c3 fd 3d bf 83 18 8e be ca 37 38 40 0d f1 c6 3d
       -0.74215335 -0.27753076 2.878405 0.097139455
000170 b3 9b 2a bf 60 80 2a bf 7c cb 60 3f 44 e7 48 be
       -0.6664383 -0.66602135 0.8781049 -0.19619471
000180 c3 65 bd be 40 49 f8 be d6 70 08 bf d4 85 5d be
       -0.369917 -0.48493385 -0.53297174 -0.21633083
000190 58 71 f1 bd ea 43 61 bf 25 7f 05 bf a3 d2 65 3f
       -0.11789197 -0.87994254 -0.5214713 0.8977453
0001a0 7c 81 1f 40 31 79 63 40 08 6a d3 be 4a f9 09 bf
       2.492278 3.554272 -0.41291833 -0.5389601
0001b0 fb f2 02 bf ad 19 dc 3f c0 fd e2 be ef 07 9a bd
       -0.5115201 1.7195336 -0.4433422 -0.075210445
0001c0 b9 99 57 40 49 05 13 be 8a 7e 6e bf 9d 74 f3 be
       3.3687575 -0.14357485 -0.93161833 -0.47549906
0001d0 47 87 e4 be fc b3 d7 3f d5 8e a9 be fc 1e b2 be
       -0.44634458 1.6851802 -0.33116785 -0.34789264
0001e0 7c fd f2 be 55 4a 14 bf fb e0 39 3e 80 55 88 3d
       -0.47459018 -0.5792592 0.1815223 0.06656933
0001f0 b5 02 b6 be 04 1c 3a be 47 8c 4c 40 a2 41 24 bf
       -0.3554894 -0.1817475 3.1960618 -0.6416265
