dqn/exercise/models/checkpoint463_20.627103960409205.pth (torch, 7111 bytes, 3 tensors)

fc1.weight f4 [32, 8]
0.13358785 -0.0036367576 -0.302735 0.079848625 2.7528403 -0.46600005 0.33586448 0.43636772
-0.03821127 0.34484813 -0.034771994 -0.49764305 -0.73594964 -1.373059 -0.21923287 -0.34065834
0.3498255 0.4308316 -0.0811304 -0.45701727 0.9039877 0.88544476 0.00665489 0.27461737
0.27631968 -0.012964835 1.6468803 0.43163356 -1.0847671 -0.57936347 -0.19241427 0.08908275
-0.47619912 -1.2588365 -0.16755158 -0.9211071 -0.12728663 0.25168478 0.34270048 0.3020598
0.50680494 -1.0727093 0.4788068 -0.24142493 -0.80310553 -0.63020676 0.28587088 0.29721317
-0.0910185 -0.9616324 -0.021027481 -0.6162398 0.5640442 0.31082126 0.4722196 -0.27058566
0.48280457 -1.4865882 -0.03667207 -0.9883341 0.2563837 0.28222618 0.08844825 0.034440864
0.657036 0.12507197 0.255997 -0.121812746 0.67622596 1.1236068 0.08131831 0.13972282
0.32677978 0.87162155 0.2205525 1.6050097 0.1736026 -0.5265016 0.14472759 -0.67621404
-0.047201835 0.51625127 0.64240193 -2.0495563 -0.6153428 -0.51214767 0.36564735 -0.1246461
0.67638916 -0.8263053 0.97416794 -0.18920928 0.5634553 0.5159693 -0.15403338 0.094368644
-0.1361966 -0.34201634 -0.21455608 -0.0097938 0.93035305 0.9993693 -0.27079096 -0.4076368
-0.6288383 -0.88067013 -0.09333281 -0.92838204 0.1636133 0.16785444 0.0063379426 0.29373044
-0.078338444 0.91759825 0.6595249 -1.0966879 -0.47240478 0.55573934 -0.6796353 0.2776991
-0.2795624 -0.56961054 -0.28913862 0.0824651 -0.68715554 -1.2302656 -0.13812166 -0.26235813
0.46068528 -0.76062626 0.22827917 -0.16468756 -0.6096669 -0.6054483 0.3636313 0.2093801
-0.5344703 0.15906563 0.40896115 0.031122282 0.5044718 1.2410455 0.25657055 -0.57159305
-0.48439857 0.08436145 0.036448844 -0.06063903 -0.33770302 -1.135459 -0.41362235 0.15134811
-0.23993275 -0.7898482 0.023391781 -0.99538606 -0.34561557 -0.7120594 0.01798847 -0.18909219
-0.060790885 -0.84331554 -0.2580698 -0.8723814 0.39739096 0.44032136 -0.044376716 0.16040064
0.25623193 -0.96137726 0.5222923 -0.83780235 0.736393 0.27140674 -0.27536306 0.0058262376
0.15495832 -0.9679848 0.5749767 -0.18288964 -0.5592187 -0.5677696 0.25622645 0.40915006
0.8063779 -0.5620765 0.29347643 -0.16973178 -0.56088847 -0.10653708 0.4588324 0.14171979
0.33246967 -0.06536149 -0.6482242 -1.5150807 1.4437463 -0.026476251 0.08275506 0.014834074
0.0016677313 0.3308165 -2.317021 -0.07323638 0.31761256 0.56371284 -0.006630266 0.13739169
0.51839894 -0.33602756 0.5511797 0.09886052 -0.5441761 -0.49890155 0.0708717 0.2270227
-0.07761639 -1.0246967 0.32881814 -1.1316943 0.24177048 0.32471135 0.359093 -0.0337017
-0.9791139 -0.5766949 -0.39943227 -0.6627573 0.07301031 0.0020068628 0.07514076 0.4003684
0.82961684 0.16767746 0.0786081 -0.36555213 -0.32243538 -1.0816194 -0.3303335 -0.12406652
0.86776274 0.011540934 -0.13419777 -0.35682127 -0.43848512 -1.1344757 0.028703213 -0.35314405
-1.2802893 -0.75891644 -0.71117043 0.10563189 1.1354742 0.19619597 -0.26678118 -0.11018544
00000000: 41cb 083e ab56 6ebb 1500 9bbe ad87 a33d
00000010: 892e 3040 8f97 eebe 6ef6 ab3e 976b df3e
00000020: 6c83 1cbd ef8f b03e 146d 0ebd 12cb febe
00000030: 3267 3cbf 66c0 afbf 957e 60be c56a aebe
00000040: 541c b33e f695 dc3e b227 a6bd 2bfe e9be
00000050: bd6b 673f 82ac 623f 4311 da3b a69a 8c3e
00000060: c679 8d3e 766a 54bc f9cc d23f 13ff dc3e
00000070: a6d9 8abf 2a51 14bf 3f08 45be 0471 b63d
00000080: 5fd0 f3be 8e21 a1bf a492 2bbe adcd 6bbf
00000090: 6d57 02be d4dc 803e 7076 af3e 95a7 9a3e
000000a0: f8bd 013f 8a4e 89bf 2a26 f53e 1938 77be
000000b0: 5398 4dbf 3b55 21bf ab5d 923e 532c 983e
000000c0: e867 babd 8a2d 76bf d341 acbc e4c1 1dbf
000000d0: 3365 103f f723 9f3e c4c6 f13e 348a 8abe
000000e0: 2932 f73e 8648 bebf 7435 16bd 7703 7dbf
000000f0: b944 833e f37f 903e 5b24 b53d dd11 0d3d
00000100: 8333 283f de12 003e 0a12 833e f678 f9bd
00000110: 251d 2d3f 59d2 8f3f 378a a63d 8013 0f3e
00000120: ae4f a73e 9722 5f3f 84d8 613e f570 cd3f
00000130: e1c4 313e cfc8 06bf 7833 143e 5d1c 2dbf
00000140: b656 41bd 0b29 043f 7474 243f ee2b 03c0
00000150: 1b87 1dbf 1c1c 03bf 2136 bb3e 7446 ffbd
00000160: d727 2d3f bf88 53bf 1263 793f 14c0 41be
00000170: 9b3e 103f 9016 043f edba 1dbe 5944 c13d
00000180: 1f77 0bbe c41c afbe 97b4 5bbe 2d76 20bc
00000190: 9e2b 6e3f abd6 7f3f 1da5 8abe c5b5 d0be
000001a0: 8cfb 20bf 9973 61bf 4625 bfbd 72aa 6dbf
000001b0: 3f8a 273e 09e2 2b3e 84ae cf3b d663 963e
000001c0: e86f a0bd b8e7 6a3f a0d6 283f 4560 8cbf
000001d0: 0adf f1be ef44 0e3f 94fc 2dbf 942e 8e3e
000001e0: ce22 8fbe ffd1 11bf fa09 94be 76e3 a83d
000001f0: 6de9 2fbf 5879 9dbf c46f 0dbe ce53 86be
00000200: f1de eb3e 67b8 42bf 04c2 693e dba3 28be
00000210: 2113 1cbf a9fe 1abf e22d ba3e bd67 563e
00000220: 0cd3 08bf 1ae2 223e 5b63 d13e 28f4 fe3c
00000230: 1025 013f 94da 9e3f 375d 833e ec53 12bf
00000240: 1703 f8be b2c5 ac3d 624b 153d a260 78bd
00000250: 69e7 acbe b856 91bf 4fc6 d3be 00fb 1a3e
00000260: eeb0 75be 7e33 4abf 1fa0 bf3c 9fd1 7ebf
00000270: 86f4 b0be 8649 36bf 8e5c 933c 62a1 41be
00000280: ddff 78bd 87e3 57bf ba21 84be 6354 5fbf
00000290: d476 cb3e cd71 e13e 5cc4 35bd 1140 243e
000002a0: d530 833e d21c 76bf f3b4 053f 377a 56bf
000002b0: 4084 3c3f d3f5 8a3e 63fc 8cbe 06ea be3b
000002c0: 65ad 1e3e dacd 77bf ac31 133f 6c47 3bbe
000002d0: f528 0fbf 5959 11bf 1d30 833e 1e7c d13e
000002e0: c86e 4e3f 3fe4 0fbf 8b42 963e 2bce 2dbe
000002f0: 6396 0fbf 1d30 dabd 15ec ea3e fe1e 113e
00000300: 7739 aa3e 3fdc 85bd 05f2 25bf 2aee c1bf
00000310: aecc b83f b9e4 d8bc 7c7b a93d 9e0a 733c
00000320: c797 da3a c860 a93e 124a 14c0 f5fc 95bd
00000330: 1d9e a23e 7c4f 103f b442 d9bb 68b0 0c3e
00000340: cbb5 043f ce0b acbe 1d1a 0d3f 6277 ca3d
00000350: 204f 0bbf 0670 ffbe 2f25 913d a378 683e
00000360: 58f5 9ebd 4329 83bf da5a a83e 5cdb 90bf
00000370: ae92 773e 9140 a63e 0adb b73e cb0a 0abd
00000380: 35a7 7abf 47a2 13bf 6382 ccbe 76aa 29bf
00000390: 6e86 953d 9285 033b 66e3 993d 16fd cc3e
000003a0: c561 543f a4b3 2b3e 49fd a03d a629 bbbe
000003b0: 4016 a5be 8172 8abf 7921 a9be 9616 febd
000003c0: b325 5e3f 3016 3d3c 246b 09be 47b1 b6be
000003d0: 1f81 e0be 8036 91bf 0023 eb3c 4ccf b4be
000003e0: 85e0 a3bf 5948 42bf 440f 36bf 8855 d83d
000003f0: 3857 913f 99e7 483e 8b97 88be e7a8 e1bd

fc2.weight f4 [32, 32]
-0.48647872 0.893411 0.55096424 0.16190085 0.3937615 0.6018926 0.53922015 0.5182628
0.9624108 0.19441904 0.011945352 0.5597212 0.89771885 0.5042139 -0.5332959 0.7231632
0.3299586 0.79132205 0.4366672 0.3315379 0.74960375 0.38725883 0.41437182 0.5451502
0.18319361 0.21799643 0.35979226 0.45118853 0.5195376 0.67417854 0.61858517 1.4518205
-0.20651022 0.82522464 0.05925125 0.3589952 0.19800481 0.39151645 0.20256561 0.14573663
0.49784812 0.022164963 0.22623187 0.13074234 0.22296065 0.24286312 -0.8362557 0.99927354
0.44236892 0.22588062 0.607829 0.5736979 0.44475457 0.2534529 0.13001536 0.25520632
0.14092734 0.043014847 0.524723 0.107200906 0.24267676 0.48348117 0.727602 1.1524479
-0.39161804 0.9381235 0.13262549 0.25335371 0.37706566 0.5193128 0.35656044 0.2458391
0.7707186 -0.187625 0.14160883 0.29128954 0.5547495 0.3920993 -0.4471241 0.85761744
0.4135452 0.48888516 0.77169585 0.6641853 0.34860137 0.39006653 0.48819405 0.4761033
-0.073047504 0.10437212 0.56872034 0.17549416 0.16821519 0.61851084 0.47803918 1.2538596
-0.16129784 0.10604987 0.4473651 0.4470196 0.21281388 0.4429758 0.075239845 -0.023196671
0.4411098 -0.5656648 -0.58587366 0.3104517 0.73363394 0.30980664 -0.31272256 -0.26330444
0.18507376 0.7374307 -0.6990939 0.26782638 0.13341063 0.071499355 0.21575405 0.25881106
-0.11760979 0.118592314 0.37287873 0.2858777 0.28551087 -0.49023905 -0.22960162 1.07664
-0.28298378 0.72021526 0.7761909 0.10263051 0.064487696 0.3962712 0.24741685 0.19929084
0.75083333 0.1223359 -0.15407313 0.48446253 0.95570135 0.16477534 -0.3336674 0.93172073
0.46074262 0.9414719 0.18766975 0.6276278 0.40700227 0.26268512 0.41791335 0.31149638
0.24819294 0.53981465 0.14715093 0.045411613 0.31190127 0.31957394 0.38530055 1.3070658
-0.35226002 0.26994753 0.17249277 -0.40198496 -0.14020744 -0.30067688 0.31804287 0.24518956
0.56893706 0.019462569 0.19019322 0.23799235 0.19505991 0.058864944 0.42968678 -1.0074972
-0.32720876 0.23996742 0.9602578 -0.22252767 0.10346194 0.14902993 -0.037397753 0.08330473
-0.17657404 -0.4429834 0.009677163 0.23022199 -0.35161725 0.43933567 -0.53932 0.6385953
-0.49212676 0.6420586 0.47981894 0.5905749 0.5046446 0.5152309 0.1715344 0.22917387
0.5548132 0.4145766 -0.032858044 0.15593982 0.23930357 0.1435688 -0.44890398 0.49163565
0.39578682 0.50903225 0.6303144 0.10703836 0.19570436 0.13068314 0.45827946 0.6243841
-0.10928012 0.010376561 0.61610085 -0.0808919 0.14163445 0.6881168 0.4480119 1.1146468
2.2349248 -0.03355659 -1.6226301 0.47830096 -1.2103114 -0.004501985 -0.7890908 -1.4372071
-0.88851404 -0.2988296 0.83295584 -0.85976744 0.8447128 -1.2515653 1.6359429 -0.27081877
-0.3496663 -2.005374 0.18104613 0.21661192 -1.7012765 -1.1752464 -0.0103861345 -0.23877253
1.1762108 0.1675883 -0.035553414 -1.082452 -1.1994565 0.10124852 -0.16986424 -0.4344805
00000000: bd13 f9be 95b6 643f fe0b 0d3f 56c9 253e
00000010: 1b9b c93e a215 1a3f 550a 0a3f dfac 043f
00000020: 8e60 763f c915 473e 70b6 433c e349 0f3f
00000030: e7d0 653f 2a14 013f 1586 08bf 3921 393f
00000040: 55f0 a83e 1594 4a3f d892 df3e 56bf a93e
00000050: 08e6 3f3f ca46 c63e 8b28 d43e f78e 0b3f
00000060: 1b97 3b3e 753a 5f3e b136 b83e 2f02 e73e
00000070: 6b00 053f f796 2c3f 995b 1e3f 41d5 b93f
00000080: 6a77 53be ec41 533f 70b1 723d 38ce b73e
00000090: c6c1 4a3e d874 c83e 5c6d 4f3e fc3b 153e
000000a0: f3e5 fe3e 4c93 b53c 54a9 673e 52e1 053e
000000b0: cc4f 643e 1cb1 783e db14 56bf 64d0 7f3f
000000c0: 2e7e e23e 404d 673e ae9a 1b3f dedd 123f
000000d0: dfb6 e33e 94c4 813e bf22 053e 67aa 823e
000000e0: 424f 103e 5630 303d 3f54 063f 268c db3d
000000f0: 4280 783e d88a f73e 2044 3a3f 6a83 933f
00000100: 2982 c8be dd28 703f face 073e 94b7 813e
00000110: c00e c13e aff1 043f 178f b63e 3fbd 7b3e
00000120: d04d 453f c520 40be e801 113e e723 953e
00000130: 1004 0e3f 3dc1 c83e 73ed e4be d18c 5b3f
00000140: 32bc d33e 284f fa3e dc8d 453f 0c08 2a3f
00000150: e17b b23e cdb6 c73e 92f4 f93e d0c3 f33e
00000160: ee99 95bd 0dc1 d53d a897 113f beb4 333e
00000170: 9a40 2c3e ba56 1e3f 8dc1 f43e 797e a03f
00000180: 432b 25be ad30 d93d 0a0d e53e c1df e43e
00000190: e2eb 593e b9cd e23e 5917 9a3d f206 bebc
000001a0: 25d9 e13e 69cf 10bf d1fb 15bf 86f3 9e3e
000001b0: 6fcf 3b3f fa9e 9e3e 2c1d a0be d7cf 86be
000001c0: fa83 3d3e 42c8 3c3f d1f7 32bf 8a20 893e
000001d0: cc9c 083e 416e 923d a1ee 5c3e e282 843e
000001e0: 67dd f0bd 87e0 f23d f6e9 be3e 905e 923e
000001f0: 7b2e 923e 9d00 fbbe b01c 6bbe 57cf 893f
00000200: 40e3 90be 0760 383f 72b4 463f f22f d23d
00000210: 2012 843d 0fe4 ca3e d85a 7d3e e612 4c3e
00000220: 9d36 403f 3f8b fa3d 59c5 1dbe 790b f83e
00000230: d8a8 743f deba 283e 74d6 aabe 4085 6e3f
00000240: 75e6 eb3e 4d04 713f 802c 403e 37ac 203f
00000250: 9a62 d03e aa7e 863e bdf8 d53e 747c 9f3e
00000260: 4a26 7e3e 4b31 0a3f bcae 163e 8701 3a3d
00000270: 86b1 9f3e 329f a33e 1d46 c53e ef4d a73f
00000280: 6d5b b4be 9036 8a3e f2a1 303e f9d0 cdbe
00000290: 8a92 0fbe 52f2 99be 84d6 a23e f912 7b3e
000002a0: dca5 113f f76f 9f3c 03c2 423e 44b4 733e
000002b0: c9bd 473e 5e1c 713d e8ff db3e abf5 80bf
000002c0: e887 a7be 05ba 753e 75d3 753f 4bde 63be
000002d0: dbe3 d33d 4d9b 183e 632e 19bd ac9b aa3d
000002e0: d3cf 34be b8ce e2be f78c 1e3c 50bf 6b3e
000002f0: 2d07 b4be 9bf0 e03e e010 0abf fb7a 233f
00000300: 0af8 fbbe f45d 243f d4aa f53e eb2f 173f
00000310: 6330 013f 2ce6 033f b7a6 2f3e 8eac 6a3e
00000320: 3d08 0e3f 6243 d43e 2896 06bd b0ae 1f3e
00000330: ff0b 753e b303 133e bed6 e5be abb7 fb3e
00000340: 92a4 ca3e f04f 023f 495c 213f ed36 db3d
00000350: b966 483e cdd1 053e 9ba3 ea3e a3d7 1f3f
00000360: 41ce dfbd 7402 2a3c c9b8 1d3f a7aa a5bd
00000370: 9f08 113e 6c28 303f d161 e53e bfac 8e3f
00000380: 0209 0f40 a372 09bd 58b2 cfbf dde3 f43e
00000390: 7ceb 9abf 6385 93bb db01 4abf 67f6 b7bf
000003a0: a875 63bf 3100 99be 983c 553f b819 5cbf
000003b0: 193f 583f 4b33 a0bf 9466 d13f c2a8 8abe
000003c0: 7607 b3be 0c58 00c0 2864 393e 84cf 5d3e
000003d0: 6ec3 d9bf 796e 96bf 9b2a 2abc c980 74be
000003e0: 138e 963f 449c 2b3e 75a0 11bd ca8d 8abf
000003f0: ca87 99bf 625b cf3d e4f0 2dbe 3a74 debe

fc3.weight f4 [4, 32]
-0.5417757 -0.44537798 -0.43450806 -0.2928992 -0.3679451 0.047040977 -0.41287175 1.9146142
2.4775038 2.8269334 -0.23598835 -0.33939588 -0.47501442 1.2034645 -0.57187784 -0.5538819
3.3443568 -0.5361578 -0.5276269 -0.5722642 -0.5152142 1.6367774 -0.36647922 -0.23064426
-0.26804608 -0.38422352 -0.09373345 -0.110361844 -0.62799627 -0.2648548 2.3335543 -0.45546487
-0.4540695 -0.5554555 -0.33351517 -0.13416989 -0.74052143 -0.69757175 -0.11785673 2.7662344
2.068569 2.3023777 -0.41904312 -0.61103064 -0.60234404 1.722576 -0.3563943 -0.5697069
3.4163315 -0.70721185 -0.4557458 -0.5923464 -0.2749849 1.8134183 -0.6314745 -0.41114748
-0.110162325 -0.49535823 -0.06738419 0.032799948 -0.6648504 -0.28760234 2.3700612 -0.06291938
-0.5820103 -0.4652805 -0.30820388 -0.7521439 -0.52137417 -0.03438599 -0.6319071 1.9505806
2.7603374 2.782203 -0.5106862 -0.30220738 -0.587654 -0.800003 -0.29556084 -0.4207149
1.7639976 -0.30342945 -0.92536515 -0.2823046 -0.063753285 2.0730805 -0.45623866 -0.5080031
-0.69730717 -0.28250748 2.737606 0.097139455 -0.66692764 -0.6233608 0.69659656 -0.20843907
-0.4214799 -0.54642344 -0.57575285 -0.25670978 -0.17234206 -0.86829805 -0.564278 0.67798346
2.4214559 3.278928 -0.45453793 -0.58016723 -0.55576724 1.420466 -0.48112705 -0.13898033
3.2834494 -0.19875407 -0.8471914 -0.5169771 -0.49216318 1.6546377 -0.38604203 -0.39211679
-0.52584976 -0.61727077 0.2239136 0.06656933 -0.4033679 -0.24598354 3.0895529 -0.66560924
00000000: d0b1 0abf 9508 e4be d777 debe e2f6 95be
00000010: 4d63 bcbe 0aae 403d ed63 d3be 1412 f53f
00000020: 6c8f 1e40 7aec 3440 eea6 71be 4cc5 adbe
00000030: 1735 f3be 200b 9a3f 9666 12bf 34cb 0dbf
00000040: f109 5640 a341 09bf 8e12 07bf e87f 12bf
00000050: 14e5 03bf ec81 d13f 2aa3 bbbe 022e 6cbe
00000060: 563d 89be f2b8 c4be 53f7 bfbd 6405 e2bd
00000070: 5dc4 20bf 0c9b 87be f458 1540 b132 e9be
00000080: cc7b e8be 5532 0ebf 80c2 aabe d563 09be
00000090: d092 3dbf 1094 32bf df5e f1bd fc09 3140
000000a0: 6f63 0440 285a 1340 d28c d6be 816c 1cbf
000000b0: 3833 1abf 5f7d dc3f 5079 b6be 50d8 11bf
000000c0: 2da5 5a40 d60b 35bf 8357 e9be 03a4 17bf
000000d0: d2ca 8cbe 171e e83f 50a8 21bf ec81 d2be
000000e0: c99c e1bd 989f fdbe b900 8abd 3d59 063d
000000f0: a333 2abf 9d40 93be 15af 1740 e0db 80bd
00000100: a1fe 14bf 3f39 eebe e6cc 9dbe 818c 40bf
00000110: c778 05bf 53d8 0cbd aac4 21bf a0ac f93f
00000120: 5ea9 3040 9d0f 3240 55bc 02bf edba 9abe
00000130: 7e70 16bf ffcc 4cbf c053 97be f267 d7be
00000140: acca e13f 1b5b 9bbe bbe4 6cbf 3b8a 90be
00000150: 1591 82bd 5aad 0440 1d98 e9be 7e0c 02bf
00000160: b982 32bf d2a4 90be f034 2f40 0df1 c63d
00000170: c5bb 2abf 9394 1fbf 2754 323f 0d71 55be
00000180: 37cc d7be 68e2 0bbf 8a64 13bf 776f 83be
00000190: 707a 30be c848 5ebf 8674 10bf 5390 2d3f
000001a0: 22f9 1a40 f5d9 5140 32b9 e8be d785 14bf
000001b0: c346 0ebf d4d1 b53f 4956 f6be dc50 0ebe
000001c0: 0924 5240 3086 4bbe 89e1 58bf 9c58 04bf
000001d0: d0fc fbbe 2bcb d33f 4da7 c5be 88c3 c8be
000001e0: 179e 06bf 7505 1ebf 9b49 653e 8055 883d
000001f0: 3d86 cebe 1ce3 7bbe 3cbb 4540 5e65 2abf
