dqn/exercise/models/checkpoint413_-26.32912562057095.pth (torch, 7111 bytes, 3 tensors)

fc1.weight f4 [32, 8]
00000000: fe38 9c3e 9607 45b8 ce75 27bf 8ca9 883d
00000010: 104c 1c40 1c53 e5be cad1 cb3e d9b9 f63e
00000020: 0022 2abd 583e 8d3e f4f0 c7bd 3d07 50be
00000030: 0d15 4bbf 68e9 a1bf 201f 9fbe 71c2 98be
00000040: 849a 5a3e 6269 913e 5227 3dbe dcd9 03bf
00000050: cd5c 3e3f 92ce 813f af1c 15bd ec52 8e3e
00000060: 486c 233f 1051 563c 714f a13f 3852 863e
00000070: 7aaf 84bf 2f69 18bf bb17 3ebe 79f8 3c3e
00000080: 20a8 d7be 4bf9 b0bf d75f 7ebe d07c 89bf
00000090: 6b68 1fbe 5bbb 503e b35a 943e dee0 973e
000000a0: 7933 323f 2491 8bbf a943 e13e d38e d9be
000000b0: 1e83 48bf 2a2a 28bf 2f03 8a3e cce0 a63e
000000c0: a9d9 e4bb 2b97 7dbf cc76 7dbd 74dc 3bbf
000000d0: 11d3 013f 4add 9a3e fd3a e73e 3d26 9dbe
000000e0: a4ec 053f 06b7 dcbf eef9 a43b 1476 8cbf
000000f0: 49ce 1f3e 0093 4c3e 8608 853d b61d b53d
00000100: a2e0 283f 4416 903d 23f1 203e 6e5d 5bbe
00000110: 9471 333f 8546 983f 1a86 753d 7b88 18bd
00000120: c079 a93e 426b 593f c1a3 663e d2aa ac3f
00000130: 831f 923c 758c 12bf 5c6b d13d 5169 27bf
00000140: 415d 7abd 5346 063f 56b9 2a3f 31a3 f6bf
00000150: b222 14bf 1587 12bf c508 e33e 73a8 48bd
00000160: 0fbc 5c3f 2a6b 4fbf fff3 793f 27b2 24be
00000170: 8ba3 c63e 14b4 b03e fc70 b0bd 1eaa 9e3d
00000180: 8f52 3fbd 41f9 8cbe b66d b0be 50ee 4cbe
00000190: 2c72 5a3f b304 813f ad45 ec3c e819 98be
000001a0: 36b2 08bf 7682 7fbf 47ae 63be 57b8 89bf
000001b0: 5cb6 333e c8ff 073e 4266 8cbc d252 903e
000001c0: ecdf c9bd 76d6 643f 67b6 323f a48a 97bf
000001d0: cc4f 9fbe a111 053f 49a7 18bf 6ede 3e3e
000001e0: 27f8 3bbe 96e2 a5be 4cec 60be df1e 483e
000001f0: 8235 2dbf cf3f 96bf 3490 68be 1221 57be
00000200: 68e9 113f 7188 47bf 0dd4 783e e5b4 8cbe
00000210: 71fa 1fbf e006 1bbf 36ed ba3e 7ec2 7a3e
00000220: da7a e4be f0f5 e93d f315 893e 390c fe3c
00000230: 0660 2c3f 5938 ad3f c595 8c3e ef53 0dbf
00000240: a2c4 d4be 2391 873d ba0e 8a3c f7fd d5bc
00000250: b0bf cfbe cfb0 99bf e96c ddbe 1d01 523e
00000260: 4d9a 29be b775 60bf 828e 8f3d 5226 72bf
00000270: ecee 6dbe 4654 1fbf 1150 ce3c e7da d6bd
00000280: 0118 1f3d cdf9 88bf 27c6 adbe 4a92 87bf
00000290: 77fa 9c3e 052c a13e 58d6 c1bc 019b 3a3e
000002a0: 4cc5 983e 0bab 89bf 3b85 c63e 35e6 5fbf
000002b0: 8ea4 253f 72c0 343e 1626 20be a4b4 f23d
000002c0: dd09 b53e cf37 80bf 2ec0 073f d1fe b2be
000002d0: 2100 02bf 9c08 12bf 5929 823e ec35 d73e
000002e0: 7de9 683f 4526 3dbf 9fd6 213e 91b2 73be
000002f0: f9c4 0cbf 32fc ffbd 0bae dd3e 35e1 6a3e
00000300: fd3e b53e 9da5 e1bd 6f53 4cbf 58eb cabf
00000310: 09f8 a13f 3c58 59bd e932 e13d f910 163e
00000320: 0444 c83d 4002 943e b4a7 00c0 d6c3 56be
00000330: fc7f ba3e 5d68 e73e 6017 64bd 9aeb 5f3e
00000340: e38f 233f b5bc a4be af2d d93e c4f3 5a3d
00000350: a25c 0fbf 62bc 1cbf 17b5 0c3d 8562 7b3e
00000360: 8fc2 58bb 2863 a1bf 4f7a 5b3e 85a4 99bf
00000370: 7888 573e fc61 803e 03db 9e3e 442b a5bc
00000380: 2542 5bbf fe6d 51bf e332 ddbe f315 40bf
00000390: 0afb 283d 4e18 b83c 8c43 a33d 0542 cb3e
000003a0: 8180 413f 83d1 0c3e 8b30 aa3d fc11 5abe
000003b0: 08ac 08bf a9e2 8bbf 38dd 6ebe 1b7e 063d
000003c0: db8d 483f c547 1d3d 4340 ffbd 9fe3 6abe
000003d0: 54f0 17bf 03d4 8abf 4418 683d 69d1 57be
000003e0: cd5e 9cbf af58 51bf ab3c 43bf 318e 123d
000003f0: 845d 813f ac56 343e 5941 44be dc4b 72be
0.30512232 -4.6975525e-05 -0.6541413 0.066729635 2.4421425 -0.4478997 0.39808494 0.48188666
-0.04153633 0.27586627 -0.09762755 -0.20315261 -0.79328996 -1.2649355 -0.31078434 -0.29835847
0.21348006 0.28400713 -0.18472031 -0.515043 0.7436035 1.0141165 -0.036404308 0.2779764
0.638371 0.01308085 1.2602369 0.26234603 -1.0366051 -0.595355 -0.1856374 0.1845416
-0.42120457 -1.3826078 -0.24841247 -1.0741215 -0.15567176 0.2038397 0.28975448 0.29663748
0.6960979 -1.0903668 0.43996933 -0.4249178 -0.7832507 -0.6568934 0.26955554 0.3259338
-0.006983955 -0.9905879 -0.06188087 -0.7338326 0.50712687 0.30246955 0.45162192 -0.30693236
0.5231421 -1.7243354 0.0050346768 -1.0973535 0.15606035 0.19977951 0.06495766 0.088435575
0.6596776 0.07035497 0.15716986 -0.2142236 0.7009518 1.1896521 0.059942342 -0.037239533
0.331007 0.8492929 0.22523405 1.348963 0.017837292 -0.5724557 0.10225555 -0.65395075
-0.06112409 0.52451056 0.6668905 -1.9268552 -0.5786544 -0.5723737 0.44342628 -0.04898877
0.86224455 -0.81022894 0.97637933 -0.16083585 0.38796648 0.3451239 -0.086153 0.07747291
-0.046709593 -0.27533916 -0.34458703 -0.20012784 0.8533046 1.0079559 0.028841818 -0.29707265
-0.5339693 -0.9980844 -0.2223445 -1.0759381 0.17550033 0.13281167 -0.017138604 0.28188187
-0.09857163 0.8938974 0.69809574 -1.1839185 -0.31115568 0.51980025 -0.59630257 0.18639538
-0.18356381 -0.32399434 -0.2196514 0.19543026 -0.6765977 -1.1738223 -0.22711259 -0.21008709
0.56996775 -0.7794257 0.24299641 -0.27481762 -0.6249152 -0.60557365 0.36509103 0.24488255
-0.44624978 0.11423862 0.26774558 0.031011688 0.6733402 1.3532821 0.27458015 -0.552062
-0.4155627 0.066194795 0.016852725 -0.026122076 -0.40575933 -1.2007083 -0.43247154 0.20508237
-0.16562767 -0.8767962 0.07009603 -0.9458972 -0.23235673 -0.62237966 0.025184663 -0.10490971
0.03884125 -1.0701233 -0.3394024 -1.0591519 0.3065984 0.31478897 -0.023661777 0.18223192
0.29838026 -1.0755323 0.38773522 -0.87460643 0.64704216 0.17651537 -0.15639529 0.11850861
0.35359088 -1.0017031 0.5302762 -0.34960034 -0.50781447 -0.57044387 0.2542217 0.42033327
0.90981275 -0.7388652 0.15804528 -0.23798586 -0.54988056 -0.12499274 0.43296847 0.22937472
0.3539962 -0.11017916 -0.7981481 -1.5853071 1.2653819 -0.053062662 0.109960385 0.14654912
0.09778598 0.28907967 -2.0102358 -0.20973143 0.3642577 0.4519681 -0.055686355 0.21867219
0.6389143 -0.32175222 0.42417666 0.05345513 -0.5600072 -0.6122495 0.03435239 0.24549301
-0.003307495 -1.2608385 0.21433376 -1.2003332 0.21048152 0.25074756 0.31026468 -0.020162232
-0.85647804 -0.8180846 -0.43202886 -0.7503349 0.041255035 0.022472527 0.07971868 0.39698806
0.75586706 0.13751797 0.0831004 -0.21295923 -0.533875 -1.0928546 -0.23326576 0.032835107
0.78341454 0.038398523 -0.12463429 -0.22938393 -0.59351087 -1.0845951 0.056663767 -0.21075977
-1.2216431 -0.81775945 -0.76264447 0.035780136 1.0106664 0.17611188 -0.19165553 -0.2366175

fc2.weight f4 [32, 32]
00000000: 6e8c c8be ffd0 543f 3f66 f13e 05fc 953e
00000010: d0f6 f43e 3ed7 283f 08e3 1f3f 396d 473f
00000020: 38a7 713f 4f60 8a3e 2608 803b 47ac 163f
00000030: fea0 593f 2536 1d3f b2b1 02bf 9353 293f
00000040: 4da3 c43e 0689 5f3f bbc5 063f 860d 953e
00000050: b31c 623f 3c5f bb3e 81a2 ea3e b62f 1d3f
00000060: c4d0 753e 5f0c 983e c93d e83e 0262 0a3f
00000070: e8d3 0b3f 0986 333f 3a8b 1c3f 4a60 ac3f
00000080: 49b4 35be e3da 4d3f 9ca2 0bbd 7656 e33e
00000090: 835c 943e 01f5 e63e 9e24 8d3e 528e bb3e
000000a0: 4f5d dd3e 797a 3f3e 9314 843e 37c6 133e
000000b0: fb89 273e 7bf3 ae3e 0613 42bf 19bd 6a3f
000000c0: 7bd5 ff3e 5721 883e 66f6 313f 58fa ff3e
000000d0: 0660 0e3f 2e74 5e3e d16e 3a3e bc63 a93e
000000e0: d39e 253e 8d10 923d 4c31 1a3f 95de 4a3e
000000f0: 336c 903e f35f 073f 7fc1 393f 2ddf 873f
00000100: b735 97be d5b4 513f bd43 763d 1739 ad3e
00000110: 3907 003f ee1d 123f 9ccd e13e e1ed e73e
00000120: 38ea 433f 8685 28be 5bbf fd3d 49a9 8b3e
00000130: 81bd 023f 4437 013f 66ef f4be e7da 453f
00000140: 55c0 ef3e eb7e 0e3f 699c 533f ac8c 193f
00000150: 0c18 e63e 909a ae3e 635e 0a3f 0497 0b3f
00000160: f533 abbc a42e 093e d06d 1c3f e10a 933e
00000170: 4146 853e 066b 1f3f e037 ef3e 91e4 9a3f
00000180: fe6a 64be 9d75 993d e7cd dc3e 1c2b f03e
00000190: 0577 7b3e ca38 e63e 277f 263e b2d7 9c3e
000001a0: 46d9 df3e 07dd 05bf f52e 05bf a58c b23e
000001b0: 7b5f 373f b98c c73e 7506 42be be8b 9ebe
000001c0: f922 3e3e 328a 493f 6c58 1cbf 2205 8f3e
000001d0: dd51 8e3e c870 8f3d c59d 3b3e 590b 833e
000001e0: 13da d03c 6e62 623e 5eed e43e 9a61 b03e
000001f0: a0eb 903e 18f1 afbd 66e7 8e3d e40a 7b3f
00000200: 5ce8 84be cf57 2e3f 19b2 2e3f 3be2 763e
00000210: 0c19 f53d c5bb f03e 0400 973e 23a1 d13e
00000220: c848 383f 8b83 143e df90 1cbe c4c2 0d3f
00000230: 8044 613f e9e2 753e 8a65 94be a060 593f
00000240: 6faf 063f 4fe3 7b3f 61ac 853e 2145 093f
00000250: 8c8e 063f 21e2 7e3e 4df8 f53e ff1f cb3e
00000260: 7e2a 8e3e 7ca0 1e3f 9233 883e 80b6 c93d
00000270: f953 8f3e 3c00 bb3e 57bf c73e 4ff2 8f3f
00000280: 18f8 6bbe 7549 703e b572 153e 77e9 0dbe
00000290: 9b02 c7bd 3739 bfbe 8d75 863e 6c56 833e
000002a0: 7287 193f 6548 163d 5f35 a33d e304 663e
000002b0: 6152 123e 6ad5 d13c f349 793e 0f71 42bf
000002c0: 0581 bbbe 7c91 6e3e a32b 853f 0470 84be
000002d0: fb18 903d 1be2 b43d 86bc 06bc ebc9 ac3d
000002e0: 3c89 a4bd f64f c2be 1bfc 38be b251 503e
000002f0: 6c74 8cbe 8639 243f 7cf6 42be 6c20 1f3f
00000300: 6602 c3be 08b6 113f 2546 cc3e 4f69 333f
00000310: 58d6 143f 608a 053f 561b 8b3e 898c 043f
00000320: 659d 093f b229 fe3e f1e5 53bd 7997 293e
00000330: 7b49 633e cfc8 843e 8925 e6be cc64 ef3e
00000340: 8845 d03e 77e2 1b3f 57a0 3c3f 2771 0b3e
00000350: a9dd ab3e 83a2 fa3d 1180 e03e 6585 233f
00000360: ef54 37bd 9ab2 963d 78e6 273f 3873 8c3c
00000370: 373d 413e 2508 333f 1100 de3e 036a 883f
00000380: fcbd ed3f 9210 b0bd 5974 ccbf 5ca5 a33e
00000390: fc31 9abf 7e03 4abc 098c 57bf fd6a b6bf
000003a0: 5628 78bf 8dcf 93be a161 533f 84f2 6abf
000003b0: 672d fe3e 23f5 aabf db2f c83f 20c4 9cbe
000003c0: e032 b6be 7172 1cc0 d468 de3d 224f 623e
000003d0: ae4c d2bf 73b2 92bf 6b30 9abc 5041 63be
000003e0: f50e 8a3f e9d0 75bd 2caf 8ebd de55 90bf
000003f0: 7273 95bf 1b17 ef3d 264e 23be cfba b2be
-0.3916964 0.831314 0.4714832 0.29293838 0.47844553 0.65953434 0.624558 0.77901036
0.9439578 0.27026603 0.0039072214 0.58856624 0.8501128 0.61410743 -0.5105239 0.6614315
0.3840584 0.87318456 0.5264546 0.2911188 0.8832504 0.36596096 0.45827106 0.61400926
0.24005419 0.29696938 0.45359638 0.540558 0.5462022 0.70126396 0.6114994 1.3466885
-0.17744555 0.8041212 -0.034090623 0.44401902 0.2897683 0.45108798 0.27567 0.3663202
0.4323525 0.18699063 0.25796947 0.14431082 0.16361229 0.34170136 -0.7581028 0.9169479
0.4996756 0.26587936 0.695166 0.49995685 0.5561527 0.21724007 0.18206336 0.33083904
0.16173868 0.07132063 0.6023147 0.19811471 0.2820755 0.5288078 0.72560877 1.0614983
-0.2953317 0.8191655 0.060123194 0.3383262 0.5001102 0.5707692 0.4410218 0.45298675
0.76529264 -0.16457185 0.12390014 0.27277592 0.5107041 0.50474954 -0.47838897 0.77287143
0.46826425 0.5566241 0.8266054 0.59980273 0.4494022 0.34102297 0.5405027 0.54527307
-0.020898798 0.13396698 0.6110506 0.28719237 0.26030162 0.6227268 0.46722317 1.2101003
-0.2230644 0.07493136 0.4312584 0.4690789 0.24557121 0.44965202 0.16259442 0.30633312
0.43720454 -0.52290386 -0.52024776 0.34872928 0.71630067 0.3897455 -0.18947776 -0.3096599
0.18568029 0.78726494 -0.6107242 0.27933604 0.27796832 0.07003933 0.18321903 0.25594595
0.02549461 0.2210786 0.44712347 0.34449464 0.28304768 -0.08590907 0.069777295 0.9806349
-0.25958526 0.68102735 0.68240505 0.24109738 0.11967668 0.47018257 0.294922 0.4094325
0.71986055 0.14503305 -0.15289639 0.55375314 0.8799515 0.2401234 -0.28983718 0.84913063
0.5261144 0.9839372 0.26108077 0.5362111 0.5256126 0.24890949 0.48041 0.3967285
0.27766794 0.6196363 0.26601845 0.09849262 0.27993754 0.36523616 0.39013168 1.1245822
-0.23043859 0.23465522 0.14594539 -0.13858591 -0.09717294 -0.3734834 0.2626156 0.25651872
0.599723 0.036690135 0.07969164 0.22462802 0.14289238 0.025614459 0.24344616 -0.75953764
-0.36621872 0.23297685 1.0403942 -0.2586671 0.07036015 0.08832189 -0.008223658 0.0843695
-0.08033988 -0.3795163 -0.1806492 0.20343664 -0.27432573 0.64150274 -0.19039339 0.62158847
-0.38087767 0.5691838 0.39897266 0.70082563 0.5813956 0.5216427 0.27169293 0.5177694
0.5375579 0.49641186 -0.05173296 0.16561688 0.22196 0.25934455 -0.44950512 0.4675659
0.40678048 0.6089243 0.7368216 0.13617383 0.3356755 0.12238028 0.43847707 0.6387542
-0.044758733 0.07358284 0.6558604 0.017144784 0.18871008 0.699343 0.43359426 1.0657352
1.8573604 -0.085969105 -1.5973006 0.31962097 -1.2046504 -0.012329934 -0.8419805 -1.42514
-0.9693655 -0.28869286 0.82570845 -0.917763 0.49644014 -1.335606 1.5639604 -0.30618382
-0.3558569 -2.444485 0.10859838 0.221005 -1.6429651 -1.1460708 -0.018821916 -0.22192883
1.0785815 -0.060013685 -0.06967005 -1.1276205 -1.1675856 0.11674329 -0.1594778 -0.3490815

fc3.weight f4 [4, 32]
00000000: 312c 13bf d193 f2be f32d eebe 2825 a8be
00000010: 8eb1 c6be fb8b 033e 1d78 e8be 578a d63f
00000020: a8f7 1d40 20d0 2840 968d 89be dec4 b9be
00000030: e3b6 01bf 57a7 743f ef57 19bf 50ee 14bf
00000040: 4cf9 4340 37cb 0dbf 1fa3 95be 5b27 1bbf
00000050: 5010 08bf 8672 c33f 7a2a c5be 3e62 83be
00000060: 1430 9fbe 7ee1 d6be ce5b 7e3c 6405 e2bd
00000070: f15c 27bf cfd4 9dbe 545b 0540 71cf f6be
00000080: c4fa efbe 7994 10bf 8c47 b4be 95b3 31be
00000090: 9e03 3dbf 4bbc c5be dba0 24be b82d 2b40
000000a0: 5b7f 0340 9c0e fe3f e182 e1be 6615 1fbf
000000b0: f557 1ebf f1d2 bc3f 27a9 bdbe 6d65 0dbf
000000c0: add7 3740 c436 2fbf 8dd5 c3be af26 17bf
000000d0: 3bf2 86be 6018 df3f 330b 20bf 810a dabe
000000e0: c228 15be b695 03bf 650b ea3c 3d59 063d
000000f0: 0b00 2dbf 7d63 a1be 02ad fd3f 8b8d a7bd
00000100: 0aa0 18bf 96fa fbbe 6f93 a8be 1428 37bf
00000110: d102 07bf dcdc abbc 652b 24bf a2f7 d73f
00000120: 565a 1f40 c0a8 2140 fd1a 07bf b8ad a1be
00000130: 1788 1abf 6bac 73bf a00c 9fbe 5889 d8be
00000140: f03d eb3f 6b75 a0be 22da 47bf eeb3 99be
00000150: 02a2 b2bd 5bed ec3f 4dac ebbe ea32 02bf
00000160: 8101 37bf cada 98be e7f5 2a40 0df1 c63d
00000170: cbd4 2dbf b682 20bf 59ff c53e 12bc 71be
00000180: 0cad e3be f917 0bbf 96cc 10bf d2bc 86be
00000190: ee0d 48be 2b50 49bf 9e48 0fbf 9c69 133f
000001a0: 3570 1740 d5d2 4240 3c11 eebe 00b2 14bf
000001b0: 1074 11bf e573 883f ef04 f9be 15e8 36be
000001c0: 4952 4140 da88 61be e8b0 33bf 6590 09bf
000001d0: 7d11 00bf e298 c93f 1570 cfbe dd55 d0be
000001e0: 0906 07bf 7ea0 1fbf 540b 873e 8055 883d
000001f0: 0c62 d7be 3cb7 94be a263 3940 4249 25bf
-0.57489306 -0.473784 -0.4651943 -0.32840848 -0.38807338 0.12846367 -0.4540414 1.6760968
2.4682407 2.637703 -0.26865834 -0.3628301 -0.5066969 0.9556784 -0.598998 -0.58176136
3.0620909 -0.55388206 -0.29226014 -0.60606927 -0.5314989 1.5269325 -0.3850897 -0.2566089
-0.31091368 -0.41968912 0.015524818 -0.110361844 -0.6537619 -0.30826423 2.0836992 -0.4820514
-0.46871006 -0.5647655 -0.35210836 -0.17353661 -0.73833644 -0.3862022 -0.16076986 2.6746655
2.0546482 1.9848208 -0.44045165 -0.62142026 -0.6185296 1.4751874 -0.37043115 -0.5523289
2.8725388 -0.6844294 -0.38248864 -0.590434 -0.26356682 1.7429314 -0.6251709 -0.4258614
-0.14566329 -0.51400316 0.028569886 0.032799948 -0.6757819 -0.31521216 1.9818423 -0.08181294
-0.596192 -0.4921462 -0.32924983 -0.7154553 -0.5273867 -0.020979337 -0.64128715 1.6872447
2.4898887 2.5259247 -0.52775556 -0.3157785 -0.60363907 -0.95184964 -0.3106432 -0.42292285
1.8378277 -0.31339583 -0.7806722 -0.30020088 -0.08722307 1.8509935 -0.46029893 -0.5085894
-0.7148667 -0.29854423 2.6712587 0.097139455 -0.6790282 -0.6269945 0.38671377 -0.236069
-0.44467962 -0.54333454 -0.56562173 -0.26315933 -0.19536564 -0.7863795 -0.5597018 0.5758302
2.3662236 3.0441182 -0.46497524 -0.58084106 -0.5681772 1.0660368 -0.48636577 -0.1786197
3.0206473 -0.22024861 -0.7019181 -0.53735954 -0.50026685 1.5749781 -0.405152 -0.40690508
-0.52743584 -0.62354267 0.2637583 0.06656933 -0.4206699 -0.29046047 2.896706 -0.6456491
