dqn/exercise/models/checkpoint602_151.55086415700555.pth (torch, 7111 bytes, 3 tensors)

fc1.weight f4 [32, 8]
000000 0d 5a da 3c b3 44 50 3a 79 a4 61 3c 1d 71 05 3e
       0.026654268 0.00079448073 0.0137721235 0.1303143
000010 f2 1a 50 40 32 9f e0 be d5 4f 9e 3e 23 d0 02 3f
       3.2516446 -0.43871456 0.30920282 0.5109884
000020 e8 18 2c 3c 4c 52 d9 3e af 52 83 3d 33 7d 67 bf
       0.010503985 0.424456 0.06412255 -0.90425414
000030 6d 90 81 be e0 80 ad bf 72 dd d3 be 60 b6 1e be
       -0.253055 -1.3554955 -0.41379887 -0.15499258
000040 65 41 25 3e 3c cd 1d 3f a0 75 10 be e8 f5 d2 be
       0.16138227 0.6164129 -0.1410737 -0.41203237
000050 2a d0 a5 3f af da 2a 3f 67 e4 9b 3d 3a d6 ab 3d
       1.2954152 0.66739935 0.07611924 0.0839047
000060 6d 69 4a 3d 56 81 00 bc bc 92 08 40 78 00 3a 3f
       0.049416948 -0.007843336 2.133956 0.72656965
000070 5d db 44 bf 7b f6 28 bf 20 29 32 bf c3 79 78 3e
       -0.7689722 -0.660011 -0.69594 0.24265198
000080 a4 e6 1b bf b4 83 45 bf e9 e9 12 be 58 43 8c be
       -0.60898805 -0.7715409 -0.14347042 -0.2739513
000090 8a 14 6b 3d 83 3c 82 3d fe 65 b6 3e e5 b2 72 3e
       0.057392634 0.06359198 0.3562469 0.23701055
0000a0 ad 8e c5 3e 3a 3b 87 bf 5b b5 9e 3e 18 bf 53 3f
       0.38585415 -1.056495 0.30997738 0.8271346
0000b0 af c5 10 bf 20 2d 21 bf 1f 14 69 3e 04 5c 8b 3e
       -0.5655164 -0.6295948 0.22761582 0.2721864
0000c0 57 8a 4f be 22 12 d4 be be 1a a8 3d ad 3d 9d bd
       -0.20267616 -0.41420084 0.08208226 -0.07677779
0000d0 0e 3b 1e 3f f8 85 6a 3e 63 f1 f3 3e 89 96 8a be
       0.6180886 0.22902668 0.476451 -0.27067974
0000e0 aa d5 24 3f 27 b9 9e bf 7e dd 97 3a 24 d9 9b bf
       0.64388525 -1.2400254 0.0011586396 -1.2175641
0000f0 df a0 67 3e fc ea c9 3e d6 83 cc 3d 10 d4 f2 bc
       0.22619961 0.3943709 0.09986083 -0.029642135
000100 f2 53 c6 3e 02 90 a7 3e f3 86 f9 3e 47 a3 dc 3c
       0.3873592 0.32727057 0.4873577 0.026933325
000110 f9 93 38 3f f6 1a 80 3f 46 58 1b 3b 15 8a 58 3d
       0.7210079 1.0008228 0.0023703738 0.05286606
000120 e7 0c e3 3e 89 22 65 3f bd d8 dd 3e 68 04 f6 3f
       0.4434578 0.8950582 0.4332942 1.9220095
000130 d5 93 52 be bc 0f 06 3d ae 55 17 3e 5d 1c 2d bf
       -0.20564206 0.03272985 0.14778778 -0.67621404
000140 a0 0d 24 3d c8 ee f1 3e 60 42 18 3f 81 db 1c c0
       0.040052056 0.47252488 0.5947628 -2.4508975
000150 8f 00 53 bf d0 b5 cf be b9 d0 eb 3e 3e 29 21 bd
       -0.8242273 -0.405684 0.4605768 -0.039345972
000160 39 c6 d2 3e 5e b8 42 bf f6 30 bb 3f 00 ba cc 3d
       0.41166857 -0.7606257 1.4624317 0.09996414
000170 dc db 9b 3e 27 e5 03 3f c8 48 a2 bd 89 dd 94 3d
       0.30441177 0.51521534 -0.07924038 0.07268817
000180 87 cd 41 be 4c 21 9a 3d f6 0f 9a be f3 18 0d 3f
       -0.18926059 0.07525882 -0.30090302 0.55116194
000190 7e e4 8c 3f 67 5e 4d 3f ca 64 c3 bd 3f 9a c8 be
       1.100723 0.8022217 -0.09540708 -0.3918018
0001a0 bf 60 29 bf 5d 9c 01 bf 09 7c 5a be bf cf d9 be
       -0.6616325 -0.50629216 -0.21336378 -0.4254131
0001b0 c3 0e 8b 3e 04 df 91 ba f2 8b c9 3a 60 2b 8b 3e
       0.271597 -0.0011129086 0.001537679 0.2718153
0001c0 dd be 10 be 98 9a 56 3f a7 ec c0 3e 06 af 84 bf
       -0.14135309 0.8382964 0.3768055 -1.0365913
0001d0 a6 d5 64 bf 39 a9 3a 3f bd 10 50 bf cb 06 bd 3e
       -0.893885 0.72914463 -0.8127554 0.36919245
0001e0 71 aa c4 3d 56 0c ff be fb 1b 9b be a5 15 0d bd
       0.096028216 -0.498141 -0.30294785 -0.03444447
0001f0 aa e9 00 bf 25 bb a2 bf b3 35 ae be 9d e7 d8 bd
       -0.50356543 -1.2713362 -0.34025344 -0.10591052
000200 85 a2 8b 3e 52 b8 3e bf 21 d9 7a bd d7 f3 27 3f
       0.2727243 -0.745 -0.061242227 0.65606445
000210 22 d2 0a be be 58 2f bf 4c 22 a3 3e 9d 9a 1c 3e
       -0.13556722 -0.68494785 0.31862104 0.15293355
000220 92 b1 17 bf 70 42 4f 3e 2a 51 e2 3e a5 ad e7 3c
       -0.59255326 0.20240188 0.44202548 0.028281042
000230 14 76 e9 3d 28 79 6d 3f ef 07 c4 3e e5 7c 1b bf
       0.11399475 0.92762995 0.38287303 -0.6073745
000240 33 22 06 bf 37 91 36 3d fe fa ff bb b7 cf 3c 3e
       -0.52395934 0.04457208 -0.007811903 0.18438612
000250 13 a9 ac bd 8e 75 76 bf 7a 46 9a be 68 d8 91 3e
       -0.08430686 -0.96273124 -0.30131894 0.28485417
000260 10 cf 8a be aa bc ca be 25 78 a2 be e4 b1 a7 bf
       -0.271111 -0.39597064 -0.31732288 -1.3101163
000270 51 77 be be 6a 94 2e bf 3d d2 ca 3d 6b ca 03 be
       -0.37200406 -0.6819521 0.09903381 -0.12870185
000280 51 6e 9c be 3c c5 03 bf 42 37 21 bf 1b cc e1 be
       -0.30552915 -0.5147283 -0.6297494 -0.44101033
000290 7a ca 27 3f 09 97 fc 3e 33 6d 0e bd 13 f8 96 3c
       0.6554333 0.4933398 -0.03477211 0.018428838
0002a0 01 19 49 3c 99 af 81 bf 18 5e 26 3f 27 b7 54 bf
       0.012274028 -1.0131713 0.64987326 -0.8309197
0002b0 01 0e 09 3f 66 73 fc 3e 7c ad bb be db 19 cb bc
       0.53536993 0.49306792 -0.36655796 -0.024792602
0002c0 e3 f8 5a 3a 9f 65 01 bf 26 ac c2 3e f7 26 ff 3e
       0.0008353127 -0.50545686 0.38021964 0.49834415
0002d0 ba 7c ce be c4 46 20 bf a5 fb 4c 3e d3 18 ec 3e
       -0.40329534 -0.6260798 0.2001787 0.4611269
0002e0 e0 7a 86 3f 2c d3 b5 be 84 8f 13 3f 7e 44 28 3f
       1.0506248 -0.35512674 0.5764086 0.6572951
0002f0 9a c0 d1 be b6 22 c9 bd 03 4a b9 3e bf 03 fe 3c
       -0.40967256 -0.09821074 0.3618928 0.031007646
000300 40 49 a8 3e 3e b6 20 3a d3 74 00 bf 8d 87 c3 bf
       0.32868385 0.0006130672 -0.5017826 -1.5275742
000310 a2 d5 b0 3f 0b 6e 88 3d 41 e8 0d 3e 85 77 14 3e
       1.3815196 0.06661614 0.13858129 0.14498718
000320 a2 6d e0 b9 51 6d 5c 3e 61 30 36 c0 d0 c9 c6 3e
       -0.00042806292 0.21526076 -2.8467028 0.38825846
000330 2d 5d 8f be 4f a0 97 3e c2 ba c0 3d 44 c3 59 3e
       -0.28000775 0.29614493 0.09410621 0.21265894
000340 e2 1c 48 3f 64 45 af be 49 23 36 3f da fe 1a 3f
       0.7816907 -0.34232628 0.7114759 0.6054512
000350 3e 70 cd be a5 60 84 be 16 61 0f 3b 0a bd b8 3d
       -0.40124696 -0.25854984 0.0021877936 0.09020431
000360 7a 0f 4e be cf 3e 22 bf 00 33 47 3f 48 eb 89 bf
       -0.20123091 -0.6337709 0.77812195 -1.0774927
000370 d6 22 71 3d 98 c7 02 3f a3 37 07 3f 04 ec 06 3c
       0.058871113 0.51085806 0.5281927 0.008234981
000380 b9 70 88 bf e0 4f a6 be 30 6d 19 bf 3a 3f ad be
       -1.06594 -0.32482815 -0.5993223 -0.338373
000390 f3 3d ae 3e 85 ce 8e bd a5 c0 6e 3d 83 51 ba 3e
       0.34031639 -0.06972984 0.05828919 0.36390314
0003a0 f8 aa 41 3f 6e 6d 2f 3e ca 4e 03 3e 7c 04 2f bf
       0.756515 0.17131588 0.12823024 -0.6836622
0003b0 14 e5 8f 3d f0 d1 7e bf ee 8f c6 be 48 8b 6b bd
       0.07026115 -0.9953909 -0.38781685 -0.057505876
0003c0 0a 62 76 3f f3 eb 11 3c 68 78 b5 bc c6 37 d6 be
       0.96243346 0.008906352 -0.02215214 -0.41839427
0003d0 7e 5f 60 be 5b 31 79 bf a1 8c 15 3e b3 3b 43 be
       -0.21911427 -0.97340935 0.14604427 -0.19065742
0003e0 82 57 be bf e2 89 22 bf c7 9b 7a bf 2c 26 00 3d
       -1.4870455 -0.6349164 -0.9789395 0.031286404
0003f0 6e 57 a6 3f 7c 70 3c 3d e4 54 6f bd 7f 52 45 ba
       1.2995431 0.04600571 -0.058430567 -0.00075272465

fc2.weight f4 [32, 32]
000000 75 c7 22 bf c9 45 64 3f c9 13 0e 3f 30 5e 8f be
       -0.635856 0.89168984 0.5549894 -0.28001547
000010 c3 ff 6c 3e 0c 18 e2 3e 32 d7 c5 3e 64 62 16 be
       0.2314444 0.4415897 0.38640743 -0.1468597
000020 35 94 43 3f 83 cd c1 3d dd ca 5c be e7 33 6b 3e
       0.7639802 0.094630264 -0.21561761 0.22969018
000030 d4 7c 1d 3f a5 15 90 3e 77 f2 07 bf 50 0a 22 3f
       0.615186 0.28141513 -0.53104347 0.63296986
000040 1c d2 47 3e 6b 31 17 3f fb 0e 53 3e 73 1c 7f 3d
       0.19513744 0.5905978 0.20611183 0.06228299
000050 d1 c9 04 3f 51 33 a0 be d8 7e 84 3e 1c 64 cf 3e
       0.5187045 -0.3128915 0.25878024 0.40506065
000060 8a 0d 8a 3d 15 b5 8d 3d 42 32 6b 3e a2 4a 20 3e
       0.067408636 0.06919304 0.2296839 0.1565347
000070 35 56 d0 3e 26 d1 2a 3f 70 ca 0d 3f c8 e0 d5 3f
       0.4069077 0.66725385 0.5538702 1.6709223
000080 77 65 8d be 75 34 37 3f 38 20 ce 3d 99 03 fe 3d
       -0.27616474 0.7156442 0.10064739 0.1240303
000090 5e 68 7b 3d 8f 3a 79 3e 76 df d6 3d dd e8 c0 be
       0.06137883 0.24338745 0.104918405 -0.3767766
0000a0 a4 b1 c3 3e 76 05 43 3e 8d 0d 1b be cd d1 46 be
       0.38221467 0.19045052 -0.15141888 -0.1941597
0000b0 d9 f0 f3 bc c8 63 6b 3d 60 04 84 bf d7 1f 63 3f
       -0.029777931 0.057468206 -1.0313835 0.8872046
0000c0 4a d8 a3 3e e8 13 e8 bd 3b 37 93 3e ff 96 c1 3e
       0.32000953 -0.11331922 0.28753075 0.37810513
0000d0 f0 22 8e 3e 40 e7 c9 be 97 00 0b bc 8f 0d fd 3d
       0.2776103 -0.39434242 -0.008484027 0.12356102
0000e0 38 d9 9d 3d 07 01 61 3d 4b 73 d7 3e a7 9b 0f be
       0.07707447 0.05493262 0.4208015 -0.1402422
0000f0 b6 37 0e 3e ed 67 ed 3e a5 5c 17 3f c2 a6 a5 3f
       0.1388844 0.46368352 0.5912574 1.2941515
000100 e8 6c 0a bf 22 69 6f 3f 37 09 31 3e 8a 51 c4 bd
       -0.5407243 0.93519795 0.17288671 -0.09585865
000110 c4 a8 4a 3e bf fe ab 3e ed 1e 55 3e 27 66 95 be
       0.19790941 0.33592793 0.20812578 -0.291795
000120 aa 44 18 3f 76 a4 76 be cb 01 b6 bd df 4d 56 bd
       0.59479773 -0.24086174 -0.08887061 -0.052320357
000130 4c 47 83 3e f5 74 3e 3e f0 0b d0 be d7 94 30 3f
       0.25640333 0.18599303 -0.40634108 0.6897711
000140 59 54 80 3e bb 31 cd 3e 23 cb ff 3e 46 5e 0b 3f
       0.25064352 0.40077004 0.4995967 0.54440725
000150 92 da 3e 3e ef 2b 67 be 22 9f 9e 3e 25 4a 9e 3e
       0.18638065 -0.22575353 0.30980784 0.30915943
000160 df 13 2a be ee 56 31 3d e0 6e e1 3e f0 07 ac bd
       -0.16609143 0.043295793 0.44029903 -0.083999515
000170 87 36 64 3d b1 8e 10 3f 18 c0 b4 3e 08 74 b1 3f
       0.055716064 0.5646773 0.35302806 1.3863535
000180 19 29 e2 bd bf 15 90 be 33 fc a2 3e fc 16 94 3e
       -0.11042995 -0.2814159 0.31833038 0.28923786
000190 51 95 5a 3e 4f 05 0a 3f 33 3e ce 3d 93 50 fc be
       0.21346022 0.5391435 0.10070457 -0.49280223
0001a0 dc 79 87 3e 5b 73 f7 3d fd b6 6f bf cf 94 ba 3d
       0.2646016 0.12082549 -0.9363859 0.09110414
0001b0 ca 2b 14 3f b7 66 9c 3d ee 50 77 bf c4 1c af be
       0.57879317 0.07636779 -0.96607864 -0.34201634
0001c0 0b 42 a3 3e 7f e7 d5 3e ef a4 9d bf 5e 40 26 3e
       0.31886324 0.4177818 -1.2315959 0.16235492
0001d0 d5 d8 38 be 3c 7b e9 be 91 a2 8c 3e 3d 5e c0 3e
       -0.18051465 -0.45601833 0.27467778 0.37571898
0001e0 d9 2b c8 be 48 8d a4 3d 38 28 01 3f f6 92 86 3d
       -0.39095953 0.0803476 0.50451994 0.06570999
0001f0 33 9b 2c 3e 79 b9 01 bf 45 94 c4 3c 36 98 89 3f
       0.16856079 -0.50673634 0.023996482 1.0749576
000200 9c ac a2 be 6d 41 35 3f 74 18 44 3f c5 e7 9c be
       -0.31772316 0.70802957 0.7659981 -0.30645576
000210 4b ff e8 bc 81 19 96 3e 6b 37 34 3e e3 a4 e6 be
       -0.028442046 0.29316333 0.17599265 -0.45047674
000220 c8 75 11 3f c4 60 9e 39 f2 48 bd be e5 b5 a2 3d
       0.56820345 0.00030208204 -0.36969715 0.0794485
000230 38 a7 31 3f 61 d4 54 3c 22 c9 c9 be 59 9e 62 3f
       0.6939578 0.012990088 -0.39411265 0.8852287
000240 aa 85 c7 3e 23 92 16 3f f5 03 96 3c 69 0b a7 3e
       0.38969165 0.58816737 0.018312434 0.32625893
000250 93 2e 22 3e 07 77 f9 be c1 5b a7 3e db e4 5a 3e
       0.15838079 -0.48723623 0.3268719 0.21376364
000260 f0 bd 21 3e 94 58 87 3e 99 ed 49 3d de 1d 5d be
       0.15795112 0.26434767 0.049298856 -0.21593425
000270 52 a0 81 3e ab 7b b1 3e ef bb 8a 3e 30 4b c5 3f
       0.25317627 0.34664664 0.27096507 1.541357
000280 5c 0b be be 6a 3b 3e 3e a8 22 cc 3e 79 1f d0 be
       -0.37118042 0.18577352 0.3987019 -0.40649012
000290 f8 fb 87 bb 4c 60 94 be a4 33 da 3e 9c 6d fc 3d
       -0.00414991 -0.2897972 0.42617524 0.12325594
0002a0 1c 45 20 3f 2e b3 15 3e c8 cc 6a 3e 8c 98 f9 be
       0.6260545 0.14619133 0.2292968 -0.48749197
0002b0 ca 4a fb 3b a8 45 93 3e 15 47 e7 3e 16 3d c1 bf
       0.0076688277 0.2876408 0.4517142 -1.5096767
0002c0 54 fe 87 be ab 96 be 3d ba b2 61 3f 98 eb 99 3d
       -0.26561224 0.093060814 0.8816334 0.07515639
0002d0 fb da d7 3d 12 2a aa be da af 7c 3d 0d 10 92 3d
       0.10539814 -0.33235222 0.061691143 0.07131968
0002e0 7c af 61 be db 33 27 bf ef a0 15 3e 2f 6b a7 3e
       -0.22039598 -0.653135 0.14612173 0.32698962
0002f0 fa fc 0a be ed ac 8d 3e f3 29 6c bf 80 e2 17 3f
       -0.13573065 0.27670994 -0.9225151 0.59329987
000300 d6 75 2b bf 8b 55 1f 3f ac e6 06 3f 38 ce 53 3e
       -0.6697668 0.62239903 0.5269573 0.20684135
000310 73 c2 bb 3e 1b 95 bd 3e 1a af 4f 3d b8 8a bf be
       0.3667179 0.3702782 0.0507041 -0.37410522
000320 af 05 dc 3e d2 71 b6 3e 01 c9 4e be dc 22 ee 3d
       0.42973086 0.35633713 -0.20193864 0.11627743
000330 68 29 36 bd 86 bc aa bd e2 9c bb be 46 c9 c5 3e
       -0.04447308 -0.08336739 -0.3664313 0.38630122
000340 b0 d2 8a 3e eb b6 e1 3e 23 48 b8 3e 2e 36 27 be
       0.27113867 0.44084868 0.35992536 -0.16329262
000350 a1 a3 40 bd 89 1a ce be de 8f a6 3e ae 12 05 3f
       -0.04703105 -0.4025462 0.32531637 0.5198163
000360 8b 56 52 be 58 f4 76 bd 80 a6 0a 3f 2b 91 af be
       -0.20540826 -0.060291618 0.5416031 -0.34290442
000370 76 d7 44 3d 84 82 24 3f ee 5a e0 3e 9b 32 9e 3f
       0.048057042 0.6426165 0.43819374 1.2359194
000380 4d a8 1d 40 83 12 ee bd 6c 34 ea bf df c5 7f 3f
       2.4633973 -0.116246246 -1.8297248 0.999113
000390 b0 0a a2 bf a6 e7 25 3d e1 29 b4 bf 20 f4 b8 bf
       -1.2659512 0.04050412 -1.407528 -1.4449501
0003a0 0c 54 77 bf 97 46 93 bd a7 a0 18 3f ba 9d 38 bf
       -0.9661262 -0.07191198 0.59620136 -0.7211567
0003b0 b0 54 f1 3f 0b 2f 90 bf 43 4c cf 3f 1a 35 65 be
       1.885397 -1.1264356 1.6195148 -0.22383538
0003c0 59 63 cd be 48 5e f8 bf fa 76 73 3e a5 59 bd 3e
       -0.4011486 -1.9403772 0.23775855 0.36982456
0003d0 87 a4 d3 bf 00 0f 3c bf 04 ab e0 3b 28 44 16 bf
       -1.6534585 -0.7346039 0.006856324 -0.5869775
0003e0 b2 46 78 3f 42 84 21 3f d8 3f 23 3d 82 20 da bf
       0.9698287 0.63092434 0.039855808 -1.7041171
0003f0 67 9c 96 bf aa a9 26 3e 67 da a8 3c 30 12 1d bf
       -1.176648 0.16275659 0.020611955 -0.61355877

fc3.weight f4 [4, 32]
000000 77 f0 e7 be 07 70 ce be c9 61 aa be 9a 98 24 be
       -0.45300648 -0.40319845 -0.3327773 -0.16073838
000010 10 81 b6 be dc 1f 57 be a1 46 9c be 62 bc 0d 40
       -0.35645342 -0.21008247 -0.30522636 2.214623
000020 b3 f2 26 40 d3 ad 45 40 b3 86 be bd 21 d4 6e be
       2.6085632 3.0887344 -0.093030356 -0.23323108
000030 a7 bb be be 92 cf db 3f c6 a8 ef be 9d 13 11 bf
       -0.37252542 1.717272 -0.4680845 -0.5667055
000040 16 73 6a 40 3b d0 19 bf 46 97 57 bf 12 1e f4 be
       3.6632743 -0.6008336 -0.842152 -0.47679192
000050 d0 89 2b bf bb 3b e3 3f 6b 5d a2 be aa 13 b2 bd
       -0.6700716 1.7752603 -0.31711897 -0.08695157
000060 3c 7a 19 be d6 7a 84 be 38 d8 b6 3d 64 05 e2 bd
       -0.14988035 -0.25874966 0.08927959 -0.110361844
000070 e7 3b 13 bf 54 51 3a be 17 cc 30 40 b2 59 c5 be
       -0.5751328 -0.18195087 2.7624567 -0.38544995
000080 fe ac bc be 81 14 04 bf 03 01 a5 be 68 6b fc bd
       -0.36850733 -0.51593786 -0.32227334 -0.123251736
000090 d8 20 1a bf cd a4 85 bf 79 08 fa bd 48 ba 2a 40
       -0.60206366 -1.0440918 -0.12208647 2.6676197
0000a0 d2 3b 0f 40 a7 89 30 40 9f 37 ca be 75 7f 1c bf
       2.2380261 2.7584016 -0.3949556 -0.61131984
0000b0 7e 56 0c bf 2c d2 f1 3f 62 20 a7 be 3b c6 b8 be
       -0.54819477 1.8892264 -0.32641894 -0.36088738
0000c0 39 95 6b 40 32 81 0c bf d7 57 09 bf b4 aa 11 bf
       3.6809828 -0.54884636 -0.5364966 -0.569011
0000d0 e3 90 89 bd 12 5f d7 3f 28 db 0d bf 20 21 f0 be
       -0.06717088 1.6825888 -0.5541253 -0.46900272
0000e0 d5 1b 96 bd cb cf 08 bf b5 49 50 3e 3d 59 06 3d
       -0.07329527 -0.53442067 0.20340617 0.032799948
0000f0 35 46 0c bf 1a 35 fe bd a0 3e 3c 40 fe b4 65 bb
       -0.5479463 -0.12412472 2.9413223 -0.0035050507
000100 eb b6 11 bf f0 99 f4 be 74 b2 94 be 3a d2 96 bf
       -0.56919736 -0.47773695 -0.290424 -1.1782906
000110 17 4b fe be d4 ca f0 3d 9c 36 32 bf 10 8e 19 40
       -0.49666664 0.117574364 -0.6961458 2.3992958
000120 0c a4 3b 40 c5 a4 27 40 c3 39 fc be f5 f9 90 be
       2.9318876 2.6194317 -0.4926282 -0.28315702
000130 35 52 0d bf c7 f8 37 3e 3b 53 84 be 77 55 bf be
       -0.5520356 0.17965995 -0.2584475 -0.37369892
000140 14 2a ea 3f 79 ed 82 be a1 0e 92 bf 3e 87 64 be
       1.8294091 -0.25571802 -1.1410714 -0.22317216
000150 61 a7 8b 3c e4 88 10 40 a4 e4 de be 48 d3 20 bf
       0.017047586 2.2583551 -0.43533814 -0.6282239
000160 a4 e3 42 bf 51 99 84 be 52 a1 3e 40 0d f1 c6 3d
       -0.761286 -0.2589822 2.9785962 0.097139455
000170 50 25 25 bf 23 e6 2e bf 4b 2f 9a 3f 10 e4 2b be
       -0.6451006 -0.6831991 1.2045683 -0.16786218
000180 91 3b b6 be 3b 64 e2 be 88 57 00 bf 02 f3 87 be
       -0.3559232 -0.44217095 -0.5013356 -0.26552588
000190 b3 d0 df bd d2 df 63 bf b3 6f f4 be a5 42 88 3f
       -0.10928478 -0.890134 -0.4774147 1.0645338
0001a0 5a 93 21 40 e5 7b 74 40 01 a5 cb be 04 36 01 bf
       2.5246186 3.820062 -0.39774325 -0.50473046
0001b0 d8 d2 fd be b0 69 00 40 77 4e dd be e9 96 98 bd
       -0.49574924 2.0064507 -0.43223926 -0.07450659
0001c0 df 28 5e 40 e3 15 04 be c1 9e 6e bf da 4e e7 be
       3.4712446 -0.12898974 -0.9321099 -0.45177346
0001d0 7d 05 d6 be 72 74 e7 3f c1 ea a1 be ef 17 ac be
       -0.41801062 1.8082411 -0.31624416 -0.3361201
0001e0 46 e3 eb be ce ce 09 bf 99 df 59 3e 80 55 88 3d
       -0.46071833 -0.53831184 0.21276702 0.06656933
0001f0 64 71 af be 3d b6 43 be fa 6a 52 40 bd b1 1a bf
       -0.34266198 -0.19112487 3.2877793 -0.6042746
