dqn/exercise/models/checkpoint683_173.10161158564276.pth (torch, 7111 bytes, 3 tensors)

fc1.weight f4 [32, 8]
00000000: 8426 07bd b503 cebb b0c2 9d3d 8083 953d
00000010: c1b1 5340 9ab0 0abf 5106 993e 8387 0c3f
00000020: 586f 303c e2f0 113f b4dc a13e eab4 71bf
00000030: a4d5 80be f9ca 9abf 7bf4 e0be 442f 50be
00000040: b316 e83c 04eb 2f3f 12b5 86be 7dc0 eabe
00000050: 7a14 a33f 5a5a 3d3f 8e54 9b3d e108 903d
00000060: 0da0 963d d170 82bc 5bd9 1340 8be5 6d3f
00000070: ac34 12bf 7c13 03bf 00ae 90bf 0204 9a3e
00000080: ec71 03bf ee77 f9be dbad 61be 1b8e 88be
00000090: b240 b63d 929d 263d f136 b93e be93 703e
000000a0: 34f3 be3e 9253 76bf a5d1 a33e 9a8b 9a3f
000000b0: 1850 d8be b310 0cbf 1fbe 783e 2776 bd3e
000000c0: d43e 40be fd66 a0be df08 79bd be3d 28bd
000000d0: 1e89 1c3f 86ef 253e b4f4 f63e a3d3 80be
000000e0: 6ee2 3d3f 97a4 b3bf 5b39 443e d3cf a9bf
000000f0: 3205 b73d 9224 1b3f 3484 193e 9033 9c3c
00000100: 02dd 2d3e b6f1 ad3e 62ba 0b3f 0d8c 243d
00000110: 9f59 603f 5673 813f b324 b3bd d470 c33d
00000120: 8be1 be3e eeb8 5f3f 19f8 ba3e 2dad 1040
00000130: f4cc fabe cc62 3fbd dafd 583e 5d1c 2dbf
00000140: 7676 713d e645 e23e 5b1a 263f 3729 24c0
00000150: 4d56 6bbf 57f1 bfbe 0acc 063f 7daa c53d
00000160: 57a8 ad3e 4264 34bf 902b e13f 76c7 cc3d
00000170: 39a6 82be 56f6 f93e 4765 51bd 7d39 6c3d
00000180: bb12 b4be a838 fe3d 5fd7 cabe 144b 533f
00000190: 4a26 913f 7f9f 4c3f c3fa 9bbd a6dd 20bf
000001a0: 6bd4 19bf 27af c1be abfc 9abe 6b5c bbbe
000001b0: c02d 973e 8ee6 d9bb 22b5 08ba 2806 833e
000001c0: 13bd 3abe 8dfa 433f fa32 973e 2e48 88bf
000001d0: 5c9f 84bf f3f5 633f d960 4abf 0b21 b23e
000001e0: 207d 963e b711 6abe 90f3 40be efde 8dbc
000001f0: 5393 11bf fcd8 9ebf d780 9ebe 8b3c f4bb
00000200: 5e59 4a3e 5790 0ebf 6bd0 5dbd 5a3d 703f
00000210: 295c bcbc 17f9 14bf ba73 b83e 8637 1f3e
00000220: f07c 08bf ec57 5d3e 9523 f13e 5f86 eb3c
00000230: d0a5 d53d fe4b 643f 3419 fa3e 526f 01bf
00000240: edf3 edbe 4ef2 a13c 668f 1ebb 369c 253e
00000250: 141c 1bbe dd44 5fbf 3ab6 a3be 1cce 9b3e
00000260: d17c 54be d9aa a0be 8209 abbe e471 99bf
00000270: f838 f6be 8f91 4fbf 4815 343e 93fd 36be
00000280: 48ef 7dbe b86b b4be 6593 5bbf bf36 b9be
00000290: d0e9 5a3f 525a 1c3f 2b8d 93bd 36dc 7b3d
000002a0: 8051 63be 2149 bcbf 73a5 333f 05bf 6ebf
000002b0: aa9c 0f3f 5a13 123f cd99 0dbf c45c 86be
000002c0: 0921 913c f2d6 b3be 61a5 2d3e a0ad 423f
000002d0: 82e0 7fbe b18a febe 20f1 613e 4226 0e3f
000002e0: c825 863f 05ac 8bbe cfa6 113f e717 533f
000002f0: 70e4 d7be b276 acbe c230 9e3e 53c7 bfbc
00000300: 1491 c73e 4aa3 5e3d 9e90 c8be ea6c c8bf
00000310: d3a9 a93f 85c7 d83d cbbf 363e 9b0b 513e
00000320: 7584 ebbc df00 003e 3fa4 3bc0 338c bc3e
00000330: 8431 0dbf 131a 683e c459 053e ab33 993e
00000340: 376d 723f eef2 9fbe 9336 353f 5337 f33e
00000350: 0503 12bf 2916 bcbe 4b28 c2bc e958 673d
00000360: 320c 00be 9836 f5be bdc7 4f3f 9be4 8fbf
00000370: 4f9a 46bd 052a 033f eb54 323f f94e 0f3b
00000380: 4c54 83bf 2f1e 8bbe eff1 1abf fc33 8ebe
00000390: 2ca7 d63e a1a0 65bd 5172 863d e351 b43e
000003a0: 5069 303f 0a70 153e 4264 2b3e 4775 49bf
000003b0: f661 2cbd e4fd 78bf 8174 7fbe 0ce5 873d
000003c0: 33f1 5f3f 2858 e3bc 7ad7 ea3b 46f1 ebbe
000003d0: 8ea0 64be 733e 82bf f742 6c3e b72c 32be
000003e0: d5be b5bf d7b3 02bf 3c03 8ebf 77a9 af3d
000003f0: e03f c13f 1132 013e b522 6dbd 6877 433c
-0.032995716 -0.006287063 0.07703149 0.07300472 3.3077242 -0.5417572 0.29887632 0.54894274
0.010768734 0.57008183 0.31613696 -0.9441668 -0.25162995 -1.2093192 -0.43936524 -0.2033053
0.028331136 0.6871798 -0.2631002 -0.45849982 1.2740624 0.7396599 0.07584487 0.070329435
0.07354746 -0.015922936 2.3101413 0.9292838 -0.5711162 -0.51201606 -1.13031 0.30081183
-0.51345706 -0.48724312 -0.22038977 -0.26670918 0.088990584 0.040677615 0.3617473 0.23493859
0.37294924 -0.9622127 0.31995884 1.2073853 -0.42248607 -0.5471298 0.24291275 0.37004206
-0.18773967 -0.31328574 -0.060799476 -0.041074507 0.61146724 0.16204652 0.4823357 -0.25161466
0.7417363 -1.4034604 0.19162504 -1.3266548 0.08936538 0.60602677 0.14991838 0.019067556
0.16978839 0.33973473 0.5458127 0.040172625 0.8763675 1.0113323 -0.08747234 0.09543005
0.3728145 0.87391555 0.36517408 2.2605698 -0.48984492 -0.04672508 0.21190587 -0.67621404
0.058950864 0.44193953 0.64883965 -2.5650156 -0.9192856 -0.37488815 0.5265509 0.09651659
0.33917496 -0.7046548 1.7591419 0.09998982 -0.25517443 0.48820752 -0.051121976 0.057672013
-0.3517054 0.1241315 -0.3961744 0.82536435 1.133981 0.7993087 -0.076161884 -0.6283821
-0.6008975 -0.37828943 -0.30270895 -0.36593947 0.29527092 -0.0066497987 -0.0005214979 0.25590634
-0.18236189 0.76554185 0.2953108 -1.0647027 -1.0361133 0.89047164 -0.7905403 0.34790835
0.29392338 -0.2285832 -0.18842912 -0.017318217 -0.56865424 -1.2409968 -0.30957672 -0.0074535063
0.19760653 -0.55688995 -0.05415384 0.93843615 -0.022993164 -0.5819258 0.36025792 0.15548524
-0.5331564 0.21615571 0.4709746 0.028750597 0.10432017 0.89178455 0.48847353 -0.50560486
-0.46475163 0.01976886 -0.002419436 0.16172871 -0.1514743 -0.8721445 -0.31974965 0.30430686
-0.20750739 -0.31380346 -0.3340569 -1.1987882 -0.4809034 -0.8108148 0.17586243 -0.17870168
-0.2479831 -0.35238433 -0.8577178 -0.3617458 0.8551302 0.6107532 -0.0720466 0.061489306
-0.22199059 -1.4709817 0.7017433 -0.9326022 0.56098425 0.5706078 -0.55312806 -0.2624265
0.017715948 -0.35124928 0.16957618 0.7604618 -0.24987987 -0.49715188 0.22064638 0.55527127
1.048028 -0.27279678 0.56895155 0.8245835 -0.4216647 -0.33684307 0.30896574 -0.023410475
0.38977873 0.054354943 -0.39172834 -1.5658238 1.3254951 0.1058493 0.178466 0.20414583
-0.028749684 0.12500332 -2.9318998 0.36825714 -0.5515368 0.22666197 0.13022524 0.29922232
0.946979 -0.31240028 0.707864 0.47503147 -0.5703586 -0.36735657 -0.023700854 0.056481276
-0.12504652 -0.47893214 0.8116415 -1.124164 -0.048487004 0.5123599 0.69660825 0.002186714
-1.02601 -0.27171466 -0.6052541 -0.27774036 0.41924417 -0.05606139 0.06564773 0.35218725
0.68910694 0.14593521 0.16737464 -0.78694576 -0.04208561 -0.97262406 -0.24946786 0.06635484
0.87477416 -0.027751997 0.0071668 -0.46082515 -0.22326872 -1.0175308 0.2307242 -0.1739987
-1.4198862 -0.51055664 -1.1094737 0.08577245 1.5097618 0.12616755 -0.057894427 0.011930324

fc2.weight f4 [32, 32]
00000000: 763a 34bf a503 513f 3123 183f 619b d7be
00000010: 5f18 093e 0cca ac3e d662 b43e 53db cebe
00000020: bce3 473f f7a5 813d 0dfc adbe d0bb 803e
00000030: f08b 103f 9ee7 2f3e a2de 13bf baa1 f73e
00000040: b613 eb3d 90af 1b3f 7b9a b2bb 2acb 8cbd
00000050: 9294 1d3f c046 27bf eda8 1e3e 272c a23e
00000060: 84d2 fd3c fcf2 3b3c e811 b43e 5cb5 5a3d
00000070: f03a a33e 9c8a 1e3f 5b85 183f fe5b da3f
00000080: 0ad5 8abe c5aa 143f 5a82 373e 8400 863d
00000090: f20d 603d 7cec 513e bc13 433e 47b9 ffbe
000000a0: 8dc5 dc3e 88fc 7a3e 5e98 79be e943 73bd
000000b0: aa39 87bd 69fb af3a 2121 a3bf cb7e 403f
000000c0: 538b a83e 92c5 0fbd f8b4 743d dd71 913e
000000d0: 86d2 cf3e 2902 20bf 4dc7 24bd de97 e53d
000000e0: f34f ef3d 3329 073e 0220 fb3e 3451 02be
000000f0: f4c2 d13d a1cc b73e adfb 1d3f c4cd a93f
00000100: 5445 12bf 2747 633f 4733 7f3e 358e 21be
00000110: ebc0 253e cabb 8e3e 104a 573e ff8a fdbe
00000120: 4707 203f 84d7 8ebe 128b 12be e519 453d
00000130: 507b 2e3e 1e6d fa3d 396e ddbe ffb7 113f
00000140: a3d8 693e 8a58 d83e cb2b 8d3e 7f04 ee3e
00000150: 49cd 873e 7f09 04bf 8404 843e 389d 863e
00000160: b573 39be e0f0 223d f400 0a3f 4101 e5bd
00000170: 2b04 a03c 2cda e53e 1258 ca3e 9de9 b53f
00000180: b27d e7bd 14fb 2dbf b524 b13e bdcd 303e
00000190: 965a 853e c68b 0f3f cbff 573e fb01 34bf
000001a0: 4365 543e 1586 bb3e c315 7abf 43cc 3a3e
000001b0: 67ca 143f c917 833d 1903 8ebf 8a2d 43bf
000001c0: 86e5 cc3e 6877 fe3e 5644 cdbf 2865 143e
000001d0: 6fb8 0bbe ef0a 2cbf 0eaa 8a3e 47ef c73e
000001e0: c074 c2be bbff 0a3e 71cc 3a3f 2ce5 ea3d
000001f0: 689f 373e ab65 2fbf db7f 363e de5d 8c3f
00000200: da1b afbe 83ae 2b3f 2318 503f f149 b0be
00000210: 96a0 bdbd a976 603e 73a6 503e 5638 37bf
00000220: 63e9 1c3f 33c1 4ebd 922c f5be 2256 69bd
00000230: 5946 293f 9654 93bd 4733 ecbe f3d1 423f
00000240: 716b b73e d542 263f 0e3b 0cbe 2e34 493e
00000250: 1623 863e cc10 4bbf 0e03 863e 0a0a 0b3e
00000260: 681b 123e f643 7c3e 4181 583c 22e8 91be
00000270: 9811 4b3e dc5c 933e afd8 8d3e 4a04 c93f
00000280: bd53 abbe 08bc b93e fa3d eb3e 73d0 2ebe
00000290: f34a b23c 952f b6be f359 d23e 70c4 7b3c
000002a0: ffa1 163f 82be f33d 7636 a33e 546b 3dbf
000002b0: db0f 10be 1b38 a53e 2f25 e03e 52c6 acbf
000002c0: c133 78be cde9 473d f98a 6e3f fbdb 153e
000002d0: d1ab 983d 83c6 15bf 5e5e e23d f30e 093e
000002e0: 36a3 49be a543 24bf 4b8a 843d 477a aa3e
000002f0: 9d4d 5dbd adab 6f3e f4f9 28bf f4f2 143f
00000300: b23a 28bf e3d3 093f ad08 163f de6f b4bc
00000310: ee29 c13e 26be b03e 1035 d93d e58d 0bbf
00000320: 511a dc3e f8e8 c13e 6095 62be 42c3 6e3e
00000330: d02e aebd 2f61 d4bd 3473 bebe cc4c 5f3e
00000340: 35c5 923e 434c fe3e a5b9 d03d 2677 8bbe
00000350: e7d3 483d ce27 26bf b2db 9b3e 1f4a 043f
00000360: 823f 10be 40de ffbc 1506 2d3f 6ac7 9ebe
00000370: 598a 3b3d 56f9 173f 5092 ed3e 5db9 a33f
00000380: 7738 2340 9260 17be e81c e8bf 15fd 7b3f
00000390: f7d4 a5bf ca44 9f3d 13e9 b1bf 3f54 cbbf
000003a0: d2a8 87bf 391c c53d 8585 eb3e 582b 48bf
000003b0: 61ea 1440 a15c 8dbf 6cf5 cf3f cee3 b4bd
000003c0: 68cd cdbe c585 f7bf 8fd8 8d3e 45bf c93e
000003d0: a4c0 ddbf f4d1 12bf fd7c 5ebb db68 58bf
000003e0: 6053 823f 635a 503f bde9 cb3d 32c7 05c0
000003f0: b0af 99bf 0d64 783e a24b 7dbb 9dbc 25bf
-0.70401704 0.81646186 0.594287 -0.42110732 0.13388203 0.337479 0.35231656 -0.40401706
0.7808187 0.063304834 -0.33981362 0.2514329 0.5646353 0.17178199 -0.57761586 0.48365575
0.11478369 0.6081476 -0.0054505444 -0.06874688 0.61554825 -0.6534233 0.15494128 0.3167431
0.03098417 0.011471506 0.3516991 0.053395614 0.31880903 0.6193025 0.59578484 1.7059324
-0.2711566 0.58073074 0.17920819 0.06543067 0.0547008 0.20500368 0.19050497 -0.49946043
0.4311947 0.24510396 -0.2437453 -0.059390936 -0.066027954 0.0013426366 -1.2744485 0.7519347
0.32918796 -0.035100527 0.059742898 0.28407183 0.40590304 -0.62503296 -0.04022913 0.11210607
0.11685171 0.1319931 0.49047858 -0.12726289 0.102422625 0.35898307 0.6171215 1.326592
-0.57137036 0.88780445 0.24921905 -0.15776904 0.16186874 0.27877647 0.21024346 -0.49520108
0.62511104 -0.278988 -0.14310864 0.048120398 0.17039227 0.12227844 -0.43248156 0.5692138
0.22836547 0.4225505 0.27572474 0.46487805 0.26523808 -0.5157699 0.25784695 0.26291823
-0.18110545 0.039780498 0.53907704 -0.1118188 0.019533237 0.44893014 0.39520317 1.4211918
-0.11303271 -0.6796124 0.34598318 0.17265983 0.26045674 0.5607265 0.21093671 -0.7031552
0.20741753 0.36625734 -0.97689456 0.18241982 0.5812134 0.06401021 -1.1094695 -0.7624136
0.40018862 0.49700475 -1.603648 0.14491713 -0.13644575 -0.67204183 0.27082866 0.39049742
-0.37979698 0.13574116 0.729682 0.11469492 0.17931902 -0.6851451 0.1782221 1.0966146
-0.34200937 0.6706316 0.8128683 -0.34431413 -0.09259145 0.21920265 0.20375995 -0.71570337
0.6129362 -0.050477218 -0.47885567 -0.05696691 0.66122967 -0.07193868 -0.46132872 0.7610161
0.3582416 0.6494573 -0.13694403 0.19648811 0.26198643 -0.79322505 0.26174206 0.13578048
0.14268267 0.246353 0.01321441 -0.28497416 0.1983093 0.28781784 0.2770438 1.5704434
-0.33462325 0.3627627 0.45945722 -0.17071705 0.021764254 -0.35583177 0.4108425 0.015366659
0.58840936 0.11901571 0.31877488 -0.73991895 -0.14068548 0.32269368 0.4377837 -1.3498023
-0.24238493 0.048806954 0.93180805 0.14634697 0.074546464 -0.5850603 0.11053155 0.13384609
-0.19691166 -0.6416572 0.0647169 0.33296415 -0.054029096 0.23405333 -0.660064 0.5818322
-0.6571456 0.5383894 0.5860699 -0.022025999 0.37727302 0.34520072 0.10605824 -0.5451339
0.42988828 0.37873054 -0.22127295 0.23316672 -0.085050225 -0.10370099 -0.37197268 0.2180664
0.28666082 0.49667558 0.10191659 -0.2723934 0.04903021 -0.6490449 0.30441052 0.516756
-0.14086726 -0.031233907 0.67587405 -0.31011516 0.045786235 0.5936483 0.4640069 1.2790943
2.5503213 -0.14782932 -1.8133821 0.9843305 -1.2955617 0.07776792 -1.3899254 -1.5885085
-1.0598395 0.09624524 0.46000305 -0.7819114 2.3268054 -1.1043893 1.6246772 -0.08832513
-0.40195775 -1.9337698 0.27704284 0.3940374 -1.7324414 -0.57351613 -0.003394901 -0.84534997
1.0181694 0.8138792 0.099566914 -2.090283 -1.200674 0.24256916 -0.0038649817 -0.64740926

fc3.weight f4 [4, 32]
00000000: c4f8 efbe 1424 fbbe de89 bebe 23da 45be
00000010: a5f7 dcbe 4432 60bd c5a5 cdbe db25 1b40
00000020: eba6 2640 b3fd 3a40 377a 43bd c56a 64be
00000030: 917b b8be 5c02 f53f 744b ebbe a8ff 20bf
00000040: 0b5b 7440 8d6c 2fbf 7c6d 89bf 9d22 e8be
00000050: d954 33bf 0295 fe3f e162 babe 9211 32bd
00000060: c5d9 3bbe b463 64be a0bb 863e 6405 e2bd
00000070: 9098 22bf f80e 76be 250c 4240 039f d7be
00000080: 0aa5 b2be 5339 f4be ef64 d5be 140e 823c
00000090: 9c27 21bf ff06 8dbf 3e2a 54be 3d65 3440
000000a0: e231 1340 6869 3a40 7f28 c7be 9fb2 36bf
000000b0: fda9 10bf 441b 0940 6a7c bcbe 0efd a4be
000000c0: 70c1 6840 88da 17bf bdcc 33bf b5c9 1bbf
000000d0: 6259 01be f725 df3f cbbb 10bf d8a2 f2be
000000e0: 8fff f5bd 6b45 1abf fc59 fb3e 3d59 063d
000000f0: 9d35 0abf 953b 4dbc 421d 4640 01df 44bd
00000100: 631c 14bf d1c8 f6be 09f0 84be 3670 b0bf
00000110: f14d fdbe 5937 0c3d cd5f 2ebf fe24 2440
00000120: 2b9e 3f40 d55d 2440 1919 f6be ca0d 84be
00000130: 46bf 0abf 0916 e43e 1250 75be f0e0 bfbe
00000140: 0073 ed3f e21b 7fbe 7948 8ebf 92c4 4dbe
00000150: 969e 5b3d cf12 0d40 63e7 debe 4541 3bbf
00000160: b788 45bf f1e0 73be b1b3 4340 0df1 c63d
00000170: 9080 21bf 39e4 37bf 8628 bd3f 2fd6 04be
00000180: 0816 bbbe cc75 f0be 4ffd fabe d5a6 a0be
00000190: 19b0 04be a8ae 63bf 7af2 f7be 1c4b 903f
000001a0: 04d8 1f40 c5c6 7940 33c2 cebe 495c 04bf
000001b0: 870b ffbe 9eef 0940 6b78 e4be bf5a cabd
000001c0: 01ad 6040 1f0d 11be 1c75 8bbf 053f ebbe
000001d0: f1fc debe e144 f93f 9491 a9be eb28 bebe
000001e0: 654e febe 2419 07bf c0ee 8a3e 8055 883d
000001f0: f340 b6be 1c1f 78be bd80 5940 2f84 1ebf
-0.4686948 -0.49050963 -0.3721456 -0.19321494 -0.43157688 -0.054735437 -0.40165535 2.4241855
2.6039379 2.9217346 -0.047723975 -0.22306354 -0.36031774 1.9141345 -0.45956004 -0.628901
3.8180568 -0.6852501 -1.0736537 -0.45338908 -0.7005134 1.9889224 -0.36403564 -0.043473788
-0.18344791 -0.22303659 0.26315022 -0.110361844 -0.6351404 -0.24029148 3.0319912 -0.42113504
-0.3489154 -0.47699985 -0.4167857 0.015875854 -0.62951064 -1.101776 -0.20719239 2.818679
2.2999196 2.9126835 -0.38898084 -0.71366304 -0.5650938 2.1422892 -0.3681367 -0.32224315
3.6368065 -0.5931783 -0.7023428 -0.60854656 -0.12631753 1.7433461 -0.5653655 -0.47389865
-0.120116346 -0.60262173 0.4909209 0.032799948 -0.5398806 -0.0125264125 3.0955358 -0.048064236
-0.57855815 -0.48200086 -0.25964382 -1.3784244 -0.49473527 0.03423247 -0.6811493 2.5647578
2.9940288 2.568227 -0.48066023 -0.2579177 -0.5419811 0.4454806 -0.23956326 -0.374763
1.855072 -0.2491298 -1.1115867 -0.20094517 0.053618036 2.204273 -0.4353591 -0.7314647
-0.77161735 -0.23816277 3.0578425 0.097139455 -0.63086796 -0.71832615 1.4777992 -0.1297233
-0.36540246 -0.46964872 -0.49021384 -0.31377283 -0.12957801 -0.8893838 -0.48427182 1.1272922
2.4975595 3.902757 -0.40382537 -0.51703316 -0.49813482 2.15525 -0.44623122 -0.0988059
3.5105593 -0.14165162 -1.0895114 -0.45946518 -0.43552354 1.9474145 -0.3311888 -0.37140593
-0.49669185 -0.52772737 0.27135277 0.06656933 -0.35596427 -0.24230617 3.3984826 -0.61920446
