dqn/exercise/models/checkpoint531_108.14501582645346.pth (torch, 7111 bytes, 3 tensors)

fc1.weight f4 [32, 8]
0.05978785 -0.00022881015 -0.09586067 0.12843527 3.1113138 -0.43021035 0.3107605 0.4896151
-0.12306753 0.34959948 -0.039219197 -0.75743014 -0.45745298 -1.4495486 -0.29847717 -0.2344566
0.35587513 0.52758956 -0.06730005 -0.38976067 1.1606827 0.73261917 0.05728871 0.15681829
0.07618531 -0.0017757054 1.9686404 0.5153969 -0.9185628 -0.7449786 -0.2588309 0.17735818
-0.5324144 -1.0348223 -0.10802678 -0.48542413 -0.032996535 0.13048607 0.35533938 0.2533553
0.43184486 -0.998411 0.41912934 0.42823404 -0.70875573 -0.68037355 0.27637407 0.29512584
-0.11761493 -0.67147166 0.060300175 -0.27891415 0.6040346 0.25478566 0.48565477 -0.27398366
0.52137125 -1.2282484 -0.17362401 -1.0624645 0.32236257 0.2702227 0.048715632 -0.051585928
0.59512514 0.24333623 0.34035268 -0.056984168 0.65043455 1.031061 0.07501277 0.11144477
0.40246075 0.889621 0.3695775 1.7490476 0.1815234 -0.23895623 0.13004592 -0.67621404
0.027496453 0.4979226 0.57275444 -2.2268448 -0.71895164 -0.43501112 0.40011457 -0.08777374
0.57237715 -0.8039029 1.2161816 -0.08310368 0.4663357 0.53351414 -0.107664116 0.097566456
-0.106834725 -0.1770713 -0.24122782 0.2642167 0.9371268 0.86917686 -0.24234624 -0.47535276
-0.61777985 -0.6862664 -0.08073914 -0.5421291 0.22618277 0.0430505 0.0035588343 0.28140044
-0.06994954 0.8887442 0.51128817 -1.0362663 -0.7381406 0.5786979 -0.70850503 0.32402357
-0.18246165 -0.62734663 -0.31180808 -0.019550094 -0.59921855 -1.2911522 -0.22132835 -0.17406797
0.39625117 -0.7178742 0.082436144 0.3599172 -0.428237 -0.69914556 0.34453657 0.18779929
-0.58207387 0.18908942 0.38664097 0.033091925 0.23183362 1.0352793 0.27716666 -0.7112601
-0.5438197 0.06331889 0.029960627 0.05172654 -0.18067425 -1.0571167 -0.37494478 0.20168902
-0.2934779 -0.4671808 -0.11345187 -1.2964354 -0.37384066 -0.70885277 0.09155589 -0.121019855
-0.12252697 -0.61029565 -0.45820132 -0.5599341 0.5253722 0.45430207 -0.05722231 0.043779757
0.119459115 -0.9436561 0.5893811 -0.80578184 0.59529454 0.31206954 -0.36505574 -0.002635411
0.06732597 -0.7447991 0.6127746 0.31947944 -0.5173291 -0.6445592 0.24200475 0.41811636
0.9262723 -0.41458452 0.5305728 0.28211308 -0.4092261 -0.024611697 0.44812188 0.08929872
0.31698617 -0.011838352 -0.5762616 -1.4885566 1.4583473 0.007394225 0.11189537 0.100561485
-0.050734296 0.31287014 -2.6737192 0.24483001 0.056478016 0.42414415 0.048926562 0.15264674
0.6065054 -0.3155671 0.7057682 0.46541485 -0.42272484 -0.333878 0.08364353 0.2088473
-0.17725883 -0.7956781 0.608489 -1.0965933 0.17315823 0.49443698 0.41068098 -0.046089984
-1.0276146 -0.38959584 -0.4812239 -0.45617524 0.16266443 -0.07928899 0.061297704 0.3784825
0.8456146 0.14406127 0.14468218 -0.52994907 -0.074658796 -1.0322961 -0.35704514 -0.12203113
0.91476995 0.01877971 -0.08495776 -0.3706554 -0.29599813 -1.100923 0.048688482 -0.30790478
-1.4250653 -0.72777885 -0.77941656 0.032630596 1.0909802 -0.012017235 -0.080171555 0.0068309796
00000000: 1be4 743d c2ec 6fb9 9952 c4bd 8984 033e
00000010: c41f 4740 8844 dcbe 001c 9f3e d5ae fa3e
00000020: d40a fcbd b4fe b23e 4fa4 20bd f1e6 41bf
00000030: 4737 eabe cf8a b9bf 00d2 98be 6415 70be
00000040: 4435 b63e 1c10 073f 9cd4 89bd b68e c7be
00000050: 4091 943f ee8c 3b3f 91a7 6a3d f994 203e
00000060: 0b07 9c3d c9be e8ba 69fc fb3f 0df1 033f
00000070: ef26 6bbf ebb6 3ebf 7c85 84be 629d 353e
00000080: 4f4c 08bf 0f75 84bf 253d ddbd 8389 f8be
00000090: 6027 07bd 249e 053e 0bef b53e c9b7 813e
000000a0: c51a dd3e dd97 7fbf 1f98 d63e 7e41 db3e
000000b0: 0471 35bf f62c 2ebf e780 8d3e bc1a 973e
000000c0: 19e0 f0bd 91e5 2bbf 51fd 763d d6cd 8ebe
000000d0: 03a2 1a3f 4473 823e bea7 f83e 9647 8cbe
000000e0: 9678 053f 3e37 9dbf 7eca 31be d6fe 87bf
000000f0: b50c a53e a15a 8a3e 0b8a 473d c44b 53bd
00000100: 1f5a 183f 222d 793e b542 ae3e 3b68 69bd
00000110: e182 263f cff9 833f 4ca0 993d 283d e43d
00000120: 560f ce3e 34be 633f 4339 bd3e cbe0 df3f
00000130: 45e1 393e f1b0 74be c22a 053e 5d1c 2dbf
00000140: 3e40 e13c b6ef fe3e 09a0 123f a084 0ec0
00000150: 370d 38bf c7b9 debe d1db cc3e b8c2 b3bd
00000160: 4f87 123f 95cc 4dbf d7ab 9b3f 4332 aabd
00000170: 8ec3 ee3e 6294 083f 017f dcbd ecd0 c73d
00000180: 2acc dabd 2e52 35be 6d04 77be 6947 873e
00000190: 8be7 6f3f 6082 5e3f 9d29 78be 7061 f3be
000001a0: d226 1ebf 28af 2fbf 905a a5bd f9c8 0abf
000001b0: 759c 673e b955 303d 553b 693b b813 903e
000001c0: b441 8fbd bd84 633f c8e3 023f 60a4 84bf
000001d0: c8f6 3cbf 8c25 143f 9660 35bf 6be6 a53e
000001e0: 3ad7 3abe ca99 20bf 4fa5 9fbe 8527 a0bc
000001f0: 6366 19bf 7a44 a5bf e6a3 62be e03e 32be
00000200: 6fe1 ca3e 9bc6 37bf 48d4 a83d 1147 b83e
00000210: e141 dbbe 34fb 32bf 1967 b03e 754e 403e
00000220: cb02 15bf a8a0 413e cef5 c53e 668b 073d
00000230: cb65 6d3e 0884 843f cae8 8d3e 2415 36bf
00000240: c537 0bbf 56ad 813d fd6f f53c 35df 533d
00000250: ac02 39be 9a4f 87bf c3f8 bfbe 9187 4e3e
00000260: bc42 96be 5232 efbe 7459 e8bd 98f1 a5bf
00000270: 0b68 bfbe 6077 35bf a881 bb3d 42d9 f7bd
00000280: 6cef fabd 563c 1cbf 5d99 eabe d757 0fbf
00000290: cb7e 063f 489a e83e f161 6abd 6752 333d
000002a0: fba6 f43d 7293 71bf aee1 163f b847 4ebf
000002b0: 3965 183f 94c7 9f3e 96e8 babe dcb6 2cbb
000002c0: 33e2 893d 27ab 3ebf ccde 1c3f cf92 a33e
000002d0: ae6f 04bf d501 25bf 18d0 773e 5913 d63e
000002e0: 2e20 6d3f 6c44 d4be 9ed3 073f 2071 903e
000002f0: 1586 d1be 789e c9bc 3b70 e53e 3fe2 b63d
00000300: 034c a23e a6f5 41bc e185 13bf 0689 bebf
00000310: 20ab ba3f 414b f23b 6629 e53d 2ef3 cd3d
00000320: c4ce 4fbd 8430 a03e 371e 2bc0 b8b4 7a3e
00000330: 7e55 673d 6c29 d93e 3867 483d 6d4f 1c3e
00000340: f043 1b3f 0392 a1be 3aad 343f db4a ee3e
00000350: 646f d8be 0ff2 aabe 4d4d ab3d 11dc 553e
00000360: 5783 35be 8fb1 4bbf efc5 1b3f 2b5d 8cbf
00000370: 6450 313e d826 fd3e c744 d23e dac8 3cbd
00000380: e088 83bf 1b79 c7be fb62 f6be cd8f e9be
00000390: 8191 263e 4462 a2bd 4d13 7b3d 75c8 c13e
000003a0: 337a 583f cc84 133e 9127 143e beaa 07bf
000003b0: b6e6 98bd 4722 84bf 9fce b6be 75eb f9bd
000003c0: 5d2e 6a3f e8d7 993c 56fe adbd 8bc6 bdbe
000003d0: 118d 97be 0beb 8cbf 936d 473d b2a5 9dbe
000003e0: 8a68 b6bf b74f 3abf d887 47bf a9a7 053d
000003f0: 3da5 8b3f f0e3 44bc fc30 a4bd 69d6 df3b

fc2.weight f4 [32, 32]
-0.5822503 0.92135537 0.5469708 -0.050775185 0.3035129 0.54403555 0.44093084 0.22355174
0.8847568 0.17444594 -0.06928235 0.45049208 0.7404638 0.3547284 -0.52179044 0.7137259
0.28162903 0.61965436 0.34526324 0.22023132 0.47434074 0.050837565 0.36089426 0.5041124
0.10032192 0.10148379 0.31272313 0.28958207 0.45293802 0.6636828 0.6161775 1.5488497
-0.24489066 0.798061 0.07690868 0.23248352 0.121033475 0.3333877 0.12636328 -0.11128803
0.4448216 0.09279523 0.07407905 0.0050859903 0.04908069 0.12626426 -0.8887386 0.97381216
0.3937583 -0.02862064 0.46172196 0.521664 0.2140939 -0.06863469 0.080222495 0.2071974
0.10558188 0.029366078 0.47622 -0.028220057 0.19045177 0.48175114 0.7003168 1.1986593
-0.48193142 0.9916895 0.14427242 0.09889383 0.27833796 0.45507845 0.24687652 0.019268237
0.6996417 -0.17816065 0.08078795 0.1908377 0.35267466 0.2649081 -0.37652868 0.81748146
0.3532642 0.37402877 0.68540794 0.65085155 0.14218915 0.12245237 0.428583 0.42257085
-0.13135503 0.048679836 0.53054994 0.03413161 0.09695207 0.6311751 0.46508557 1.2790215
-0.14092517 0.020257812 0.42005956 0.42227292 0.14735265 0.48735806 0.01492185 -0.2913361
0.47343996 0.032010093 -0.78693575 0.3125435 0.61885005 0.08805638 -0.5857024 -0.28606132
0.24440108 0.47395444 -0.9629058 0.15127744 -0.19300869 -0.18104857 0.24322225 0.35971034
-0.35539484 -0.01464195 0.45338017 0.11048795 0.1585449 -0.4905131 -0.10890432 1.0001281
-0.29241106 0.7200004 0.77852815 -0.1150936 0.021367284 0.3448556 0.2316511 -0.06301421
0.67081946 0.119989656 -0.2456106 0.31260374 0.8641657 0.07194455 -0.3617002 0.9279341
0.4261238 0.72086406 0.102623746 0.5198733 0.14840338 -0.109075226 0.37684104 0.27043328
0.20671365 0.37128446 0.08153436 -0.0807687 0.30186224 0.31097278 0.33920532 1.4583582
-0.422673 0.22617465 0.28507715 -0.51996475 -0.061918486 -0.319535 0.3432451 0.19507742
0.59878695 0.119283184 0.2848961 -0.034324985 0.040323842 0.23615232 0.55270404 -1.349393
-0.35071737 0.12325661 0.9330755 0.07637313 0.11138525 -0.07090497 0.0025792024 0.090578854
-0.22098257 -0.5397425 0.051482856 0.28659812 -0.20505536 0.3666983 -0.76764065 0.5867247
-0.62281495 0.6763216 0.49855733 0.40984747 0.41196385 0.491704 0.054310117 -0.10467817
0.51431096 0.39813522 -0.09056478 0.14556108 0.04769764 -0.034206036 -0.40726912 0.47941467
0.37551102 0.37176833 0.5282821 -0.04812565 -0.103079475 -0.16914178 0.4419933 0.6248438
-0.22418669 -0.0781413 0.62688434 -0.25815395 0.065382935 0.65016 0.48115557 1.1231475
2.4237618 -0.057204764 -1.7378867 0.7931894 -1.1957792 0.03634731 -1.198401 -1.5115955
-0.90078443 -0.21401107 0.7507394 -0.7404062 1.1122108 -1.1232463 1.6262914 -0.26373065
-0.35472125 -1.9314507 0.23785642 0.27307642 -1.6406527 -0.96160704 0.023598144 -0.36954904
1.0410625 0.38138133 0.021163866 -1.3937081 -1.1460989 0.14546067 -0.076215275 -0.5502835
00000000: 5b0e 15bf f2dd 6b3f 4706 0c3f a4f9 4fbd
00000010: 0b66 9b3e ea45 0b3f b0c1 e13e bfea 643e
00000020: 6c7f 623f f5a1 323e e8e3 8dbd e6a6 e63e
00000030: 098f 3d3f f69e b53e 0f94 05bf beb6 363f
00000040: ae31 903e aba1 1e3f 58c6 b03e 5284 613e
00000050: cadc f23e 0d3b 503d 22c7 b83e 830d 013f
00000060: 9475 cd3d bcd6 cf3d 3f1d a03e 1a44 943e
00000070: 7ee7 e73e 1ee7 293f cfbd 1d3f b540 c63f
00000080: 9ec4 7abe ba4d 4c3f 4c82 9d3d 2910 6e3e
00000090: 66e0 f73d cbb1 aa3e 6065 013e fbea e3bd
000000a0: a8bf e33e 6d0b be3d c2b6 973d 61a8 a63b
000000b0: d508 493d 6b4b 013e 5f84 63bf c14b 793f
000000c0: b09a c93e d575 eabc d266 ec3e c68b 053f
000000d0: 6e3b 5b3e 5890 8cbd b14b a43d 8e2b 543e
000000e0: 503b d83d 2191 f03c 1cd3 f33e c02d e7bc
000000f0: ca05 433e 16a8 f63e f647 333f ab6d 993f
00000100: b7bf f6be 5ddf 7d3f 26bc 133e d988 ca3d
00000110: 5082 8e3e 0b00 e93e 33cd 7c3e 6cd8 9d3c
00000120: b81b 333f bf6f 36be 2774 a53d f56a 433e
00000130: c691 b43e 09a2 873e 5ec8 c0be 7746 513f
00000140: 0cdf b43e b380 bf3e e576 2f3f 359e 263f
00000150: 089a 113e 4fc8 fa3d 3b6f db3e 355b d83e
00000160: ef81 06be 8264 473d 1fd2 073f 96cd 0b3d
00000170: cf8e c63d b194 213f b21f ee3e fab6 a33f
00000180: b04e 10be b6f3 a53c 0c12 d73e 2834 d83e
00000190: 9de3 163e ff86 f93e c67a 743c 012a 95be
000001a0: b966 f23e 041d 033d 9f74 49bf b405 a03e
000001b0: f56c 1e3f e756 b43d 98f0 15bf a176 92be
000001c0: 4744 7a3e 28aa f23e ff80 76bf 79e8 1a3e
000001d0: 12a4 45be cc64 39be 410f 793e f42b b83e
000001e0: 50f6 b5be cae4 6fbc 7221 e83e 8247 e23d
000001f0: 9859 223e 8824 fbbe 3a09 dfbd 3304 803f
00000200: e7b6 95be f251 383f 9f4d 473f 31b6 ebbd
00000210: 710a af3c ea90 b03e f235 6d3e 980d 81bd
00000220: d3ba 2b3f 23bd f53d 5881 7bbe 990d a03e
00000230: f739 5d3f aa57 933d c530 b9be 178d 6d3f
00000240: e62c da3e 8c8a 383f 662c d23d 6b16 053f
00000250: 0ef7 173e d562 dfbd 4ff1 c03e 3b76 8a3e
00000260: beac 533e ff18 be3e 7dfb a63d 0f6a a5bd
00000270: b08d 9a3e d337 9f3e 52ac ad3e 7bab ba3f
00000280: 9868 d8be 549a 673e a2f5 913e 691c 05bf
00000290: 3d9e 7dbd 179a a3be d2bd af3e 60c2 473e
000002a0: 1a4a 193f be4a f43d e7dd 913e 5b98 0cbd
000002b0: 9d2a 253d ead1 713e 037e 0d3f e9b8 acbf
000002c0: 3a91 b3be f66d fc3d 09de 6e3f 8469 9c3d
000002d0: f31d e43d a036 91bd d607 293b 6881 b93d
000002e0: 4149 62be 912c 0abf b0df 523d fdbc 923e
000002f0: 08fa 51be e1bf bb3e 1984 44bf 9733 163f
00000300: cd70 1fbf 6a23 2d3f e842 ff3e 87d7 d13e
00000310: edec d23e a0c0 fb3e 4974 5e3d 8261 d6bd
00000320: e2a9 033f 61d8 cb3e 077a b9bd f70d 153e
00000330: 9a5e 433d a11b 0cbd 9485 d0be d775 f53e
00000340: fb42 c03e 6b58 be3e 7f3d 073f 671f 45bd
00000350: 551b d3bd 8133 2dbe f24c e23e c3f5 1f3f
00000360: 3291 65be 8c08 a0bd 7e7b 203f c12c 84be
00000370: 7de7 853d e370 263f 065a f63e 4cc3 8f3f
00000380: ea1e 1b40 8b4f 6abd 1273 debf 760e 4b3f
00000390: 4b0f 99bf ebe0 143d 3465 99bf f67b c1bf
000003a0: cf99 66bf b825 5bbe 7530 403f 438b 3dbf
000003b0: ec5c 8e3f 89c6 8fbf 512a d03f b407 87be
000003c0: 069e b5be c739 f7bf a290 733e acd0 8b3e
000003d0: e800 d2bf e12b 76bf e550 c13c 8835 bdbe
000003e0: 8941 853f 6a44 c33e d85f ad3c 0765 b2bf
000003f0: 5eb3 92bf a4f3 143e c116 9cbd 61df 0cbf

fc3.weight f4 [4, 32]
-0.4899208 -0.42171812 -0.39593577 -0.21337637 -0.3387898 -0.14577559 -0.37369645 2.0650027
2.5627184 3.0131016 -0.17781946 -0.295224 -0.42802164 1.5419828 -0.52095383 -0.52484876
3.5190098 -0.5221103 -0.7603697 -0.517351 -0.55657 1.6348637 -0.33137307 -0.1447827
-0.22792596 -0.32541603 -0.064789355 -0.110361844 -0.58954525 -0.2100119 2.553785 -0.42367062
-0.41704985 -0.5162011 -0.28945193 -0.09748154 -0.6913272 -1.0151318 -0.060388982 2.6855905
2.0607007 2.5475364 -0.3763915 -0.5770951 -0.5610034 1.9096261 -0.32712346 -0.5287763
3.6720395 -0.67247355 -0.43296376 -0.5826634 -0.19396943 1.7746564 -0.5969842 -0.4281738
-0.04766127 -0.47901967 -0.054864347 0.032799948 -0.61581194 -0.23009115 2.6986132 -0.00467431
-0.57161313 -0.4615062 -0.30095252 -0.91934925 -0.50997925 0.060948703 -0.6832765 2.1518915
2.8405135 2.6932943 -0.50184816 -0.29263258 -0.5678712 -0.21321483 -0.2683624 -0.38779202
1.76745 -0.27238703 -1.0830868 -0.24042809 -0.018240897 2.2175543 -0.4455381 -0.5242953
-0.73820645 -0.27244425 2.892482 0.097139455 -0.6612201 -0.6632361 0.9006473 -0.1906211
-0.36784145 -0.48159137 -0.5368566 -0.2197615 -0.11250325 -0.8694066 -0.5336305 0.90205646
2.502247 3.5773752 -0.41648874 -0.5390604 -0.5130247 1.7590891 -0.44330597 -0.06718867
3.3563116 -0.13415442 -0.9410503 -0.47326735 -0.43758792 1.6756914 -0.32702425 -0.34381166
-0.48457497 -0.5810656 0.17958583 0.06656933 -0.35382205 -0.17949785 3.2070584 -0.64752334
00000000: e6d6 fabe 70eb d7be 18b8 cabe 567f 5abe
00000010: db75 adbe 3246 15be 2455 bfbe 0129 0440
00000020: 9403 2440 a8d6 4040 4e16 36be 9a27 97be
00000030: a725 dbbe b15f c53f 3b5d 05bf 7d5c 06bf
00000040: 7537 6140 05a9 05bf 97a7 42bf 1d71 04bf
00000050: 5f7b 0ebf 3743 d13f bba9 a9be eb41 14be
00000060: 6c65 69be ee9c a6be 48b0 84bd 6405 e2bd
00000070: 70ec 16bf 5c0d 57be 3771 2340 5beb d8be
00000080: 8f87 d5be c125 04bf 0b33 94be 67a4 c7bd
00000090: d2fa 30bf d7ef 81bf 705a 77bd b7e0 2b40
000000a0: 85e2 0340 d60a 2340 63b6 c0be 81bc 13bf
000000b0: eb9d 0fbf a16e f43f ba7c a7be e25d 07bf
000000c0: b202 6b40 3a27 2cbf 6dad ddbe 6e29 15bf
000000d0: ec9f 46be f127 e33f f5d3 18bf 9939 dbbe
000000e0: 7738 43bd 1142 f5be 70b9 60bd 3d59 063d
000000f0: daa5 1dbf 049d 6bbe 14b6 2c40 f42a 99bb
00000100: 3d55 12bf 8a4a ecbe 7316 9abe 795a 6bbf
00000110: 008e 02bf 59a5 793d 35eb 2ebf 97b8 0940
00000120: f9ca 3540 ef5e 2c40 1f79 00bf f0d3 95be
00000130: 0260 11bf fd54 5abe cc66 89be ad8c c6be
00000140: cd3b e23f 5076 8bbe 97a2 8abf c832 76be
00000150: ef6d 95bc 69ec 0d40 921d e4be 3738 06bf
00000160: 19fb 3cbf d07d 8bbe 6d1e 3940 0df1 c63d
00000170: b845 29bf d7c9 29bf d290 663f 2d32 43be
00000180: b755 bcbe 2593 f6be 6f6f 09bf 2909 61be
00000190: 1b68 e6bd 6e91 5ebf 029c 08bf 2ced 663f
000001a0: d124 2040 b7f3 6440 033e d5be ddff 09bf
000001b0: 9655 03bf d529 e13f 00f9 e2be 379a 89bd
000001c0: cfcd 5640 c75f 09be ace8 70bf 1950 f2be
000001d0: 860b e0be 0e7d d63f b96f a7be 1508 b0be
000001e0: 361a f8be b7c0 14bf 59e5 373e 8055 883d
000001f0: 2a28 b5be 49ce 37be 7240 4d40 17c4 25bf
