dqn/exercise/models/checkpoint492_56.41307306625661.pth (torch, 7111 bytes, 3 tensors)

fc1.weight f4 [32, 8]
0.08954328 -0.007882479 -0.17853737 0.10747139 2.9322734 -0.44711384 0.30845022 0.46429926
-0.083393 0.34437418 -0.05954129 -0.6329789 -0.64345026 -1.4371697 -0.22205128 -0.28863776
0.39290753 0.47419453 -0.06203553 -0.4001832 1.0325326 0.81858236 0.040250544 0.21554327
0.16218491 0.0015474217 1.827867 0.48354143 -0.9900961 -0.69404936 -0.24601331 0.10769091
-0.47921985 -1.1985844 -0.09811604 -0.6710096 -0.12550431 0.19831677 0.36395872 0.2820161
0.45391273 -1.0105329 0.501008 0.089606375 -0.7570365 -0.64186954 0.30107218 0.30091253
-0.08732762 -0.83203465 0.012914884 -0.42631668 0.5792154 0.25468847 0.4826472 -0.27327207
0.50406426 -1.3433311 -0.10755851 -0.98152435 0.302497 0.27844563 0.089789584 0.0025655907
0.63371354 0.18008168 0.2880675 -0.07705362 0.67040193 1.0543296 0.08805103 0.13979022
0.36028436 0.8765338 0.28925234 1.708943 0.21775205 -0.39046708 0.17086881 -0.67621404
-0.0073539773 0.504724 0.5950227 -2.1318963 -0.6630564 -0.48931667 0.36109954 -0.12389971
0.64058757 -0.80049485 1.0925144 -0.1512496 0.52814776 0.54448545 -0.15182197 0.09229864
-0.07092491 -0.22778049 -0.14660884 0.1657384 0.8706539 0.9038794 -0.3637849 -0.49481174
-0.619661 -0.782976 -0.021483585 -0.7134876 0.15429024 0.111480616 0.011823183 0.2909833
-0.07143746 0.90652245 0.59154457 -1.0499924 -0.56879616 0.55334836 -0.7001473 0.2936439
-0.26776665 -0.5884476 -0.3170677 0.02652253 -0.6754722 -1.2766392 -0.16117133 -0.21723756
0.42195737 -0.70039725 0.20083666 0.05701262 -0.56089026 -0.653094 0.36341035 0.19939391
-0.5610512 0.17407854 0.40761575 0.038628034 0.36811617 1.1204785 0.22897042 -0.69522715
-0.5320963 0.06998086 0.019739036 -0.002084345 -0.26849392 -1.0994805 -0.40967265 0.17586546
-0.28118068 -0.57697517 -0.006954295 -1.1442147 -0.3864345 -0.74425185 0.04584024 -0.15197448
-0.022255043 -0.70209515 -0.33106995 -0.6565135 0.45005777 0.44710913 -0.048408065 0.10560178
0.20472194 -0.9464046 0.5404254 -0.8131532 0.658211 0.28673148 -0.3701449 -0.035280712
0.08402476 -0.8921865 0.6237668 0.11167058 -0.54378885 -0.6079202 0.26570654 0.41539642
0.8295075 -0.44361869 0.37731662 0.014360738 -0.48630744 -0.10092325 0.48081967 0.13108544
0.31943938 -0.03550362 -0.59741104 -1.4835565 1.471057 -0.02034571 0.08750739 0.05279888
-0.0062620672 0.33013913 -2.507403 0.08083348 0.17527851 0.5452777 0.03876863 0.14444439
0.5084561 -0.31235436 0.59799236 0.29521784 -0.48648608 -0.4542087 0.092110015 0.22908898
-0.116993845 -0.88173574 0.49492112 -1.1241616 0.21658209 0.3931998 0.39291078 -0.0314625
-0.99660426 -0.4643604 -0.3960417 -0.54433465 0.08424415 -0.051782254 0.07387206 0.38960537
0.84901744 0.15908536 0.09932926 -0.45247313 -0.22465605 -1.0686162 -0.34231457 -0.1477827
0.8957242 0.0073320563 -0.13263017 -0.36206627 -0.38488308 -1.1550438 0.03465199 -0.33514574
-1.3393062 -0.7231326 -0.68881106 0.10267608 1.0769708 0.047386304 -0.20682928 -0.08046756
00000000: 7862 b73d 8325 01bc 80d2 36be f619 dc3d
00000010: 5eaa 3b40 1bec e4be 30ed 9d3e a2b8 ed3e
00000020: f3c9 aabd d051 b03e 91e1 73bd e80a 22bf
00000030: 28b9 24bf 2df5 b7bf 6961 63be 54c8 93be
00000040: 2d2b c93e a0c9 f23e f818 7ebd d0e4 ccbe
00000050: 072a 843f 9d8e 513f c1dd 243d 60b7 5c3e
00000060: cd13 263e dbd2 ca3a 8cf7 e93f be92 f73e
00000070: f076 7dbf 38ad 31bf eaea 7bbe 0d8d dc3d
00000080: 4e5c f5be 376b 99bf 10f1 c8bd 49c7 2bbf
00000090: 3484 00be 8d13 4b3e cc58 ba3e 6a64 903e
000000a0: 4067 e83e 2459 81bf 0f42 003f 8c83 b73d
000000b0: 25cd 41bf 9051 24bf 2226 9a3e 3511 9a3e
000000c0: d3d8 b2bd 3900 55bf f398 533c 2e46 dabe
000000d0: 7647 143f 8766 823e 891d f73e 51ea 8bbe
000000e0: 5b0a 013f 46f2 abbf a347 dcbd 2e45 7bbf
000000f0: e3e0 9a3e 6d90 8e3e 9ae3 b73d 7823 283b
00000100: 0d3b 223f 5567 383e 957d 933e 4ace 9dbd
00000110: 769f 2b3f 46f4 863f 1954 b43d 2b25 0f3e
00000120: 3177 b83e 8564 603f e218 943e a5be da3f
00000130: 65fa 5e3e 4deb c7be 3cf8 2e3e 5d1c 2dbf
00000140: a2f9 f0bb 9835 013f 6853 183f fd70 08c0
00000150: 10be 29bf b787 fabe 0ae2 b83e 22bf fdbd
00000160: 8cfd 233f 3bed 4cbf 83d7 8b3f 2de1 1abe
00000170: b134 073f 6663 0b3f 3877 1bbe 1207 bd3d
00000180: 1441 91bd 4a3f 69be a120 16be 54b7 293e
00000190: 2de3 5e3f a464 673f 0442 babe f757 fdbe
000001a0: 1aa2 1ebf 1d71 48bf 58fe afbc 20a7 36bf
000001b0: 43fe 1d3e f34f e43d 06b6 413c c3fb 943e
000001c0: ce4d 92bd db11 683f 776f 173f 2766 86bf
000001d0: a09c 11bf 3da8 0d3f da3c 33bf 7e58 963e
000001e0: b618 89be 80a4 16bf b356 a2be c745 d93c
000001f0: bfeb 2cbf ea68 a3bf 190a 25be 8673 5ebe
00000200: cc0a d83e 3c4d 33bf 20a8 4d3e 1186 693d
00000210: 8196 0fbf 2b31 27bf ec10 ba3e eb2d 4c3e
00000220: 0da1 0fbf a541 323e 03b3 d03e 6e38 1e3d
00000230: b979 bc3e d76b 8f3f 3977 6a3e 68fa 31bf
00000240: 7737 08bf 2052 8f3d c2b3 a13c 8299 08bb
00000250: 0978 89be c7bb 8cbf 9dc0 d1be 1316 343e
00000260: eaf6 8fbe a5b4 13bf dbe0 e3bb a175 92bf
00000270: beda c5be 4a87 3ebf fac2 3b3d 339f 1bbe
00000280: 3550 b6bc 82bc 33bf 0082 a9be 4511 28bf
00000290: f96d e63e 7deb e43e 8947 46bd bf45 d83d
000002a0: a1a2 513e 9247 72bf 5259 0a3f cf2a 50bf
000002b0: 8480 283f 78ce 923e a283 bdbe 8282 10bd
000002c0: 2c15 ac3d 5666 64bf 2eaf 1f3f 8cb3 e43d
000002d0: bf35 0bbf a9a0 1bbf b00a 883e d7ae d43e
000002e0: 9b5a 543f fd21 e3be a52f c13e 4d49 6b3c
000002f0: 4afd f8be d9b0 cebd ff2d f63e 433b 063e
00000300: 8f8d a33e 3e6c 11bd eeef 18bf 2ee5 bdbf
00000310: 994b bc3f 0cac a6bc 1337 b33d a343 583d
00000320: 0732 cdbb ff07 a93e 4a79 20c0 068c a53d
00000330: 367c 333e 5297 0b3f dbcb 1e3d 3be9 133e
00000340: 2e2a 023f e9ec 9fbe 0716 193f cb26 973e
00000350: b414 f9be 0b8e e8be 2da4 bc3d 4d96 6a3e
00000360: 789a efbd 6fb9 61bf 4d66 fd3e 87e4 8fbf
00000370: b2c7 5d3e 7c51 c93e 9a2b c93e d3de 00bd
00000380: 7521 7fbf a5c0 edbe fac5 cabe 8459 0bbf
00000390: 3288 ac3d a119 54bd 3c4a 973d 5b7a c73e
000003a0: 3559 593f 46e7 223e 246d cb3d 8faa e7be
000003b0: 3c0c 66be 6ac8 88bf db43 afbe 5954 17be
000003c0: 2e4e 653f bf41 f03b 34d0 07be c060 b9be
000003d0: 650f c5be 7ad8 93bf 3fef 0d3d 3998 abbe
000003e0: 636e abbf 381f 39bf ec55 30bf d647 d23d
000003f0: 2eda 893f 2418 423d 0ecb 53be 2dcc a4bd

fc2.weight f4 [32, 32]
-0.5447691 0.9133689 0.54753816 0.08380019 0.3371893 0.5747215 0.4675755 0.36645865
0.9273236 0.19378039 -0.015181441 0.5346327 0.81771046 0.39848235 -0.5205237 0.7392387
0.30848828 0.6915094 0.39779046 0.3010304 0.54258984 0.25988138 0.39353 0.5247813
0.12602079 0.12574427 0.33208665 0.36026722 0.4709182 0.67074424 0.6305277 1.4391869
-0.23003277 0.8177988 0.05870746 0.31535158 0.14907078 0.36103228 0.14552127 0.019129047
0.4666763 0.034686442 0.16018838 0.10712638 0.14492093 0.16170977 -0.8639274 1.0137169
0.41724318 0.08757952 0.5546669 0.56858134 0.2738665 0.14371523 0.10774474 0.22940123
0.114728 0.014017971 0.49375787 0.031026268 0.20532116 0.47106203 0.7232742 1.1343933
-0.4421969 0.9791805 0.13370286 0.19135353 0.31811407 0.48698014 0.28022364 0.124508016
0.7316635 -0.1708205 0.12309156 0.26769957 0.45356032 0.3109515 -0.40034705 0.8753794
0.38423818 0.40342364 0.7571065 0.6693077 0.19461338 0.29994795 0.46270585 0.44813535
-0.11090914 0.052430276 0.5454809 0.09232433 0.1196755 0.6335827 0.48363844 1.2276813
-0.14626539 0.109366894 0.45086193 0.43207568 0.17877313 0.4720354 0.016565898 -0.17934604
0.48213163 -0.18462934 -0.6542443 0.33523276 0.6836437 0.17792563 -0.36330837 -0.24851997
0.2264825 0.61675084 -0.77679294 0.23239855 -0.082566194 -0.0046870834 0.24618895 0.3218558
-0.2618774 0.0015790182 0.4026085 0.199894 0.2293526 -0.53151196 -0.20494649 1.0024761
-0.29519925 0.71792436 0.78034854 0.038536742 0.030415641 0.36725068 0.22738805 0.086633995
0.7204588 0.12777245 -0.18571004 0.45904917 0.91606885 0.08657719 -0.34343958 0.94573575
0.43922144 0.84270793 0.13365807 0.61641145 0.21735604 0.13025899 0.3960003 0.28755203
0.22731504 0.43427515 0.10659994 -0.013991718 0.29320112 0.3025067 0.37415215 1.3249536
-0.4093953 0.23627926 0.21560529 -0.46256292 -0.073428854 -0.26716432 0.32928056 0.2207148
0.56304765 0.060209624 0.25774643 0.16276883 0.13018216 0.19807447 0.5131214 -1.1766032
-0.30523247 0.1829261 0.9631332 0.01779355 0.104465276 0.10693825 0.0180586 0.121547185
-0.2020376 -0.469836 0.06168643 0.2814501 -0.24248943 0.35614768 -0.7131377 0.6206969
-0.57009834 0.6667964 0.48697433 0.5011808 0.4520504 0.5159928 0.08471114 0.044777747
0.53337514 0.4165249 -0.053026743 0.13625553 0.14519382 0.02524978 -0.42238915 0.49617672
0.4002692 0.41923782 0.5949511 0.03284354 -0.018038163 0.0024418698 0.46985233 0.6349269
-0.19592443 -0.068664014 0.6265912 -0.1850079 0.09228445 0.67720604 0.47555813 1.0639393
2.3319352 -0.017888352 -1.6821297 0.60647744 -1.2271285 -0.010876276 -0.9581399 -1.5289454
-0.88412434 -0.25917795 0.80559266 -0.7739857 0.98472154 -1.1745332 1.6362733 -0.24965902
-0.3691618 -1.9585421 0.23326588 0.24535297 -1.6461018 -1.0827429 -0.016247327 -0.3121357
1.0902859 0.2699532 -0.02869341 -1.2088363 -1.1679865 0.12701075 -0.1459702 -0.48721704
00000000: fd75 0bbf 8bd2 693f 762b 0c3f 6f9f ab3d
00000010: 13a4 ac3e f320 133f 0e66 ef3e 78a0 bb3e
00000020: 1465 6d3f 5e6e 463e 94bb 78bc b0dd 083f
00000030: 7955 513f e105 cc3e 0b41 05bf bf3e 3d3f
00000040: 2df2 9d3e c306 313f 31ab cb3e a820 9a3e
00000050: 2be7 0a3f 2c0f 853e c47c c93e 1158 063f
00000060: 980b 013e 1bc3 003e 4307 aa3e f274 b83e
00000070: 311c f13e e5b5 2b3f 436a 213f 4737 b83f
00000080: b68d 6bbe 435b 513f 3c77 703d c375 a13e
00000090: 03a6 183e 39d9 b83e 8703 153e 85b4 9c3c
000000a0: 32f0 ee3e 5f13 0e3d 6c08 243e 1365 db3d
000000b0: 2766 143e 3f97 253e 592a 5dbf 7ac1 813f
000000c0: e6a0 d53e e45c b33d a6fe 0d3f 8c8e 113f
000000d0: 3b38 8c3e 162a 133e 46a9 dc3d 28e8 6a3e
000000e0: 83f6 ea3d a2ab 653c d5cd fc3e cd2a fe3c
000000f0: b63f 523e 0b2f f13e 7f28 393f cd33 913f
00000100: a267 e2be 93ab 7a3f 67e9 083e 2ef2 433e
00000110: d9df a23e 7655 f93e 7979 8f3e 0ffe fe3d
00000120: 4d4e 3b3f 92eb 2ebe 6e17 fc3d eb0f 893e
00000130: 0f39 e83e 0935 9f3e 4afa ccbe dd18 603f
00000140: deba c43e 8b8d ce3e bbd1 413f c057 2b3f
00000150: bb48 473e c792 993e c8e7 ec3e ff71 e53e
00000160: 5524 e3bd 21c1 563d a3a4 0b3f 8a14 bd3d
00000170: 6e18 f53d 7a32 223f 759f f73e a924 9d3f
00000180: 98c6 15be c0fb df3d 60d7 e63e 0639 dd3e
00000190: 4e10 373e a0ae f13e 35b5 873c 7da6 37be
000001a0: f5d9 f63e 790f 3dbe 8e7c 27bf a1a3 ab3e
000001b0: 4603 2f3f 2332 363e 8e03 babe 057c 7ebe
000001c0: 07eb 673e 62e3 1d3f e7db 46bf e3f9 6d3e
000001d0: 7718 a9bd 1b96 99bb f518 7c3e 49ca a43e
000001e0: cb14 86be 0ff7 ce3a b422 ce3e 03b1 4c3e
000001f0: 68db 6a3e 2b11 08bf 7edd 51be 2351 803f
00000200: 5b24 97be e4c9 373f ecc4 473f b4d8 1d3d
00000210: 392a f93c 4808 bc3e 6ad8 683e 2a6d b13d
00000220: fd6f 383f c8d6 023e c62a 3ebe 7e08 eb3e
00000230: 7d83 6a3f 624f b13d 50d7 afbe bd1b 723f
00000240: a2e1 e03e b5bb 573f a9dd 083e 24cd 1d3f
00000250: 9592 5e3e 9d62 053e 8dc0 ca3e 053a 933e
00000260: 46c5 683e 5059 de3e 1251 da3d 853d 65bc
00000270: 751e 963e 28e2 9a3e df90 bf3e 1498 a93f
00000280: 439c d1be 31f3 713e a2c7 5c3e 0cd5 ecbe
00000290: de61 96bd c3c9 88be 7697 a83e 0f03 623e
000002a0: e423 103f 5e9e 763d 57f7 833e dfac 263e
000002b0: 794e 053e 09d4 4a3e ed5b 033f ef9a 96bf
000002c0: 6e47 9cbe fb50 3b3e e68f 763f c7c3 913c
000002d0: e4f1 d53d 7102 db3d a1ef 933c bbed f83d
000002e0: f2e2 4ebe 588e f0be e9aa 7c3d 3a1a 903e
000002f0: 264f 78be fd58 b63e 3190 36bf fee5 1e3f
00000300: f7f1 11bf 2bb3 2a3f b354 f93e 634d 003f
00000310: 2673 e73e 1b18 043f 097d ad3d df68 373d
00000320: 468b 083f c042 d53e 9232 59bd 9286 0b3e
00000330: b0ad 143e a0d8 ce3c 6443 d8be e00a fe3e
00000340: 16f0 cc3e 57a6 d63e b74e 183f f386 063d
00000350: c5c4 93bc c707 203b 7c90 f03e 928a 223f
00000360: 6aa0 48be b89f 8cbd 4868 203f b672 3dbe
00000370: a1ff bc3d 605d 2d3f 5b7c f33e 2a2f 883f
00000380: 6d3e 1540 988a 92bc 0750 d7bf 1b42 1b3f
00000390: 8c12 9dbf 6832 32bc a848 75bf 7cb4 c3bf
000003a0: f955 62bf f9b2 84be 523b 4e3f ed23 46bf
000003b0: b616 7c3f 1b57 96bf 6771 d13f 9da6 7fbe
000003c0: c702 bdbe 82b1 fabf 40dd 6e3e cf3d 7b3e
000003d0: 77b3 d2bf 5297 8abf 1d19 85bc 40d0 9fbe
000003e0: 7d8e 8b3f 4e37 8a3e 710e ebbc 26bb 9abf
000003f0: 9580 95bf 1b0f 023e 3679 15be 8374 f9be

fc3.weight f4 [4, 32]
-0.49876082 -0.42378843 -0.4064133 -0.2300993 -0.33094415 -0.007975782 -0.38795823 1.9446286
2.4896684 2.901752 -0.19651027 -0.30598867 -0.4389888 1.3463687 -0.5337543 -0.50887644
3.4506564 -0.49811453 -0.6652011 -0.5290891 -0.50437486 1.6002449 -0.33036005 -0.16510177
-0.2415421 -0.345279 -0.10612523 -0.110361844 -0.5920934 -0.21840008 2.405798 -0.4325362
-0.4337503 -0.53245586 -0.3083961 -0.108815394 -0.7204975 -0.86564714 -0.08313847 2.7354736
2.0536683 2.4321046 -0.39585993 -0.5908844 -0.58004874 1.823436 -0.34098163 -0.55704916
3.5597796 -0.69460875 -0.44084114 -0.5839011 -0.25035962 1.8064358 -0.61400515 -0.40961927
-0.07561478 -0.47872743 -0.09070477 0.032799948 -0.6414298 -0.258322 2.5442226 -0.034764633
-0.57054156 -0.45149586 -0.2980231 -0.8212033 -0.5108705 0.000999101 -0.6514876 2.0425296
2.809677 2.753037 -0.5034789 -0.2908369 -0.5742708 -0.5044696 -0.27582356 -0.39737448
1.7301245 -0.28111994 -1.0127828 -0.25444293 -0.0328778 2.1369882 -0.44651926 -0.5028579
-0.70956457 -0.27270472 2.8170235 0.097139455 -0.6594722 -0.63887566 0.7840751 -0.19319421
-0.40238708 -0.53111684 -0.5676806 -0.23776002 -0.14931123 -0.877505 -0.555172 0.7740755
2.4653018 3.4161673 -0.439164 -0.57023996 -0.53983736 1.5733824 -0.47082043 -0.111522935
3.3457773 -0.17913893 -0.8591388 -0.5060352 -0.48297128 1.6631798 -0.3647767 -0.374525
-0.51126987 -0.6079633 0.205818 0.06656933 -0.3856538 -0.21650259 3.1543818 -0.66579735
00000000: 945d ffbe ccfa d8be 6715 d0be 279f 6bbe
00000010: 8371 a9be dbac 02bc 76a2 c6be 97e9 f83f
00000020: ba56 1f40 4eb6 3940 fd39 49be 8caa 9cbe
00000030: 24c3 e0be cf55 ac3f 1fa4 08bf ba45 02bf
00000040: 8ed7 5c40 de08 ffbe 9f4a 2abf 6272 07bf
00000050: b61e 01bf d3d4 cc3f f424 a9be 7010 29be
00000060: d056 77be 69c8 b0be 2f58 d9bd 6405 e2bd
00000070: 6f93 17bf 45a4 5fbe 98f8 1940 6375 ddbe
00000080: 8514 debe 074f 08bf 18e6 9dbe 9bda debd
00000090: 8672 38bf 0d9b 5dbf 8144 aabd 0012 2f40
000000a0: 4d6f 0340 9aa7 1b40 27ae cabe 3344 17bf
000000b0: 137e 14bf 5a66 e93f 2595 aebe c69a 0ebf
000000c0: 6ed3 6340 e1d1 31bf eeb5 e1be 8b7a 15bf
000000d0: 232f 80be 4a39 e73f 712f 1dbf 9eb9 d1be
000000e0: ecdb 9abd c31b f5be 6cc3 b9bd 3d59 063d
000000f0: be34 24bf c842 84be 8bd4 2240 5c65 0ebd
00000100: 030f 12bf 772a e7be 7c96 98be 613a 52bf
00000110: 69c8 02bf 44f4 823a e4c7 26bf ceb8 0240
00000120: bfd1 3340 c231 3040 fee3 00bf 93e8 94be
00000130: 6903 13bf eb24 01bf bf38 8dbe ab74 cbbe
00000140: b874 dd3f f4ee 8fbe dea2 81bf 5846 82be
00000150: dfaa 06bd 6ac4 0840 2c9e e4be 4cbb 00bf
00000160: 06a6 35bf f49f 8bbe 1d4a 3440 0df1 c63d
00000170: 2cd3 28bf 5b8d 23bf 25b9 483f b4d4 45be
00000180: ae05 cebe 46f7 07bf 8453 11bf 5d77 73be
00000190: 0be5 18be 2ba4 60bf c11f 0ebf d029 463f
000001a0: 81c7 1d40 7ca2 5a40 1bda e0be 3ffb 11bf
000001b0: c832 0abf 9864 c93f 600f f1be 2366 e4bd
000001c0: 3721 5640 3270 37be 85f0 5bbf 868b 01bf
000001d0: 0348 f7be 13e3 d43f 03c4 babe bec1 bfbe
000001e0: 95e2 02bf 7ca3 1bbf f4c1 523e 8055 883d
000001f0: 6a74 c5be dbb2 5dbe 64e1 4940 b271 2abf
