dqn/exercise/models/checkpoint758_197.62963164089302.pth (torch, 7111 bytes, 3 tensors)

fc1.weight f4 [32, 8]
00000000: 00cd e4bd ab24 86bb ee34 2a3d 174a 2c3d
00000010: d89a 5340 4f44 1dbf 0d12 823e 508c 123f
00000020: 5a8d 64bc f3ac 373f 212c 1d3f 4cc9 81bf
00000030: 4eab b7be 120e 87bf ed8b f6be b53c 1ebe
00000040: 423e bc3c c6f1 373f 6d90 b2be 6c0b d4be
00000050: bc15 a33f 3f64 573f 23b4 9f3d 7258 263d
00000060: 8f68 2e3e ceb7 413b 1675 2240 d70d 803f
00000070: a6ff ecbe f245 aabe b2f9 95bf a103 a43e
00000080: e52f b3be bfc9 aabe a35e 7dbe e5a8 9fbe
00000090: d6c1 1a3e 0576 dc3d 2a1c c43e 5e44 7b3e
000000a0: 8c75 8a3e 6aae 57bf add7 b53e 1598 b03f
000000b0: aec5 c6be ff76 1dbf 184f ae3e e0bc 0b3f
000000c0: 9478 a5bd 8158 11bf 9ebe e4bd 684d 3e3d
000000d0: 9668 223f ebdc 363e 8294 013f 3821 73be
000000e0: 2514 443f 9a76 c9bf 3990 b13e 3bde a2bf
000000f0: 6a0b 53bd 5630 1a3f 3ab2 613e d9a4 fb3c
00000100: 2ee0 e43d 511f 9e3e 23ef 063f 91b9 9d3d
00000110: 97cb 763f 40e1 893f 2fa2 0fbe 94a8 033e
00000120: f006 943e 5d97 593f 9c9d 593e d0bd 1d40
00000130: 5f10 dbbe 4ca9 66be b614 663e 5d1c 2dbf
00000140: 28ce 9f3d 1383 d63e 3fab 253f 82e0 2fc0
00000150: e87e 51bf a4f1 90be fec3 183f 29c2 423e
00000160: 9a6f 9e3d 83a5 31bf 86f1 0840 2cd8 60bc
00000170: b9ae 19bf 06d2 0d3f a8d1 5cbc b293 443c
00000180: df3b a0be 4bf5 fc3d 0935 02bf 6697 543f
00000190: 537d 933f 0afd 3a3f a636 a8bd 5e37 60bf
000001a0: a42a 01bf 571e 8bbe db41 9ebe ed22 bebe
000001b0: 36d3 ae3e f920 0b3d e431 ccbc f92e 873e
000001c0: 3559 66be 1a75 323f bac7 393e 2294 8cbf
000001d0: 0d2d 87bf 4513 803f 2dfb 3bbf 42f0 c63e
000001e0: bd10 9f3e 06f5 29be 5174 8dbd d9a3 2bbd
000001f0: 3bd6 0bbf ef23 a4bf e407 37be 825d 553e
00000200: fd9a f93d 875a dfbe 32e3 48bb bdba 7b3f
00000210: 0c0d f6bd e91b 2bbf 1d84 da3e 27ab 413e
00000220: 24c4 f4be 26c4 483e a209 cd3e cb6f 6c3d
00000230: f742 433e d335 753f fc9f f23e f488 fbbe
00000240: e0ac c9be ed8f 093c 7ef2 993d 06b9 0a3e
00000250: 4f71 bcbe 3477 61bf c87f a3be b02e a83e
00000260: 31a1 52be c464 8dbe 2505 c3be 4162 90bf
00000270: 0508 0fbf e2e9 79bf a43c 3f3e 5e7e 41be
00000280: 892d 22be bef0 a4be 3e04 81bf fd92 92be
00000290: 2b76 773f 9dd0 3a3f 3fab aebd 60a4 853d
000002a0: d5e0 15bf 98b1 debf 9f65 653f b2f1 72bf
000002b0: 7556 023f 09f2 f43e 5497 f4be e5b7 ddbe
000002c0: a206 9e3d a241 3dbe e286 573e c002 853f
000002d0: a1bd 88be a012 07bf 3d58 793e 5a96 0a3f
000002e0: c068 603f a29e 62be 8d5d 1e3f a42b 5f3f
000002f0: 44fe f6be 4614 0fbf 5453 b93e ec7b 9bbc
00000300: 74d0 bb3e 50bf e03d dca8 adbe dca3 c4bf
00000310: 4a2d a83f ce09 c73d ba08 583e 8dc7 6f3e
00000320: 5d0d 863d 6a2d 9a3d a257 40c0 3cd0 bb3e
00000330: 83ae 41bf 40cc 8d3e 8794 3f3e 985c d33e
00000340: 94b5 5e3f 5283 96be 7341 383f b7ee 063f
00000350: a39a 0abf ff07 14bf 2bcb ddbd aef6 a93d
00000360: 097e c4bb 95e2 dfbe 321c 623f 8322 86bf
00000370: f1de f0bd 41a7 fe3e 8d04 533f 5d89 01bc
00000380: 3865 69bf bd32 59be bd0d 15bf fa4a a7be
00000390: ad7b f43e 351d 3f3c 1422 a83d 7c45 b23e
000003a0: 7481 fe3e f1e8 063e 8c62 813e 19a5 3fbf
000003b0: 0b0b 9abe e81c 83bf 7951 3cbe a8a2 2e3e
000003c0: f71c 3a3f 8ed3 0abd 4738 5d3d 540d c2be
000003d0: ef12 8ebe 6242 94bf 5d28 6f3e 92fa 30be
000003e0: 27ea a6bf ced5 d8be 8aad 94bf ccf3 fb3d
000003f0: 4c54 cb3f 9ab8 5d3e f63a 48bd 4ccb 183d
-0.11171913 -0.0040937266 0.041554384 0.042062845 3.306326 -0.61432356 0.25404397 0.5724535
-0.013949716 0.71748275 0.6139546 -1.0139556 -0.35872883 -1.0551169 -0.4815363 -0.15452845
0.022978906 0.7185329 -0.34875813 -0.41414964 1.2741008 0.8413734 0.0779803 0.04061169
0.17032073 0.002955902 2.5383964 1.0004224 -0.46288794 -0.3325649 -1.1716826 0.3203402
-0.34997478 -0.33357045 -0.24743132 -0.31183544 0.15113005 0.10764698 0.38302737 0.24537799
0.27042806 -0.8425051 0.3551611 1.3796412 -0.38822693 -0.615097 0.3404472 0.54585075
-0.08079639 -0.5677567 -0.1116917 0.04646054 0.63440835 0.17857711 0.5061723 -0.2374314
0.7659324 -1.5739319 0.34680346 -1.2724069 -0.051524557 0.60230005 0.22040644 0.030718254
0.111755714 0.30883268 0.52708644 0.077014096 0.96404403 1.0771866 -0.14026712 0.12857276
0.28911543 0.8499659 0.2125153 2.4647102 -0.42785928 -0.22525519 0.22468838 -0.67621404
0.07802993 0.41896877 0.64714426 -2.7480779 -0.8183427 -0.28309357 0.5967406 0.19019379
0.0773613 -0.69393176 2.1397414 -0.013723414 -0.6003223 0.55398595 -0.01347772 0.011998104
-0.31295678 0.123514734 -0.50862175 0.83043516 1.1522621 0.73042357 -0.08213548 -0.87584484
-0.5045569 -0.27171585 -0.3090962 -0.3713602 0.34145516 0.033966992 -0.024926133 0.26403025
-0.22494967 0.6970993 0.18142596 -1.0982707 -1.0560623 1.000588 -0.7343014 0.38855177
0.31067458 -0.16597375 -0.06906951 -0.041904304 -0.54623765 -1.2823466 -0.17874104 0.20836452
0.12187765 -0.43623754 -0.0030652997 0.98331815 -0.12014207 -0.6683946 0.4267892 0.18912946
-0.47805893 0.19606075 0.40046412 0.0577238 0.19068514 0.95785254 0.47387683 -0.49127924
-0.39389706 0.008396131 0.07516955 0.13547143 -0.36805198 -0.88072515 -0.31933427 0.3284812
-0.20569302 -0.2761594 -0.38089862 -1.1279985 -0.5587161 -0.976225 0.18675476 -0.18895862
-0.15837683 -0.32214922 -1.007942 -0.28627768 0.96664685 0.7297457 -0.08528756 0.06525493
-0.5854619 -1.7397947 0.89608186 -0.9490005 0.5091317 0.47840908 -0.47771704 -0.43304363
0.07716109 -0.18482068 0.21047547 1.0391464 -0.26707175 -0.52762794 0.24350066 0.5413567
0.87659836 -0.22130826 0.618615 0.87175965 -0.48240864 -0.5589031 0.36196387 -0.018979989
0.36682475 0.1097399 -0.33917892 -1.5362506 1.3138821 0.09718667 0.21097079 0.23415966
0.065455176 0.07528193 -3.0053487 0.36682308 -0.7565691 0.27694893 0.18709002 0.4128158
0.86995816 -0.29397064 0.7197487 0.52708 -0.54142207 -0.578247 -0.10829767 0.082990035
-0.00599647 -0.43727556 0.8832427 -1.0479282 -0.11761273 0.4973698 0.8242882 -0.007906285
-0.9117007 -0.21210761 -0.5822409 -0.3267439 0.47750607 0.011664678 0.08209625 0.34818637
0.4970814 0.13174798 0.25270498 -0.74861294 -0.3008655 -1.0243196 -0.18390454 0.17054236
0.72700447 -0.03389316 0.05400875 -0.37900794 -0.2774882 -1.1582758 0.23355241 -0.17283085
-1.3040208 -0.4235062 -1.161546 0.1230236 1.58851 0.21652451 -0.048884355 0.037303254

fc2.weight f4 [32, 32]
00000000: a301 30bf 2ba9 4a3f bcbb 253f 4ebb e7be
00000010: 85ec c93d c01a a53e a813 bb3e 072d f5be
00000020: 39ac 5c3f 302f 4ebc 2bde c2be 83e8 7f3e
00000030: 896e 053f 88bf f13d 73f1 25bf 60fc fc3e
00000040: 1dd7 f33d 4dd3 113f 907c 97bd ed01 20be
00000050: a5ff 353f 82a6 4bbf 0b56 193e b8c3 823e
00000060: 6d4d a53d d6a2 83bd a33c d63e 3999 0c3c
00000070: 149b 873e b750 283f 4025 163f 456d da3f
00000080: d7af 80be 79a3 eb3e 9838 513e f306 ee3d
00000090: e268 473d 1088 4e3e 7ac5 663e 4583 0ebf
000000a0: 3ab4 f53e 14fc 943e ab8a a0be 6ab4 f63d
000000b0: 5658 24be 5ae2 27bd 098b c6bf b1d3 473f
000000c0: 2d3a b13e e9d8 cebd b0c5 a5bc ca11 5e3e
000000d0: 8cde f83e 6766 4cbf 16dc dbbc 3d68 863d
000000e0: a86b 173e f952 173e 62e6 0a3f e564 20be
000000f0: c000 6e3d e180 dc3e 0093 223f 1dd0 a83f
00000100: 68ae 12bf c8b2 5e3f 9267 a33e 0c33 51be
00000110: 5da1 153e e98f 8c3e b136 513e a23c 1abf
00000120: eb03 383f 43cc babe 0d82 1cbe 59cb 203e
00000130: 5329 833d 618c 833d 4516 e4be cea6 143f
00000140: 9fde 7f3e 3221 c83e 932c 1a3e fbd8 cb3e
00000150: 06bb ab3e 5200 33bf 4d96 863e faba 643e
00000160: d184 13be 8b0c 38bb 69d2 173f 3b13 f7bd
00000170: a69f abbc f598 f63e 5fc7 dd3e b15e b33f
00000180: bda1 b4bd 8509 aebf 00ce c33e 5e6b bbbc
00000190: 082d 5f3e b6aa f83e f534 963e b8d2 2abf
000001a0: 74cb 893e 268c 1c3f b5e5 91bf 4e68 953e
000001b0: e80e 193f 8a4e ea3b 4ece c0bf 7b85 53bf
000001c0: 4d93 d03e e938 013f 10b8 f2bf 7578 fa3d
000001d0: aa2c 92bd bfde 35bf 44b9 2e3e 9f45 e23e
000001e0: 3abf b1be 626c ba3d 412e 683f a5c0 a43d
000001f0: 9226 dc3d 5dbb 31bf e913 a73e 802f 8e3f
00000200: 5e30 95be 95d3 263f fddd 643f 7034 a1be
00000210: 7a6f ebbd b96c 3d3e 3def 953e cfd5 43bf
00000220: b973 403f 36af 0dbe 68b9 06bf 669b c5bd
00000230: defa 253f c357 ffbd 927d 0abf 4353 383f
00000240: d2ad c13e 9393 3d3f 9823 7cbe fa50 a83d
00000250: 32dc bd3e 0457 59bf 00b4 743e d3e0 943d
00000260: 81a1 583e 0b3e 653e 11eb 65bd c52f 90be
00000270: f49f 133e 62ec 823e 71d6 933e b00e c93f
00000280: f1f6 b3be d9e9 ad3e bd87 013f a5fb fcbd
00000290: 3084 e63c 5d57 c8be 03e7 af3e 20a5 bbbd
000002a0: 7c8f 1b3f 0712 8dbd 5a18 dd3e 7bab 3cbf
000002b0: 6c87 b2be 68b0 b03e 11f0 0e3f e0d7 b2bf
000002c0: cbf0 82be 1ed5 513c 4641 603f f5c5 c63d
000002d0: e704 b63c fc57 39bf a42a f13d aa34 8f3d
000002e0: 67a0 f1bd cf9d 28bf 8a3d c33c 329a a53e
000002f0: 9f38 1bbb c35e 8e3e 6872 cebe 1a00 0d3f
00000300: e206 24bf 0be6 073f e61c 253f 9782 00be
00000310: 6b98 b63e 20ac a53e f8dc 103e 77ca 11bf
00000320: 2d6b 023f 63c7 bd3e 38dd 6fbe a1cb 983e
00000330: 3f56 f6bd c607 18be 1dce ddbe ace4 563e
00000340: 9ffa 983e e4ce fa3e f3ba 1abc 7f34 a0be
00000350: 4a91 123e 3a8c 3dbf 5506 953e b188 ef3e
00000360: d2e9 9bbd 7d98 8abd afc6 363f 9154 a3be
00000370: e9af 6c3b a866 193f ffb7 eb3e b9d7 a43f
00000380: 0cfa 2d40 e8d2 9abe 762b cebf a465 6c3f
00000390: 38e2 a9bf c006 08bc 39be 95bf 0203 bebf
000003a0: 274a 6abf 4b68 123e a787 a73e 10a7 57bf
000003b0: 7fd7 2b40 71b5 88bf 5768 ca3f 8757 f1bd
000003c0: 41e1 0bbf 41b0 febf 31ef 523e 4d71 9f3e
000003d0: 8fcc ccbf 592c 08be 4788 9fbd 74cb 85bf
000003e0: e22e a23f 0c9f 673f eb6b 393d b782 11c0
000003f0: 5e96 9abf fe8c 633e 1c38 a6bd 8f89 15bf
-0.687525 0.7916438 0.64739585 -0.4526009 0.09859566 0.3224697 0.36538434 -0.47885916
0.8620029 -0.012584493 -0.38060126 0.2499104 0.5212179 0.1180411 -0.6482155 0.49411297
0.11906264 0.56963044 -0.07396805 -0.15625735 0.7109321 -0.79550946 0.14974229 0.25539947
0.080714084 -0.06427543 0.41843137 0.008581453 0.26485503 0.6574816 0.5865059 1.7064596
-0.25134155 0.46023157 0.20431745 0.11622419 0.04868401 0.20169091 0.22536269 -0.5566905
0.47989064 0.2909857 -0.31355795 0.1204613 -0.16049322 -0.04098735 -1.551118 0.7805739
0.34614697 -0.10099966 -0.020235866 0.21686473 0.4860729 -0.79843754 -0.026838344 0.065628506
0.14787161 0.14777745 0.54257786 -0.15663488 0.058106184 0.43067077 0.63505554 1.3188511
-0.5729737 0.8699155 0.31914955 -0.20429629 0.14612336 0.27453545 0.2043102 -0.6024877
0.7188098 -0.36483964 -0.15283985 0.15702571 0.06404366 0.064232595 -0.4454824 0.58067024
0.24987267 0.39087826 0.15056066 0.3981398 0.33541125 -0.69922364 0.26286545 0.22336951
-0.14406134 -0.0028083648 0.59305435 -0.12064215 -0.02095015 0.48163572 0.4331617 1.4013273
-0.08819912 -1.3596655 0.38243103 -0.022878345 0.21794522 0.48567742 0.29337278 -0.6672778
0.26913035 0.6115135 -1.1398226 0.2918114 0.5978837 0.007150476 -1.5062959 -0.8262555
0.40737382 0.50477463 -1.8962421 0.122300066 -0.07137425 -0.7104301 0.1706286 0.44193742
-0.34716207 0.09102704 0.9069558 0.080445565 0.10749544 -0.6942652 0.32632378 1.1108246
-0.29138464 0.651666 0.8940123 -0.3148532 -0.11495872 0.18498506 0.29284087 -0.7649812
0.7517658 -0.13836369 -0.5262666 -0.096487805 0.6483592 -0.12467911 -0.54097855 0.7200205
0.37827927 0.74053305 -0.24622953 0.0821857 0.37082058 -0.848984 0.2389679 0.07269444
0.21155359 0.22386949 -0.05613238 -0.28161445 0.14416486 0.2557097 0.28874543 1.5707607
-0.3514934 0.33967474 0.50597745 -0.12352685 0.028139204 -0.39129153 0.34355935 -0.091623545
0.60765815 -0.06888204 0.4318264 -0.7369916 -0.34868944 0.34509587 0.5583506 -1.397213
-0.25574335 0.012807159 0.875996 0.09705726 0.022219134 -0.7239988 0.11775711 0.06992467
-0.117981724 -0.65865797 0.023833055 0.32344204 -0.0023684872 0.27806672 -0.4032166 0.5507828
-0.64073 0.5308539 0.6449722 -0.12549816 0.3566316 0.32357883 0.14146793 -0.5694956
0.5094479 0.37066182 -0.23424232 0.29842857 -0.12028169 -0.14846715 -0.43321314 0.20985669
0.2987871 0.4898597 -0.009443986 -0.3129005 0.14313236 -0.74042094 0.29106393 0.46783975
-0.07612957 -0.06767366 0.7139692 -0.31900457 0.0036115593 0.59922266 0.46038815 1.2878333
2.7183867 -0.30239034 -1.6107013 0.9234259 -1.3272161 -0.008302391 -1.1698676 -1.4844668
-0.915194 0.14297597 0.32720682 -0.8423929 2.6850278 -1.0680372 1.5813092 -0.11784273
-0.54640585 -1.9897538 0.20599057 0.3114113 -1.5999926 -0.13298167 -0.07789665 -1.0452714
1.2670557 0.9047706 0.045268934 -2.2736032 -1.2077138 0.22221753 -0.08116171 -0.5841302

fc3.weight f4 [4, 32]
00000000: aba8 02bf bb48 22bf be08 e2be 7631 91be
00000010: e2a9 f8be 68e5 0f3d 55d6 fabe 3168 2440
00000020: cce2 1e40 760f 3240 6722 cdbc 0b3e 88be
00000030: bd74 c5be 3356 0f40 432d 07bf 5822 28bf
00000040: 18ca 7c40 2809 39bf 5b19 9fbf f010 fcbe
00000050: 0258 37bf 6e25 0a40 5063 dcbe c8c5 07bd
00000060: 3798 93be 4ece 81be e1b6 c93e 6405 e2bd
00000070: f305 30bf ed23 8fbe e0b6 5040 736b f5be
00000080: 4a6b b7be f915 e0be f92c e6be 979d 183e
00000090: 91a2 32bf 8d4e a6bf 4108 84be c96f 3a40
000000a0: 9dcd 1d40 aa16 4340 03cb c6be 483e 4ebf
000000b0: eb35 13bf 45d8 1740 b88e c2be a371 aebe
000000c0: de79 6440 5387 2ebf 91cf 4bbf 5202 23bf
000000d0: 5b30 f7bd 2911 e83f 756b 18bf deb6 f7be
000000e0: 858c 16be 9c1f 28bf 1616 2a3f 3d59 063d
000000f0: 3805 0fbf 35d2 d73c 60da 4b40 6522 163a
00000100: 467c 20bf 9420 0bbf 227b 94be 5a86 c2bf
00000110: bbd3 09bf dd4e c6bd a94e 36bf 92bf 2c40
00000120: 9e0b 4040 65e4 2040 060a 04bf 4b45 9bbe
00000130: 5bf7 14bf 5776 2d3f adc4 8cbe 0c7e d7be
00000140: 3b1a ef3f fc89 98be ce69 94bf 264a 72be
00000150: 1606 1d3c c3fb 1040 d0fe f6be e617 50bf
00000160: 2d89 56bf 9f48 90be 026c 4640 0df1 c63d
00000170: b187 2abf 0267 41bf f310 d63f cf03 0cbe
00000180: 58e8 aebe 04ce e8be dd6a eebe 3c56 81be
00000190: 65e2 e5bd 7869 60bf bdfa febe d528 a43f
000001a0: 2971 2440 22da 7d40 fd0a c3be 843d 01bf
000001b0: 35dc f3be d719 1240 5f15 d7be eb73 a8bd
000001c0: 65b3 6240 b037 f3bd 8ba9 a1bf 9563 e0be
000001d0: 425c e7be 8895 0240 97c3 a0be 25da a2be
000001e0: fece 19bf 3cfc fabe 1b38 b63e 8055 883d
000001f0: 4ce3 b0be 9d0c 82be a52f 6340 bec4 24bf
-0.51038617 -0.6339223 -0.44147295 -0.28358048 -0.4856711 0.03513089 -0.48991647 2.5688593
2.4825926 2.7821937 -0.025040818 -0.26609835 -0.38565627 2.2396362 -0.5280344 -0.65677404
3.9498348 -0.72279596 -1.2429613 -0.49231672 -0.71618664 2.1585345 -0.4304452 -0.033147603
-0.28827068 -0.2535271 0.39397338 -0.110361844 -0.6875908 -0.27957097 3.2611618 -0.4793354
-0.35824043 -0.43766764 -0.44956186 0.14903866 -0.69779307 -1.2992722 -0.25787547 2.9130728
2.4656746 3.0482583 -0.3882676 -0.80563784 -0.5750415 2.372575 -0.3799951 -0.34071073
3.5699382 -0.6817524 -0.79613596 -0.63675416 -0.1206977 1.8130237 -0.59538966 -0.48381704
-0.14702041 -0.6567323 0.6643995 0.032799948 -0.5586734 0.026345352 3.1852036 0.0005727171
-0.62689626 -0.54346585 -0.29000193 -1.5197251 -0.538387 -0.09683011 -0.71213776 2.6991925
3.000709 2.51394 -0.51577795 -0.30326304 -0.58189934 0.677587 -0.27493802 -0.42088354
1.867988 -0.29792774 -1.1594789 -0.23661098 0.0095839705 2.2653663 -0.48241282 -0.81286466
-0.83803064 -0.28180405 3.1003423 0.097139455 -0.666133 -0.755478 1.6723922 -0.13673328
-0.3416164 -0.45469677 -0.46565905 -0.25261104 -0.11224822 -0.8766093 -0.49800673 1.2824961
2.5694067 3.9664388 -0.3809432 -0.5048449 -0.47628942 2.2828271 -0.42008492 -0.082252346
3.5421994 -0.11875856 -1.2629865 -0.43825975 -0.45187575 2.0403767 -0.31399223 -0.31807056
-0.6008147 -0.49020565 0.3558968 0.06656933 -0.34548414 -0.25400248 3.549783 -0.64362705
