dqn/exercise/models/checkpoint689_178.46733707339394.pth (torch, 7111 bytes, 3 tensors)

fc1.weight f4 [32, 8]
-0.045051813 -0.0046760016 0.087499335 0.07441882 3.3004398 -0.5623773 0.30206767 0.5507395
-0.008218268 0.58388764 0.35550922 -0.9299481 -0.2635589 -1.197213 -0.44721425 -0.20753226
0.03929889 0.6835393 -0.27829045 -0.45560533 1.2787789 0.7674469 0.073849276 0.067162305
0.08232414 -0.018111765 2.3249762 0.93290406 -0.5380555 -0.49519286 -1.1492938 0.30293056
-0.48542866 -0.49318135 -0.22993734 -0.27084154 0.104755834 0.057962224 0.3549389 0.23737107
0.36129335 -0.93090934 0.33703023 1.221813 -0.43438357 -0.5532602 0.2521351 0.37682712
-0.16801673 -0.32354987 -0.084711224 -0.04837542 0.6157235 0.18217112 0.4823117 -0.25056663
0.7229346 -1.3990045 0.22027072 -1.3126509 0.064736344 0.58276576 0.1522776 0.011017486
0.17953667 0.3382548 0.52901405 0.033589542 0.8813173 1.0331271 -0.10071667 0.09421777
0.35386568 0.87305623 0.35184383 2.2680206 -0.49337476 -0.05062992 0.24108447 -0.67621404
0.062314197 0.44633842 0.6433044 -2.5906353 -0.90097725 -0.37284666 0.53202856 0.10536282
0.33228114 -0.7061889 1.7725207 0.09043774 -0.32002264 0.4670857 -0.053600997 0.050951306
-0.3474406 0.12430903 -0.4038782 0.8325779 1.1286441 0.7882792 -0.07516265 -0.6492595
-0.5829739 -0.38177356 -0.30601695 -0.35814816 0.30834657 0.010841711 -0.008129348 0.25828174
-0.17743587 0.76670843 0.281349 -1.078801 -1.0105262 0.90324533 -0.80010587 0.34300748
0.29364654 -0.20066789 -0.16203366 -0.010148403 -0.55374515 -1.2295948 -0.30144328 0.006695344
0.19193332 -0.5282493 -0.03454997 0.9547828 -0.053114176 -0.58526343 0.3604747 0.14410987
-0.5184733 0.21285331 0.4469277 0.016202716 0.12315603 0.9116221 0.48197508 -0.504277
-0.45883662 0.025827527 0.015214012 0.1600227 -0.16493043 -0.8681863 -0.32579255 0.29994926
-0.21298824 -0.28523034 -0.31629136 -1.1764153 -0.500234 -0.81860614 0.17532791 -0.18357103
-0.2344793 -0.3579257 -0.8714696 -0.34961927 0.85835445 0.6398106 -0.07770009 0.05976029
-0.24817283 -1.4791312 0.73939234 -0.91383374 0.54018044 0.5511725 -0.539567 -0.28779846
0.02557879 -0.31071284 0.18003792 0.7942252 -0.27897942 -0.49832267 0.2241965 0.5469569
1.0284094 -0.26691252 0.57681787 0.84388 -0.4199838 -0.35220516 0.31112975 -0.022378257
0.37002572 0.058569655 -0.37596598 -1.5648115 1.3165479 0.08672951 0.18335529 0.2084148
-0.021686386 0.11118056 -2.9418454 0.36779425 -0.56177187 0.20968321 0.13256282 0.30433533
0.9312763 -0.31355518 0.7102187 0.48679587 -0.5814416 -0.38919982 -0.029584095 0.061418384
-0.11449775 -0.47966188 0.80520225 -1.1311771 -0.042222917 0.5192469 0.70681936 0.0009821581
-1.0105671 -0.27388805 -0.6100219 -0.27697626 0.43322304 -0.037364278 0.064175434 0.35218844
0.6699621 0.14041612 0.18931553 -0.77065206 -0.07762607 -0.97285974 -0.23136295 0.08509173
0.851422 -0.028813655 0.022956299 -0.44333646 -0.25006148 -1.0221508 0.23283 -0.17545563
-1.4037791 -0.50942075 -1.1255633 0.08061343 1.5218799 0.14740978 -0.06079159 0.00968722
00000000: 4088 38bd 2539 99bb da32 b33d e568 983d
00000010: 683a 5340 f5f7 0fbf 9da8 9a3e 44fd 0c3f
00000020: eaa5 06bc a979 153f 4e05 b63e 1411 6ebf
00000030: 31f1 86be 473e 99bf 44f9 e4be 5683 54be
00000040: dff7 203d 6efc 2e3f 167c 8ebe 1a45 e9be
00000050: 07af a33f 6677 443f 4a3e 973d 648c 893d
00000060: 8f99 a83d 205f 94bc 69cc 1440 cdd2 6e3f
00000070: 01be 09bf eb89 fdbe 0f1c 93bf b719 9b3e
00000080: 1b8a f8be 4482 fcbe b274 6bbe beab 8abe
00000090: 3a8a d63d cc69 6d3d 8dba b53e 6711 733e
000000a0: 71fb b83e 1350 6ebf 3a8f ac3e 5e64 9c3f
000000b0: 8667 debe 76a2 0dbf da17 813e 7cef c03e
000000c0: 940c 2cbe 54a8 a5be 147d adbd 4e25 46bd
000000d0: 0ea0 1d3f 118b 3a3e 8ff1 f63e 454a 80be
000000e0: 3e12 393f 9412 b3bf a68e 613e f204 a8bf
000000f0: 7d94 843d 2330 153f a9ee 1b3e b082 343c
00000100: 76d8 373e bc2f ad3e 776d 073f 3095 093d
00000110: 039e 613f 823d 843f 8b44 cebd 3ff5 c03d
00000120: e22d b53e 9d80 5f3f e024 b43e 4027 1140
00000130: 9e9b fcbe 5261 4fbd d9de 763e 5d1c 2dbf
00000140: 2c3d 7f3d 7886 e43e 99af 243f f8cc 25c0
00000150: 72a6 66bf c2e5 bebe 0633 083f 76c8 d73d
00000160: c120 aa3e ccc8 34bf f5e1 e23f 6c37 b93d
00000170: 02da a3be db25 ef3e b88c 5bbd 51b2 503d
00000180: bce3 b1be bc95 fe3d 20c9 cebe d323 553f
00000190: 6977 903f aacc 493f e0ee 99bd df35 26bf
000001a0: c73d 15bf d377 c3be 41ae 9cbe 325f b7be
000001b0: 9adf 9d3e 6fa1 313c f530 05bc 813d 843e
000001c0: c0b1 35be 0147 443f fa0c 903e 2716 8abf
000001d0: ec58 81bf 163b 673f bdd3 4cbf ad9e af3e
000001e0: d758 963e e27b 4dbe 27ec 25be 7d45 26bc
000001f0: 3ec2 0dbf 5d63 9dbf c656 9abe 9e64 db3b
00000200: 2b8a 443e 593b 07bf 4584 0dbd a56c 743f
00000210: 408e 59bd d3d3 15bf 2490 b83e 8a91 133e
00000220: abba 04bf 38f6 593e b5d3 e43e 8fbb 843c
00000230: 3b39 fc3d 1160 693f 70c5 f63e 4c18 01bf
00000240: a2ec eabe 4094 d33c 3144 793c fedc 233e
00000250: 86e3 28be 7541 5ebf 48ce a6be f392 993e
00000260: 9719 5abe b609 92be f1f0 a1be c794 96bf
00000270: 560f 00bf 2c90 51bf 2989 333e 0bfa 3bbe
00000280: 571b 70be 0a42 b7be a218 5fbf 4c01 b3be
00000290: 1ebd 5b3f a1ca 233f 3a21 9fbd 35c7 743d
000002a0: 0521 7ebe 2c54 bdbf d148 3d3f 02f1 69bf
000002b0: 4449 0a3f a419 0d3f 1021 0abf 525a 93be
000002c0: 9c8a d13c c115 9fbe dc5b 383e 5852 4b3f
000002d0: 64d6 8ebe 2624 ffbe c493 653e 5e05 0c3f
000002e0: eba2 833f c2a8 88be 56aa 133f 8508 583f
000002f0: 1e08 d7be 3c54 b4be 664c 9f3e 9b52 b7bc
00000300: 0374 bd3e bce6 6f3d 9d7e c0be be4b c8bf
00000310: a484 a83f 3e9f b13d 7dc1 3b3e b06a 553e
00000320: a6a7 b1bc a2b2 e33d 3247 3cc0 874f bc3e
00000330: 48d0 0fbf 32b7 563e 8cbe 073e d7d1 9b3e
00000340: 2068 6e3f 4e8a a0be e5d0 353f 4f3d f93e
00000350: 5bd9 14bf 3345 c7be 585a f2bc d891 7b3d
00000360: cc7d eabd 3e96 f5be bc21 4e3f 69ca 90bf
00000370: f0f1 2cbd 5ded 043f 1df2 343f c2bb 803a
00000380: 435a 81bf 0e3b 8cbe 652a 1cbf d5cf 8dbe
00000390: 69cf dd3e 490b 19bd 696e 833d 0b52 b43e
000003a0: a382 2b3f 3ec9 0f3e eedb 413e 7449 45bf
000003b0: 6bfa 9ebd 560d 79bf 69ea 6cbe 9344 ae3d
000003c0: cbf6 593f 9d0a ecbc d90e bc3c fffc e2be
000003d0: 0f08 80be d6d5 82bf fd6a 6e3e a4aa 33be
000003e0: 09af b3bf 6669 02bf 7512 90bf a718 a53d
000003f0: f6cc c23f 97f2 163e 9a00 79bd 25b7 1e3c

fc2.weight f4 [32, 32]
-0.6961046 0.8072484 0.60944384 -0.40722045 0.13074973 0.33200976 0.3633367 -0.38601133
0.79981995 0.06600166 -0.3490323 0.25745428 0.57772547 0.1714554 -0.5878622 0.47357595
0.109679066 0.61614853 -0.012457767 -0.08455901 0.6358856 -0.64210373 0.14955486 0.31196985
0.04423399 0.014325036 0.35698953 0.051632453 0.31674317 0.6116391 0.58942837 1.7164931
-0.266485 0.5601019 0.1917484 0.07889046 0.051623203 0.19736598 0.20058705 -0.4809445
0.44927937 0.25662616 -0.25506207 -0.04277871 -0.05616207 -0.0018939907 -1.297813 0.73862845
0.3229902 -0.024760881 0.04512311 0.26545465 0.42417443 -0.61452985 -0.04736895 0.10788104
0.12762052 0.13614506 0.49112982 -0.12769197 0.0977267 0.34912622 0.6101159 1.3336288
-0.5727124 0.8856481 0.26140335 -0.15115935 0.1599506 0.27597964 0.21497753 -0.4799393
0.63842624 -0.27476224 -0.14379661 0.05735354 0.1728311 0.1166517 -0.42882508 0.55372804
0.2262368 0.42774698 0.25809968 0.44699717 0.27762124 -0.5169881 0.25437602 0.26415965
-0.17372002 0.043251395 0.5442434 -0.10955982 0.015284489 0.43862972 0.39071822 1.4216297
-0.09536269 -0.72240293 0.3691574 0.14634469 0.27445802 0.5603699 0.2381339 -0.67764366
0.23130634 0.3990452 -0.97060955 0.18658939 0.60203236 0.07854781 -1.1305563 -0.7822301
0.40487152 0.51681906 -1.6240041 0.15357648 -0.11043646 -0.6512034 0.26384833 0.40286022
-0.35650074 0.16194236 0.7491521 0.13171758 0.19209985 -0.6806363 0.20279077 1.1169113
-0.33019435 0.66367584 0.8306888 -0.33183917 -0.09578886 0.20828784 0.2193228 -0.69807774
0.63514274 -0.04792633 -0.4934804 -0.06805768 0.67681354 -0.07096803 -0.4712331 0.7458119
0.35034853 0.66389555 -0.14454436 0.1777094 0.28410238 -0.7778545 0.25333765 0.1233311
0.15802652 0.2504315 -0.0013708016 -0.28825864 0.19836655 0.2716409 0.2592321 1.5844388
-0.3560912 0.3934365 0.45569193 -0.14947951 0.021440374 -0.35745406 0.39774412 0.00948453
0.58013856 0.12294103 0.34372112 -0.74269414 -0.1679905 0.32055616 0.4666199 -1.3334094
-0.24748614 0.05130023 0.9391862 0.15498763 0.06430281 -0.61049193 0.11335563 0.13047177
-0.20293823 -0.6347883 0.051524226 0.33375376 -0.050357144 0.2523195 -0.62423414 0.56979173
-0.6482166 0.52905655 0.60103077 -0.033100333 0.3771211 0.339118 0.121620946 -0.52371776
0.44635877 0.38563955 -0.22913949 0.22755936 -0.07181858 -0.102679476 -0.39286444 0.21087162
0.28343573 0.50402474 0.085894 -0.28454298 0.06973642 -0.63750345 0.29743335 0.51489276
-0.12521347 -0.023841418 0.67825085 -0.30643818 0.044811644 0.5828751 0.45944878 1.2901852
2.5765915 -0.16515215 -1.7874869 0.96821994 -1.2953846 0.07949196 -1.3671348 -1.5829072
-1.0402703 0.09831866 0.44916186 -0.78118825 2.3598294 -1.1002336 1.6159886 -0.090132095
-0.40276816 -1.9472708 0.26722693 0.39164022 -1.7067548 -0.54015017 -0.0052311257 -0.8474869
1.0530726 0.8409966 0.1061121 -2.1009965 -1.2011536 0.24758938 -0.0034265593 -0.6379447
00000000: e933 32bf d5a7 4e3f 8304 1c3f 337f d0be
00000010: 42e3 053e 2ffd a93e 4507 ba3e 47a3 c5be
00000020: 00c1 4c3f e12b 873d 5db4 b2be 0cd1 833e
00000030: d1e5 133f 0192 2f3e 237e 16bf 8c78 f23e
00000040: 6b9f e03d e9bb 1d3f a91b 4cbc 462d adbd
00000050: 66c9 223f e960 24bf e924 193e 83ba 9f3e
00000060: b32e 353d 8eb3 6a3c 55c7 b63e 8d7c 533d
00000070: 292c a23e 6194 1c3f c7e4 163f 0cb6 db3f
00000080: b970 88be d762 0f3f b159 443e 5291 a13d
00000090: da72 533d 4f1a 4a3e b166 4d3e 5c3e f6be
000000a0: f207 e63e 8164 833e 7f97 82be bb38 2fbd
000000b0: 330a 66bd c83f f8ba bd1e a6bf c116 3d3f
000000c0: f95e a53e 55d7 cabc 03d3 383d ace9 873e
000000d0: 642d d93e d451 1dbf f205 42bd bcf0 dc3d
000000e0: f4ae 023e 9c69 0b3e 5e75 fb3e afc1 02be
000000f0: f024 c83d acc0 b23e 8e30 1c3f 59b4 aa3f
00000100: 489d 12bf d5b9 623f a9d6 853e 84c9 1abe
00000110: 17ca 233e 344d 8d3e 1223 5c3e 9bba f5be
00000120: e76f 233f a3ad 8cbe 6b3f 13be 8ceb 6a3d
00000130: a3fa 303e 16e7 ee3d f68e dbbe 1fc1 0d3f
00000140: 9faa 673e a701 db3e a425 843e d0dc e43e
00000150: 5f24 8e3e 5559 04bf 933d 823e ef3f 873e
00000160: a9e3 31be 6028 313d 8953 0b3f e660 e0bd
00000170: cb6b 7a3c 1394 e03e 380c c83e f6f7 b53f
00000180: 844d c3bd 66ef 38bf 3302 bd3e 62db 153e
00000190: c385 8c3e 6774 0f3f 60d9 733e 0e7a 2dbf
000001a0: 92db 6c3e a74f cc3e de79 78bf 4a11 3f3e
000001b0: cb1e 1a3f addd a03d 12b6 90bf 3b40 48bf
000001c0: 524b cf3e 414e 043f 5edf cfbf 2743 1d3e
000001d0: 832c e2bd 44b5 26bf 2117 873e b243 ce3e
000001e0: 4487 b6be 38d4 253e 6fc8 3f3f f9e0 063e
000001f0: d3b5 443e 2e3e 2ebf 62a8 4f3e f3f6 8e3f
00000200: 3c0f a9be a9e6 293f 05a8 543f d3e6 a9be
00000210: f32c c4bd 6849 553e 2896 603e 39b5 32bf
00000220: b798 223f 664e 44bd 77a9 fcbe d361 8bbd
00000230: a743 2d3f b057 91bd 7745 f1be 87ed 3e3f
00000240: e260 b33e 0ff5 293f 7003 14be 74f9 353e
00000250: de75 913e 7921 47bf 79b5 813e 0495 fc3d
00000260: b4d1 213e 8f38 803e 78ac b3ba a396 93be
00000270: 9a20 4b3e 8414 8b3e 12ba 843e e4ce ca3f
00000280: 9651 b6be 8270 c93e 7450 e93e 2811 19be
00000290: b9a3 af3c 3804 b7be 1ea5 cb3e 0165 1b3c
000002a0: f683 143f 82c8 fb3d 37fc af3e 3421 3ebf
000002b0: b405 2cbe f01f a43e cee8 ee3e 29ad aabf
000002c0: 026d 7dbe 3120 523d 826e 703f 14b5 1e3e
000002d0: 31b1 833d 3349 1cbf ff26 e83d 649a 053e
000002e0: 0acf 4fbe 7c81 22bf 110b 533d c6e1 aa3e
000002f0: 4b43 4ebd 0630 813e cfcd 1fbf dfdd 113f
00000300: 86f1 25bf 4070 073f 27dd 193f 3794 07bd
00000310: 0416 c13e e0a0 ad3e 6714 f93d 5e12 06bf
00000320: 2389 e43e 8c72 c53e 8ba3 6abe 5205 693e
00000330: 9f15 93bd 9e49 d2bd 8725 c9be bbee 573e
00000340: 7d1e 913e c407 013f 32e9 af3d 9eaf 91be
00000350: f8d1 8e3d 6d33 23bf 2f49 983e 03d0 033f
00000360: f637 00be 144f c3bc d9a1 2d3f 77e5 9cbe
00000370: 6a8c 373d 4d37 153f df3c eb3e ca24 a53f
00000380: e0e6 2440 a51d 29be 5fcc e4bf 43dd 773f
00000390: 2acf a5bf aecc a23d 46fe aebf b49c cabf
000003a0: 9427 85bf 4b5b c93d 8bf8 e53e f4fb 47bf
000003b0: 7207 1740 74d4 8cbf b7d8 ce3f 2d97 b8bd
000003c0: a137 cebe 2b40 f9bf f8d1 883e 1185 c83e
000003d0: f176 dabf 4847 0abf dd69 abbb e7f4 58bf
000003e0: 15cb 863f 8e4b 573f 4d51 d93d ba76 06c0
000003f0: 67bf 99bf 1288 7d3e 2090 60bb 5850 23bf

fc3.weight f4 [4, 32]
-0.4649847 -0.4872989 -0.37077376 -0.19261341 -0.4259567 -0.051385023 -0.40684015 2.4535549
2.5955193 2.8966112 -0.041390188 -0.21826471 -0.35538518 1.9249735 -0.45331278 -0.6226659
3.8268898 -0.6780939 -1.1109087 -0.4456189 -0.69410545 2.003398 -0.36022922 -0.034354847
-0.19168925 -0.2149856 0.2713839 -0.110361844 -0.6324523 -0.23847479 3.067787 -0.42195892
-0.34199363 -0.45915544 -0.4153304 0.04573957 -0.6292711 -1.1366175 -0.20513034 2.8236687
2.304831 2.9198263 -0.38433054 -0.7156026 -0.55919605 2.1512816 -0.36488143 -0.3182899
3.6321762 -0.593914 -0.7063065 -0.60555184 -0.1301204 1.7458367 -0.55882806 -0.470643
-0.116285816 -0.60239017 0.5004479 0.032799948 -0.5326257 -0.0039467094 3.091451 -0.049149666
-0.600365 -0.50845253 -0.27645358 -1.4079748 -0.5157517 0.018969921 -0.6914007 2.5780365
2.9789321 2.5496616 -0.50080514 -0.278011 -0.5626541 0.4748239 -0.2609708 -0.39620972
1.8533655 -0.27046722 -1.1007483 -0.22163908 0.034505367 2.1884203 -0.45680153 -0.75853276
-0.77148193 -0.25989684 3.045173 0.097139455 -0.65119606 -0.7381834 1.4665878 -0.14176252
-0.35485348 -0.45385095 -0.477288 -0.2969541 -0.117215335 -0.8805845 -0.47650594 1.1401584
2.5149238 3.9195871 -0.39097738 -0.5035868 -0.48684955 2.1893325 -0.43386972 -0.088160224
3.5126462 -0.1289936 -1.0984547 -0.44570807 -0.42746723 1.9722792 -0.31788197 -0.35476938
-0.49293992 -0.51117676 0.28000593 0.06656933 -0.34547615 -0.23615882 3.423851 -0.61056894
00000000: 7912 eebe 3e7f f9be 0fd6 bdbe 733c 45be
00000010: ff16 dabe 1a79 52bd 5a4d d0be 0b07 1d40
00000020: fd1c 2640 1462 3940 c288 29bd c980 5fbe
00000030: 0cf5 b5be 8865 f63f 9d18 e8be 0867 1fbf
00000040: c3eb 7440 9097 2dbf 4232 8ebf 2928 e4be
00000050: e5b0 31bf ac37 0040 f76f b8be abb7 0cbd
00000060: 304a 44be 2f25 5cbe d5f2 8a3e 6405 e2bd
00000070: 65e8 21bf bc32 74be 9f56 4440 000b d8be
00000080: ca19 afbe 6c16 ebbe 30a6 d4be 6a59 3b3d
00000090: e917 21bf af7c 91bf b00d 52be fdb6 3440
000000a0: 5a82 1340 6fde 3a40 f9c6 c4be bb31 37bf
000000b0: 7927 0fbf 99ae 0940 bdd1 babe e5f6 a2be
000000c0: 9375 6840 bf0a 18bf 81d0 34bf 7205 1bbf
000000d0: 483e 05be 9477 df3f 5b0f 0fbf 1ff8 f0be
000000e0: 4227 eebd 3e36 1abf 5b1d 003f 3d59 063d
000000f0: 285a 08bf 6653 81bb 55da 4540 2951 49bd
00000100: 85b1 19bf f229 02bf 538b 8dbe 8538 b4bf
00000110: 4e08 04bf cf66 9b3c a3ff 30bf 8dfe 2440
00000120: d3a6 3e40 a82d 2340 c434 00bf 7557 8ebe
00000130: 190a 10bf 1e1c f33e f79d 85be 00dc cabe
00000140: 153b ed3f ae7a 8abe 52e5 8cbf 5bf5 62be
00000150: 8055 0d3d 140f 0c40 e4e1 e9be 342f 42bf
00000160: d77f 45bf 3311 85be 1de4 4240 0df1 c63d
00000170: c9b4 26bf 96f9 3cbf 26b9 bb3f 322a 11be
00000180: 5baf b5be 275f e8be 185f f4be 5e0a 98be
00000190: 980e f0bd fc6d 61bf 96f8 f3be b6f0 913f
000001a0: 83f4 2040 84da 7a40 302e c8be 11eb 00bf
000001b0: 5844 f9be 061e 0c40 2c24 debe 598d b4bd
000001c0: 32cf 6040 e616 04be 2a9a 8cbf d933 e4be
000001d0: fcdc dabe a573 fc3f 6dc1 a2be 55a4 b5be
000001e0: 9f62 fcbe 7bdc 02bf f05c 8f3e 8055 883d
000001f0: 40e2 b0be 9ed3 71be 6020 5b40 3f4e 1cbf
