dqn/exercise/models/checkpoint409_-33.53269268148167.pth (torch, 7111 bytes, 3 tensors)

fc1.weight f4 [32, 8]
000000 69 a1 a0 3e 0b 9a 02 3b 5f d5 2b bf 56 ca 85 3d
       0.31373146 0.0019928243 -0.67122453 0.06532733
000010 0b 71 1a 40 fe 9d df be 4d dc c8 3e e3 04 f6 3e
       2.4131496 -0.43675226 0.39230576 0.48050603
000020 d6 8a 46 bd d7 65 8c 3e 44 c3 d5 bd 1b 37 3c be
       -0.048472248 0.27421448 -0.104376346 -0.18380396
000030 90 1b 4c bf 58 20 a0 bf 48 82 a3 be 6e 0b 92 be
       -0.7972956 -1.250987 -0.31935334 -0.28524345
000040 39 e7 5a 3e 40 09 88 3e df ef 36 be 45 7d 00 bf
       0.21377267 0.26569557 -0.17864941 -0.50191146
000050 92 bd 3a 3f 1a f6 81 3f 58 a0 0d bd 3b 16 91 3e
       0.7294551 1.0153229 -0.034576744 0.28337273
000060 30 4d 26 3f d3 ee 4b bb e8 4b 9e 3f d1 c3 63 3e
       0.6496153 -0.0031117692 1.2366915 0.22242667
000070 a2 16 84 bf 19 6f 17 bf 82 5a 4e be 13 27 50 3e
       -1.0319407 -0.59153897 -0.20151713 0.20327406
000080 fa 7e d2 be 2b 37 b2 bf 9c a2 87 be f7 a4 89 bf
       -0.411125 -1.3923086 -0.2649125 -1.0753468
000090 dd d0 20 be 32 6e 50 3e 97 14 95 3e 3d 40 96 3e
       -0.15704675 0.20354536 0.2911727 0.29345885
0000a0 eb 06 32 3f 3d 3e 8a bf c4 23 dc 3e 33 51 de be
       0.69541806 -1.0800244 0.42996037 -0.43421325
0000b0 c2 a0 46 bf a5 58 28 bf 45 38 8c 3e 25 e6 a7 3e
       -0.77589047 -0.6576026 0.2738668 0.32792774
0000c0 a9 59 2f ba cc a1 7c bf ac 07 8f bd 1f 0e 40 bf
       -0.00066890806 -0.9868438 -0.06983885 -0.7502155
0000d0 f2 d7 ff 3e 14 4b 9b 3e e5 f2 ea 3e 8d 7f 9a be
       0.4996944 0.30330718 0.4588844 -0.3017544
0000e0 a0 c5 06 3f d3 26 dd bf 39 6c be 3b 5d b2 8d bf
       0.526453 -1.7277473 0.005811241 -1.1070057
0000f0 64 bf 16 3e 93 48 52 3e a7 c0 81 3d aa dc bd 3d
       0.14721447 0.20535497 0.06335574 0.09270604
000100 98 27 29 3f d6 f6 84 3d a0 fc 11 3e ee 62 54 be
       0.6607604 0.06492393 0.14256525 -0.20740864
000110 d9 0e 36 3f fd 90 97 3f a8 d8 5d 3d 7b a4 2d bd
       0.71116406 1.1841122 0.054161698 -0.04239319
000120 4b 5e ac 3e 42 86 58 3f 6f ea 58 3e 78 76 aa 3f
       0.3366569 0.8457986 0.2118318 1.3317404
000130 0e 97 97 3c da 2a 12 bf ec d9 aa 3d bf 5a 23 bf
       0.018504646 -0.57096636 0.083423465 -0.6381034
000140 e3 82 6c bd fb 6d 07 3f fd ee 2b 3f 8f 16 f6 bf
       -0.05774201 0.5290219 0.6716154 -1.9225634
000150 20 d3 13 bf 40 de 13 bf 72 d4 de 3e cc 77 24 bd
       -0.57744026 -0.57761 0.43521458 -0.04015331
000160 fd c1 62 3f fc 90 4c bf 9d 54 79 3f 4a 6c 21 be
       0.8857725 -0.7990873 0.97394735 -0.15763965
000170 d4 52 c1 3e 95 c9 a9 3e ab 53 b0 bd 3a 7b 9b 3d
       0.37758505 0.33161607 -0.086097084 0.07591863
000180 f4 4e ea bc 7d 4f 8c be e9 53 af be 03 b1 49 be
       -0.0286021 -0.27404395 -0.34243706 -0.19696431
000190 32 87 55 3f bd ba 7f 3f de 81 b8 3c d9 4c 96 be
       0.83409417 0.99894315 0.022522863 -0.29355505
0001a0 25 76 04 bf 0f 5c 81 bf 02 95 70 be b7 2c 8a bf
       -0.51742774 -1.0106219 -0.23494342 -1.0794896
0001b0 70 eb 34 3e 1f 67 06 3e a6 5f 4e bc c1 74 91 3e
       0.17667937 0.13125275 -0.012596047 0.2840939
0001c0 c4 a3 db bd cb 26 64 3f 49 90 31 3f 6b 1f 99 bf
       -0.10724595 0.89121693 0.69360787 -1.1962713
0001d0 67 00 97 be 48 ba 01 3f 51 a6 19 bf c6 58 2e 3e
       -0.29492494 0.5067487 -0.60019404 0.17026052
0001e0 2f c7 3a be fb 65 9d be b1 5d 5d be 03 9a 49 3e
       -0.18240045 -0.30741867 -0.21617772 0.19687657
0001f0 3d f5 2e bf 96 75 94 bf fe 01 70 be d3 76 4c be
       -0.68342954 -1.1598384 -0.2343826 -0.19967203
000200 1e 16 11 3f ac 41 46 bf e5 9b 69 3e 1f ad 8f be
       0.56674373 -0.7744396 0.22813375 -0.28061768
000210 8e ab 1d bf 51 49 1a bf d2 02 be 3e 2b 83 7d 3e
       -0.61589897 -0.6026812 0.37111527 0.24757068
000220 42 c8 dc be 65 a7 de 3d f9 1f 85 3e 18 e6 ff 3c
       -0.43121535 0.10871772 0.26000956 0.031237647
000230 6a b1 2c 3f 9b 2b ae 3f 74 68 8e 3e ad 6c 0d bf
       0.6745821 1.3607057 0.27814066 -0.5524395
000240 c0 ec d5 be 90 04 8a 3d cf 1c ff 3b f1 0d bb bc
       -0.41782188 0.067391515 0.0077854167 -0.022833796
000250 95 da d3 be 55 7d 99 bf ff 23 de be cc 42 56 3e
       -0.41377702 -1.1991373 -0.43386838 0.20923918
000260 89 9d 30 be 25 94 64 bf f3 ac 78 3d 20 9e 71 bf
       -0.17247595 -0.8928855 0.060711812 -0.94381905
000270 bf f5 65 be 11 d9 1b bf 29 ac d5 3c 07 0a c1 bd
       -0.22457026 -0.6087809 0.026083069 -0.09425741
000280 3b 33 37 3d f9 fc 89 bf 85 45 ae be b1 aa 88 bf
       0.04472659 -1.0780326 -0.34037414 -1.0677091
000290 3a 9e 94 3e e9 4d a1 3e 48 9b 8b bc 41 ff 3f 3e
       0.29026967 0.31504753 -0.017041817 0.18749715
0002a0 14 fc 9f 3e c7 d1 8a bf 11 ab c3 3e 11 86 60 bf
       0.31247008 -1.0845269 0.3821645 -0.8770457
0002b0 f6 c1 22 3f 8f d7 3d 3e 96 14 10 be 63 13 03 3e
       0.6357721 0.1853926 -0.14070353 0.12800364
0002c0 b3 4c b9 3e 4e 82 7c bf 1f a2 02 3f d9 c0 b8 be
       0.3619133 -0.9863633 0.5102863 -0.3608463
0002d0 c9 44 fd be bf a5 11 bf e0 97 86 3e d1 d6 d9 3e
       -0.4946654 -0.56893533 0.26287746 0.42546704
0002e0 2c 2e 6a 3f 11 9f 3e bf 6d 8d 13 3e a5 51 78 be
       0.914767 -0.74461466 0.14409418 -0.24249895
0002f0 3b 11 08 bf 4a fd da bd 46 0f e0 3e 02 20 7e 3e
       -0.5315129 -0.10692842 0.43761653 0.24816898
000300 b7 1f b5 3e f5 80 eb bd 13 02 4b bf e6 db ca bf
       0.3537576 -0.11499206 -0.7930004 -1.5848358
000310 28 db 9e 3f 93 66 56 bd 39 07 bd 3d e0 df 1f 3e
       1.2410631 -0.052343916 0.09229893 0.15612745
000320 6f 05 ab 3d f5 c5 93 3e bd 36 fc bf fc 2d 51 be
       0.08350646 0.28861967 -1.9704205 -0.20427698
000330 ab 72 b5 3e df 28 d6 3e fe e9 c2 bd d5 68 66 3e
       0.35439047 0.41828057 -0.09517287 0.22500928
000340 25 39 24 3f 6f 26 99 be a3 96 d1 3e 27 a1 49 3d
       0.64149696 -0.29912135 0.4093524 0.049225952
000350 59 ac 0d bf e8 4a 1d bf 1a 9c 10 3d b1 53 7e 3e
       -0.55341107 -0.6144242 0.03530512 0.24836613
000360 8c 0d 41 3c 36 e1 a2 bf 92 2d 46 3e ed 24 99 bf
       0.011783015 -1.2724979 0.19353321 -1.1964394
000370 78 f7 5e 3e 51 08 85 3e 5e 77 9f 3e 29 f6 7a bc
       0.2177409 0.25982907 0.31145757 -0.015317478
000380 1a b2 58 bf ff 8a 53 bf 38 08 e4 be 85 61 40 bf
       -0.8464676 -0.82633966 -0.4453752 -0.75148803
000390 3a 31 22 3d a8 88 ea 3c 28 41 ae 3d a9 b2 c9 3e
       0.039597727 0.028629616 0.08508521 0.3939412
0003a0 76 e4 3d 3f 51 eb 0e 3e a3 90 a0 3d ec 97 4a be
       0.7417673 0.13956954 0.07840087 -0.19784516
0003b0 bc c8 08 bf d4 36 8b bf ef 66 72 be 80 c1 13 3d
       -0.53431296 -1.0876107 -0.23672079 0.036073208
0003c0 ba 13 44 3f b1 15 3d 3d df 50 e4 bd 5f 93 5c be
       0.765926 0.046163265 -0.111482374 -0.21540593
0003d0 f7 a9 18 bf 87 94 89 bf b3 67 5f 3d da c4 48 be
       -0.59634346 -1.0748452 0.054542255 -0.19606343
0003e0 03 20 9b bf f3 d2 51 bf dd 25 45 bf 5f 65 d2 3c
       -1.2119144 -0.8196251 -0.770109 0.025683103
0003f0 e4 a2 7d 3f f9 f6 28 3e 33 25 4d be 00 5b 7b be
       0.99076676 0.16500463 -0.20033722 -0.24546432

fc2.weight f4 [32, 32]
000000 4f 6a c3 be 1c 86 53 3f 2c b3 eb 3e 2e af 95 3e
       -0.38167045 0.8262651 0.46035135 0.29235214
000010 d3 9e f9 3e a4 38 28 3f 83 2d 1f 3f 9d 6f 4a 3f
       0.48753986 0.65711427 0.6217882 0.7907656
000020 9b cd 6f 3f 7b b6 8a 3e 2a 2b 23 3b 22 83 18 3f
       0.93673104 0.27092347 0.0024897554 0.5957509
000030 40 09 56 3f 6e 46 1f 3f 61 57 00 bf b7 f8 27 3f
       0.83607864 0.6221684 -0.5013333 0.65613884
000040 4a e6 c3 3e 51 b6 5d 3f 24 80 08 3f 97 20 95 3e
       0.38261634 0.8660632 0.5332053 0.29126427
000050 ca 91 62 3f 44 f9 ba 3e 9e 2a ea 3e 0e 5d 1d 3f
       0.88503706 0.365183 0.4573564 0.61470115
000060 9c 30 77 3e a3 c1 95 3e 5a af e6 3e 2f b4 0b 3f
       0.24139637 0.29249296 0.45055658 0.54571813
000070 08 1b 0d 3f 99 2b 32 3f 26 fb 19 3f 83 b2 a9 3f
       0.5511937 0.69597775 0.6014885 1.3257602
000080 62 c9 2f be 82 ba 4c 3f bf bd 2a bd 12 a0 e0 3e
       -0.17166665 0.7997209 -0.041684862 0.43872124
000090 e2 de 98 3e 35 6c e4 3e 27 fe 8b 3e 68 50 c0 3e
       0.29857546 0.44613805 0.2734234 0.37561345
0000a0 5f 45 d9 3e 9e 0c 51 3e 8f 15 83 3e 71 bc 16 3e
       0.42435738 0.2041497 0.25602385 0.14720322
0000b0 d0 d2 1a 3e bf c9 b2 3e 7f eb 3c bf 37 8f 68 3f
       0.15119481 0.34919545 -0.7379684 0.9084353
0000c0 5f f0 fd 3e ed f2 84 3e c4 6f 32 3f 15 5f fd 3e
       0.4959745 0.25966588 0.6970179 0.49486604
0000d0 68 1e 0f 3f 1e 02 5c 3e 63 e2 36 3e 9e f5 a8 3e
       0.5590577 0.21485183 0.17859797 0.3299989
0000e0 2b 37 25 3e 31 dd 94 3d ba 5b 18 3f b2 5c 4f 3e
       0.16134326 0.072687514 0.59514964 0.20250204
0000f0 53 4f 93 3e 6a 45 05 3f 96 98 36 3f 7d 63 85 3f
       0.28771457 0.5205904 0.7132658 1.0420986
000100 62 c5 91 be 93 f9 4f 3f 2d f0 5c 3d 07 e5 a8 3e
       -0.28470904 0.81240195 0.053939987 0.32987234
000110 bb 8a 02 3f b8 02 11 3f ee 78 e1 3e 52 1b ed 3e
       0.50992936 0.56644773 0.44037575 0.46309906
000120 38 3f 42 3f 48 c2 1b be 71 2f 00 3e 48 aa 8b 3e
       0.75877714 -0.15210831 0.12518097 0.27278352
000130 6a 7e ff 3e 96 50 03 3f 4e 90 eb be 9a e2 43 3f
       0.49901134 0.5129484 -0.46008533 0.7651764
000140 e8 8e ee 3e 2a df 0c 3f 5f ea 53 3f e5 a0 19 3f
       0.46593404 0.5502802 0.82779497 0.6001113
000150 7e 9d e8 3e 5d ab ad 3e 04 a0 09 3f a9 61 0b 3f
       0.45432657 0.33919802 0.5375979 0.5444589
000160 ea 0e 81 bc eb 2b 0c 3e 1c d2 19 3f 42 da 95 3e
       -0.015754182 0.13688628 0.60086226 0.2926808
000170 e7 e2 88 3e 90 26 1d 3f 01 b3 e9 3e b0 1e 99 3f
       0.26735613 0.61386967 0.45644382 1.196249
000180 77 36 68 be f9 5a 67 3d ad db d8 3e f8 7c ed 3e
       -0.22677027 0.056483243 0.423551 0.46384406
000190 26 88 80 3e ae 73 e5 3e 86 07 20 3e 31 f6 a4 3e
       0.25103873 0.4481482 0.1562787 0.3221908
0001a0 7f 19 df 3e 8f 6f 07 bf d7 cf 03 bf b3 c8 b7 3e
       0.4357414 -0.529046 -0.51489013 0.3589531
0001b0 6f a8 33 3f dd ee c8 3e 0b 92 25 be 96 77 a7 be
       0.70178884 0.39244738 -0.16168992 -0.32708424
0001c0 f1 9f 3c 3e 4f 6f 47 3f 7d 9b 1c bf 6a ed 8e 3e
       0.18420388 0.7790422 -0.61174756 0.27915508
0001d0 c6 7b 8d 3e 81 bd 88 3d de 57 3a 3e bc 2e 84 3e
       0.27633494 0.0667677 0.18197581 0.25816905
0001e0 ea 2c d7 3c d6 24 59 3e 50 de e4 3e 07 30 b2 3e
       0.026266534 0.21205458 0.4470086 0.34802267
0001f0 52 9c 8f 3e 4a 69 9d bd 76 83 8e 3d e4 b9 73 3f
       0.2804895 -0.07686098 0.06958668 0.9520552
000200 ec ac 83 be d0 eb 2c 3f 87 d7 2b 3f a9 c4 79 3e
       -0.25717866 0.6754732 0.67125744 0.24391426
000210 e7 56 01 3e cf 2f ee 3e 16 f2 94 3e 20 00 d5 3e
       0.12630807 0.4652085 0.29090947 0.41601658
000220 99 4f 36 3f 22 8a 18 3e 06 dc 21 be cb 7b 10 3f
       0.71215206 0.14896443 -0.15806589 0.56438893
000230 b8 54 5d 3f 75 0f 7c 3e 8d a0 8e be d1 dd 56 3f
       0.86457396 0.24615271 -0.27856866 0.83932215
000240 6a 6d 05 3f 57 1c 7a 3f dc 1a 86 3e 10 3a 06 3f
       0.5212008 0.97699493 0.26192367 0.52432346
000250 5d 6b 06 3f f9 4a 7e 3e f7 47 f4 3e fd 00 cb 3e
       0.52507573 0.24833287 0.47711155 0.39649191
000260 ad 79 8a 3e ac 04 1d 3f 8f f2 86 3e c2 37 cf 3d
       0.27045956 0.61335254 0.26356933 0.10118057
000270 32 f5 90 3e 83 37 b7 3e 8f ea c0 3e 8f 98 8c 3f
       0.2831207 0.3578454 0.37678954 1.0984057
000280 89 c2 6b be 13 09 6c 3e 9c 2a 0f 3e 1a fe 0d be
       -0.23023428 0.23050337 0.13981098 -0.13866463
000290 a8 ed ce bd cd e2 c0 be a2 72 7d 3e e3 4f 81 3e
       -0.10103923 -0.37673035 0.2475076 0.2525626
0002a0 dc bd 17 3f e4 6f 63 3d 9a d9 8c 3d d4 f9 5e 3e
       0.5927408 0.05552663 0.06877442 0.2177499
0002b0 d6 c8 07 3e b8 b1 9e 3c b1 7d 7c 3e 47 66 42 bf
       0.13260207 0.019371852 0.24657322 -0.7593731
0002c0 d9 9e bc be 6c db 60 3e 96 84 85 3f 8f 77 88 be
       -0.3683994 0.21958703 1.0431087 -0.26653716
0002d0 7f 53 87 3d 3d 41 a3 3d 0e 2a f5 bb 42 6b a0 3d
       0.066077225 0.079714276 -0.00748182 0.07832958
0002e0 1c a4 aa bd d9 8d c0 be 54 76 41 be e8 d8 44 3e
       -0.08332083 -0.3760822 -0.18892795 0.19223368
0002f0 dc 0f 8d be 6c 32 23 3f 4e ed 49 be e5 42 1c 3f
       -0.27551162 0.6374881 -0.19719431 0.6103957
000300 32 e3 bd be 2c 34 11 3f 5d 8b c5 3e c7 72 32 3f
       -0.370874 0.5672023 0.38582888 0.69706386
000310 09 69 17 3f 06 ea 05 3f 4e 8d 89 3e 04 41 08 3f
       0.59144646 0.52310216 0.2686562 0.53224206
000320 ca 7e 07 3f b1 43 fb 3e ad 31 49 bd 06 f9 2c 3e
       0.5292784 0.49075082 -0.04911964 0.1689187
000330 fd f4 54 3e 8b fa 88 3e d3 0a e3 be b6 2a f1 3e
       0.2079658 0.2675365 -0.44344196 0.47102898
000340 fc 0f d2 3e d6 cc 19 3f 39 b9 40 3f c9 7b 1b 3e
       0.4102782 0.6007818 0.7528263 0.15183939
000350 d7 ca ac 3e 2e 42 f4 3d 73 87 e1 3e c0 e6 23 3f
       0.33748505 0.11926685 0.44048652 0.6402397
000360 55 f7 2c bd 2a f2 88 3d b9 78 27 3f 71 a7 b9 3c
       -0.04222806 0.06686814 0.65418583 0.02266285
000370 0e e2 46 3e d0 ed 32 3f a4 3c dc 3e 71 c7 85 3f
       0.1942217 0.69894123 0.43015015 1.045149
000380 0f db ea 3f 24 d5 b0 bd 36 40 cc bf 68 ad a2 3e
       1.8348101 -0.08634403 -1.5957096 0.31772923
000390 57 a8 97 bf e3 37 23 bb 2a a6 54 bf 11 e0 b4 bf
       -1.1848248 -0.0024905137 -0.83066046 -1.413088
0003a0 db 3f 7b bf 27 e6 95 be e4 2f 55 3f fc c8 71 bf
       -0.9814431 -0.29277155 0.832762 -0.944473
0003b0 ee 93 f2 3e ed 79 a8 bf aa d3 c7 3f e6 bf 9b be
       0.47378486 -1.3162209 1.561147 -0.30419844
0003c0 1d ac b1 be e3 86 1e c0 6e c5 dd 3d 14 90 6d 3e
       -0.34701625 -2.4769828 0.10828672 0.23199493
0003d0 e0 6a cd bf 11 89 90 bf 55 51 12 bc 10 f1 5c be
       -1.6048241 -1.1291829 -0.008930524 -0.21576333
0003e0 0b ac 89 3f a7 9a 80 bd dc 7a 84 bd 98 36 8d bf
       1.0755628 -0.062794976 -0.06468746 -1.1032286
0003f0 a2 51 93 bf 7a 71 fa 3d 35 16 1e be 34 cf ad be
       -1.1509287 0.12228675 -0.15438159 -0.33947146

fc3.weight f4 [4, 32]
000000 29 b5 15 bf 93 aa f7 be af 81 f3 be 76 b0 ad be
       -0.58479553 -0.48372325 -0.47559878 -0.33923692
000010 e8 23 cc be 00 e0 fa 3d 74 48 ed be af f5 d7 3f
       -0.39871144 0.12249756 -0.4634434 1.6871852
000020 94 26 1f 40 0e 38 28 40 77 26 8f be d1 1f bf be
       2.4867296 2.6284213 -0.27959034 -0.37328961
000030 5d 63 04 bf 87 7d 72 3f 90 09 1c bf eb 8c 17 bf
       -0.51714116 0.9472279 -0.6095209 -0.591994
000040 b4 ba 42 40 0f 87 10 bf 6c e4 8e be ba ef 1d bf
       3.0426455 -0.56456083 -0.27908647 -0.6169392
000050 7e 63 0a bf 3f 2b c3 3f 2c 87 ca be 98 c7 88 be
       -0.54058063 1.5247573 -0.39556253 -0.26714778
000060 07 ce a3 be 65 8e dc be d3 74 89 3c 64 05 e2 bd
       -0.31993124 -0.43077388 0.016779339 -0.110361844
000070 d8 f0 29 bf 66 9d a2 be b0 c2 04 40 93 a5 fb be
       -0.66383123 -0.3176071 2.0743828 -0.4914976
000080 9d 52 eb be f3 91 0d bf 46 b0 ae be 96 d2 31 be
       -0.45961466 -0.55300826 -0.3411886 -0.17365488
000090 59 64 3a bf 51 04 c7 be ad 4f 1c be 24 f0 29 40
       -0.7280937 -0.3887048 -0.15264769 2.655282
0000a0 6b 5b 02 40 12 aa fa 3f d2 cd dc be 88 4f 1c bf
       2.0368297 1.9583151 -0.43125778 -0.61058855
0000b0 43 c1 1b bf 79 14 bc 3f 64 4e b8 be 6b be 0a bf
       -0.6084177 1.4693748 -0.35997307 -0.54196805
0000c0 67 e2 35 40 da 21 2c bf b4 b7 bf be ed 51 14 bf
       2.8419435 -0.67239153 -0.37444842 -0.5793751
0000d0 c1 49 81 be 17 50 de 3f dd 32 1d bf d4 6f d8 be
       -0.25251582 1.7368191 -0.61405736 -0.42272818
0000e0 34 cf 0c be 08 c4 00 bf 65 30 22 3d 3d 59 06 3d
       -0.13750917 -0.5029912 0.039596934 0.032799948
0000f0 dc 68 2a bf 47 81 9e be b3 df f6 3f 43 20 94 bd
       -0.6656625 -0.30958006 1.9287018 -0.07232716
000100 91 93 17 bf 46 21 fd be 28 66 a9 be 52 1f 34 bf
       -0.59209543 -0.49439448 -0.33085752 -0.7036029
000110 e0 3e 05 bf 48 7d 3d bc 04 11 24 bf eb 18 d5 3f
       -0.52049065 -0.011565514 -0.64088464 1.6648229
000120 af 56 1e 40 07 25 20 40 ab 81 06 bf a8 47 a1 be
       2.4740407 2.50226 -0.5254161 -0.31499982
000130 42 c5 19 bf 7e e1 76 bf 7c cd 9e be c2 ae d4 be
       -0.60066617 -0.96437824 -0.31016147 -0.4153958
000140 26 13 eb 3f 41 b5 9d be 9e 1e 44 bf ab da 98 be
       1.8365219 -0.30802348 -0.7660922 -0.2985433
000150 0e d0 b5 bd 32 0c ea 3f 3f ee e8 be 57 34 00 bf
       -0.08877574 1.8284972 -0.45494267 -0.50079864
000160 90 bd 36 bf 4e 32 99 be 50 55 2a 40 0d f1 c6 3d
       -0.71383 -0.29921192 2.661457 0.097139455
000170 b7 c9 2c bf ce 7e 1e bf ed 1e bd 3e f6 42 76 be
       -0.6749529 -0.6191224 0.36937657 -0.24048981
000180 a3 7e e1 be 10 69 09 bf a7 db 0e bf f9 6a 83 be
       -0.4404193 -0.5367594 -0.5580391 -0.2566755
000190 86 23 44 be 84 8a 45 bf cf e8 0c bf 2f 55 11 3f
       -0.19154176 -0.77164483 -0.5504274 0.56770605
0001a0 42 6f 16 40 1f 19 41 40 f3 c9 ea be f2 5b 13 bf
       2.3505406 3.0171583 -0.458572 -0.5756217
0001b0 3a 38 10 bf cb 1b 86 3f a6 30 f6 be e1 c1 34 be
       -0.56335795 1.0477232 -0.4808399 -0.17652084
0001c0 ff 30 3e 40 f4 23 5e be 0c 5b 2d bf bf e9 08 bf
       2.9717405 -0.21693403 -0.6771705 -0.5348167
0001d0 a6 da fd be 42 0f c7 3f a3 21 cd be 24 a0 ce be
       -0.49580878 1.5551531 -0.40064725 -0.40356553
0001e0 40 8b 04 bf 78 37 1e bf f9 0a 82 3e 80 55 88 3d
       -0.5177498 -0.6180339 0.25398996 0.06656933
0001f0 cf 5b d5 be ad 6e 92 be 96 02 38 40 11 25 23 bf
       -0.41671607 -0.28600064 2.8751578 -0.63728434
